best.pth (torch_old, 971507 bytes, 614 tensors)

module.slow_path.conv1.0.weight f4 [8, 3, 1, 7, 7]
00000000: 1b4d 54bd ff34 8f3d a410 3e3d 7ba2 62bd
00000010: 9c16 9d3d fb54 47bc 9f30 4e3d f37d 20bd
00000020: c4a4 ac3d 7e71 983d c9d2 adbb 6078 75bd
00000030: 7593 593d d5d8 3ebd d4ef 4a3c 5aa3 213d
00000040: 7363 df3c a262 3e3d 1f89 86bd a630 40bd
00000050: 699b 87bd 3d6c 40bc ca40 d13b c686 c9bc
00000060: b94a a53d 05cb 3d3d 21c4 4e3d b5c5 44bd
00000070: 0c98 7dbd 7b9d 913d 8d68 b13d 369f 9ebc
00000080: efe8 0dbd feb9 0b3d b15f 25bd 47ad 91bd
00000090: 7a5f a8bc 9dc5 69bd 127a d53c 5b82 673c
000000a0: 94a4 833d c5f5 abbc 1f0c 04bd f86a 8d3d
000000b0: fdc4 703c 9525 21bd 73db dc3c 60a5 89bc
000000c0: 43df 863b f535 22bb 352a 1f3c ec3d a53d
000000d0: 4975 073b 52c7 adbd 1df7 b4bd 6b2d 453d
000000e0: f0e2 163d 77df b33d 349e 7abd 942a 41bc
000000f0: e1f5 c93c 5748 c2bc b1e0 a23d e4b2 bb3d
00000100: 8c7a 483d 5f71 cdbc 2c4b 513d bc0a 473d
00000110: 0124 303c 8380 393b 2907 e73b 6269 113d
00000120: 451a 813d b0b7 6f3d bfae 91bd ee74 25bc
00000130: 1986 2b3d 3844 423d 2beb c53d 8c0b 593d
00000140: 1b8f 16bd 1df2 87bd c029 a3bc bfb1 783d
00000150: 0102 bb3d b054 6fb9 c2e0 77bd 8a80 473c
00000160: ea63 583d 3537 5b3d ee9f 6c3d 8b57 b33d
00000170: dc4f 843d 6701 863d 7e75 83bd f9c7 ff3c
00000180: 769b bdba 5948 84bc fc15 9b3c bdb5 a13d
00000190: fb3a 4dbd c00a 233d 9835 a03c 0b58 38bd
000001a0: 5853 16bd 1a71 6e3d 1b6b 403d 4486 1ebd
000001b0: 8f83 e5bc 607e 243d 215c 6cbd dddd cc3c
000001c0: 6e97 593d 156c 293d f81a 61bd 842c 28bd
000001d0: 4df1 34bd 7e76 6c3d dcf1 b93c 1c14 5c3d
000001e0: 568d 13bd 6117 273a 5029 ff3c a055 35bd
000001f0: 39e9 513d 91d2 813d dc35 5c3d 777a fd3c
00000200: 2d91 1b3d 347a 14bd 827e 413d 8271 43bd
00000210: 715b 883d 1a8c 38bd 33f9 9d3d 7951 28bb
00000220: 6f1c 17bd 8705 28ba fbba 37bd cbb8 3bbc
00000230: fc69 0bbd 6cbd 13bc 513c b53c f1f6 60bd
00000240: 6a39 eb3c 3e41 61bd 3d86 92bb a69e 9fbb
00000250: 8caf 06bd 82b4 283d a4b2 79bb 7f2c 56bd
00000260: f0b3 38bc 3c64 25bd 3c81 8abd 4277 e7bc
00000270: 8a74 1ebd d3be 9e3d bb83 4d3d 7e2f 303d
00000280: 8aa9 febc 8921 c73a 983a 333d 89c2 6dbd
00000290: 05ac c33c e712 75bd 93d4 f73c 716a 35bd
000002a0: 67db 353d 06ee 9b3c 2c64 f0bc 4503 0a3d
000002b0: d63b 81bc 8f7e 9dbc 7a1e 61bd 4f0f 1dbc
000002c0: 5cef 82bd a621 8ebd f38d e03c 9d10 02bd
000002d0: 71c7 163b af87 fc3c 8fb4 853d dc1f ba3b
000002e0: 14d2 6e3d 3eb3 72bd b1ad 0a3d 15b2 723d
000002f0: 891d bd3c 22fd 743d aeb2 9c3c 0bdf 05bd
00000300: df5e d4bb a192 d33b b1c8 ea3b 2d99 3ebd
00000310: a830 fe3c 9126 963d c90d d93d ccee f23d
00000320: 5286 7e3c 979d 56bc bf1c c53c 79f7 5d3c
00000330: dfd9 303d 7451 a93c 3318 69b8 bec8 673d
00000340: d92f 063d 6b2e 3a3c e7e8 3b3d bb7e a43c
00000350: 58af 56bd 55bb 86bd b4ed e73c 21fd 883d
00000360: 4bea 8abc 150d 253c 9145 5ebc a8f1 743d
00000370: 3706 c7bd 05c2 96bd c772 fc3c ef77 2b3d
00000380: 9b5b 86bc f711 0b3d e780 cfbc f9b7 033d
00000390: 856f c0bc 7712 3fbd b39c f8bb ec6d a73d
000003a0: 9a5c 923c 1e33 843d a031 b3bd bef9 21bd
000003b0: 4d33 29bd 556f 8b3d 2c86 133d b303 393c
000003c0: 494a 233d 348a 013d 5c63 a3bd 512d 813d
000003d0: c217 50bc a4f5 833d 3cb1 883c 4fa7 df3c
000003e0: fd1c 1a3c 1b4a a53d e196 a63d 8083 673d
000003f0: 4171 c2bd d9aa cbbd f51d 93bc 2705 9a3d
-0.051831346 0.0699253 0.04640259 -0.055330735 0.07670328 -0.012166257 0.050339337 -0.039182615
0.08429864 0.07443522 -0.0053046686 -0.05992925 0.05311914 -0.046593506 0.012386281 0.039462425
0.0272691 0.046480782 -0.065691225 -0.046921395 -0.06621439 -0.011744556 0.0063858973 -0.024600398
0.08070893 0.046336193 0.05048001 -0.04804011 -0.06191258 0.07110115 0.086625196 -0.019363027
-0.03464597 0.034112923 -0.04037446 -0.07113128 -0.02055334 -0.057073224 0.026059184 0.0141302
0.06427875 -0.020991215 -0.032238122 0.06905168 0.014695403 -0.03934248 0.02696011 -0.01680249
0.0041159703 -0.00247514 0.009714653 0.08068451 0.0020669273 -0.08485283 -0.088361956 0.048139017
0.03683752 0.08782857 -0.06118603 -0.011789937 0.024653377 -0.023716135 0.07953013 0.0916498
0.048944995 -0.025078474 0.05109708 0.04859422 0.0107507715 0.0028305359 0.007050414 0.03550089
0.06303839 0.058524787 -0.07113408 -0.010098679 0.041875932 0.04742834 0.09663995 0.052989528
-0.03675757 -0.06637976 -0.019917369 0.060716387 0.091312416 -0.00022824365 -0.06051708 0.012176642
0.05282966 0.053519446 0.05776971 0.08756932 0.064605445 0.06543236 -0.06418894 0.031223284
-0.0014465887 -0.01614778 0.018931381 0.07895992 -0.050105076 0.039805174 0.019556805 -0.04500584
-0.036700577 0.05821333 0.046977144 -0.038702264 -0.028016834 0.040159583 -0.05770505 0.025008136
0.05312293 0.04136284 -0.05495736 -0.04105808 -0.044175435 0.05773019 0.022698335 0.053730115
-0.03602346 0.0006374028 0.031147629 -0.04427111 0.05124781 0.063389905 0.0537623 0.030942185
0.037980247 -0.036249354 0.047239788 -0.04771567 0.06658066 -0.045055486 0.077135466 -0.0025683327
-0.03689235 -0.0006409515 -0.044856053 -0.011457632 -0.03403662 -0.00901733 0.022123488 -0.054923
0.0287139 -0.05499386 -0.004471569 -0.0048712073 -0.03288226 0.04118777 -0.0038100863 -0.05228853
-0.011273369 -0.040378794 -0.06762931 -0.028255109 -0.03868536 0.077512406 0.050174456 0.043014042
-0.031086702 0.0015192489 0.04375705 -0.05804685 0.023885736 -0.05983248 0.03025273 -0.044290964
0.04439869 0.019034397 -0.02934464 0.033694524 -0.015775602 -0.019225387 -0.054960705 -0.009586169
-0.063933104 -0.06940012 0.027411437 -0.031754125 0.002300706 0.030826418 0.065285794 0.0056800675
0.058305815 -0.05925297 0.03385705 0.059251864 0.023085373 0.05981172 0.01912817 -0.032683413
-0.006481036 0.0064566885 0.0071650376 -0.0465328 0.03102906 0.07331575 0.105983324 0.11861953
0.015534954 -0.013099096 0.024061559 0.013547772 0.043176528 0.020668723 -5.5574066e-05 0.056587927
0.032760475 0.011363606 0.04587641 0.020079961 -0.052413315 -0.065786995 0.028311588 0.066889055
-0.016957423 0.01007392 -0.013566391 0.059800774 -0.09717982 -0.07361225 0.030816449 0.041862424
-0.016401103 0.03395268 -0.02533002 0.032157872 -0.023490677 -0.04664847 -0.0075870394 0.08175263
0.017866421 0.06455062 -0.087496996 -0.039544813 -0.04130869 0.06808344 0.03601663 0.011292386
0.039865766 0.03162594 -0.07977936 0.063074715 -0.012700977 0.064433366 0.016686074 0.027301459
0.009406325 0.08070775 0.081342466 0.056521893 -0.09494258 -0.09944696 -0.01795862 0.07520514

module.slow_path.conv1.1.weight f4 [8]
00000000: a280 833f 74bb 7d3f 5588 823f 8c86 803f
00000010: 0036 7f3f b30e 803f 23f0 803f a041 7b3f
1.0273631 0.99114156 1.0197855 1.004106 0.9969177 1.0004486 1.0073284 0.9814701

module.slow_path.conv1.1.bias f4 [8]
00000000: d9f4 953c 2fcf a1bc acb9 bdba cafc 30bc
00000010: 8f80 9fbc d3d2 a93a 2c4e 073c d18a 87bc
0.018305229 -0.019752113 -0.001447489 -0.010802457 -0.019470481 0.0012956507 0.008258384 -0.016545685

module.slow_path.conv1.1.running_mean f4 [8]
00000000: 34bb ff3e feee 093e 3b58 233f 91df 9fbd
00000010: 51bb 3abf c8e0 e2be 2b11 733e 91f1 623f
0.49947512 0.13470075 0.63806504 -0.07806314 -0.7294207 -0.4431212 0.23737018 0.8864985

module.slow_path.conv1.1.running_var f4 [8]
00000000: d5d4 e73d 7810 473c a7c8 2c3e d915 273c
00000010: 449d 5c3e 0590 b13d 354b 0b3d cee4 af3e
0.11319891 0.012149923 0.16873418 0.01019808 0.21544367 0.08670048 0.03400727 0.34354252

module.slow_path.layer1.0.block.0.block.0.weight f4 [8, 8, 1, 1, 1]
00000000: c09b 7cbd a395 c13e b69d 79be 684c 96be
00000010: d106 fc3d 8e62 423d 5f21 563e 4ed5 a1be
00000020: 4318 2a3e db00 40be cf43 34be 56df 14be
00000030: e889 943e ecf6 6c3d 1ea1 293e 4d76 333a
00000040: 0494 8d3d f71f ed3c b073 7c3e 45ad 87be
00000050: fe1c bebc d6f6 11bc 5914 303e 28e8 af3e
00000060: 4c5d 8a3e 3243 4b3e d819 d93c d429 76be
00000070: fa1d 0f3e 67c5 d7bc 264c c9bd bad7 97be
00000080: dac9 743d 20ec 0d3e 0d0b 24be 4649 853d
00000090: e021 b23d 9858 0abd e43a f4bc 0bb9 3a3d
000000a0: a447 e13d 66cf acbb 6cf8 cc3d d309 9a3e
000000b0: 3ea1 9c3e 71c0 873e cd3b b13e ed03 213e
000000c0: ca70 103d 0f03 8abe 4014 983d ca1e acbe
000000d0: 91cb 9c3e a19f 023e 9b23 ffbd 1b58 a33e
000000e0: db1d a9bc 6e1c 86be 1562 85be 9703 a83d
000000f0: ab34 9f3e 3db1 7a3d 11a0 d4bd 1dbb aa3e
-0.061671972 0.37809476 -0.24376568 -0.29355168 0.123059876 0.04745727 0.20911168 -0.3160805
0.16610818 -0.18750326 -0.17603992 -0.14538321 0.29011464 0.05785267 0.16565368 0.00068459363
0.06912997 0.028945906 0.24653506 -0.26499382 -0.023207184 -0.008908948 0.17195262 0.3435681
0.27024305 0.19849852 0.026501581 -0.24039394 0.13976279 -0.026339246 -0.09828977 -0.29656774
0.059762813 0.13859606 -0.1601984 0.065081164 0.086978674 -0.033775896 -0.029813237 0.045586627
0.109999925 -0.0052737473 0.1000832 0.3008562 0.30591768 0.2651401 0.34615937 0.15724154
0.035263814 -0.2695546 0.074257374 -0.3361724 0.3062406 0.12756206 -0.12457963 0.31903157
-0.020644119 -0.26193565 -0.26051393 0.0820381 0.3109487 0.061204184 -0.10382093 0.3334588

module.slow_path.layer1.0.block.0.block.1.weight f4 [8]
00000000: 0ba7 7a3f 4ca7 833f 8c5a 773f cd0c 7a3f
00000010: eb9d 803f 1b8e 7c3f 894a 843f 6cbc 7e3f
0.9791114 1.028543 0.9662254 0.9767578 1.0048193 0.98654336 1.0335246 0.9950626

module.slow_path.layer1.0.block.0.block.1.bias f4 [8]
00000000: 8245 233c 871e 95bc 1da2 07bd 66ab c93c
00000010: 22b5 52ba a28f f7bb 178c 633c df71 07bc
0.009965302 -0.018203033 -0.033113588 0.024617862 -0.0008037855 -0.007554964 0.0138883805 -0.008266895

module.slow_path.layer1.0.block.0.block.1.running_mean f4 [8]
00000000: 0f18 4ebd ca61 6cbd c1a9 9c3d 4885 0a3e
00000010: 2e75 743e b420 353f b14e 94be aa8b 1abd
-0.050315913 -0.057710446 0.076495655 0.13527405 0.23872826 0.70753026 -0.28966287 -0.03773085

module.slow_path.layer1.0.block.0.block.1.running_var f4 [8]
00000000: d336 be3d fca6 ea3c 819e 153f 92cd d53d
00000010: 580f 223d d636 8c3e 84fd 253e 4ad2 c73d
0.09287801 0.028644077 0.5844498 0.104396 0.039565414 0.27385587 0.1620999 0.09756906

module.slow_path.layer1.0.block.1.block.0.weight f4 [8, 1, 1, 3, 3]
00000000: c58a 863d ac16 89bc b601 80be f18c 163e
00000010: 3119 2ebe f5d0 88bd 0bd6 8d3e 4437 f5bc
00000020: c17f 54be 151c 30bd 2eb7 603d c44a 9ebc
00000030: 1c72 64be 06af 58bd f755 a33e d932 933e
00000040: 26bd 63bd 4921 79be 1faa 1fbe 5d62 91be
00000050: 15ce 43be d467 3ebe d6d9 a03e 6139 ca3d
00000060: 6695 683e fac1 7b3c 9eea 3a3e cf0f 81bd
00000070: a841 463e 554e cbbd b119 633e 7a29 4bbe
00000080: 6520 7a3e 65d0 ff3d 537b 28be b951 94be
00000090: 8549 95be 9fad 8cbd 912d 4dbe 0598 843d
000000a0: b915 dfbd 9a6f 38bd a85d bf3d 89b0 91be
000000b0: eb0a 223e dab8 a03d 2d8a 7cbd 2406 71bd
000000c0: 1f33 4a3e 4522 81be 4f6a 163e 957f 053d
000000d0: 5e89 093e b601 c5bd be41 a9be 5be8 473d
000000e0: b088 9c3d 6d7f d7bd 7bb1 1a3c 881b 503c
000000f0: 1fa6 93bd 7d5e 343d 13b5 a6bd 9eb4 983b
00000100: 66af 4bbe b6f0 5cbe 3474 9a3e 87df 13be
00000110: 9b4c 003e ee2e 29be c212 373e 0bb6 8c3c
0.06569437 -0.016734444 -0.25001305 0.14702202 -0.17001797 -0.066804804 0.27702364 -0.02993358
-0.20751859 -0.04299553 0.054862194 -0.01932276 -0.22309154 -0.05290129 0.31901523 0.2874973
-0.055600308 -0.24329104 -0.1559224 -0.28395358 -0.19121583 -0.18594295 0.31416196 0.098742254
0.22713241 0.015366072 0.18253562 -0.063018434 0.19360983 -0.0992705 0.22177769 -0.19840041
0.2442642 0.1249092 -0.16453294 -0.289686 -0.29157653 -0.06869053 -0.20036913 0.06474308
-0.10892815 -0.045028307 0.093440354 -0.28454998 0.15824477 0.07847758 -0.061655212 -0.058843747
0.19746064 -0.25221458 0.14688991 0.032592375 0.13431308 -0.09619467 -0.3305797 0.048805576
0.076432586 -0.105223514 0.009441729 0.012701876 -0.072094195 0.044035424 -0.08140006 0.004660203
-0.19891128 -0.21576199 0.3016678 -0.14440738 0.12529223 -0.16521809 0.1787825 0.017176649

module.slow_path.layer1.0.block.1.block.0.bias f4 [8]
00000000: 3734 093c 3659 583d dbd0 a23e 698a c1bd
00000010: 3633 89be dc56 583d f0bd 163e 8997 7c3e
0.008374265 0.052819453 0.3179997 -0.09450228 -0.26796883 0.05281721 0.14720893 0.24667181

module.slow_path.layer1.0.block.1.block.2.weight f4 [8, 8, 1, 1, 1]
00000000: 2a9b f7bd 7afb 0abc 8693 483e 01d2 f5bc
00000010: 97d3 6fbe 07da 4a3e ce43 543e 4ca0 a53c
00000020: 9146 a5be 985b 8a3e 7fc1 59be 4650 373e
00000030: fd73 72be dca5 38be 229f a93e 3cc3 103e
00000040: 6e74 a8bd 9326 a2bd e467 25be 3a46 4f3e
00000050: 26d0 31be 4de5 6abe 6970 32be 9e8f af3c
00000060: 5efb a83d fa06 393e 6fc2 20be aa12 74bc
00000070: 9b1b 56be ec40 d23d b47d e53d d2be 44be
00000080: 5a1a bc3c e218 b4be 5ac6 dabd b4d0 253e
00000090: 8e28 733d 8d1a 92be 973a 8abe 9cc5 be3d
000000a0: ee6e 0ebd 75df 5abe cd0b 96bc b3e0 403e
000000b0: 7019 a8be 2912 883c 75ce 8a3e ccc7 ad3e
000000c0: d55b 823e 54c5 b9bd c54f 70be 41a4 693e
000000d0: e98c 8a3e 3989 9ebe f69c 88be 434b 483e
000000e0: b704 e8bc 05ba 1b3e a179 a93e d8fb 1d3e
000000f0: 77de 89bc f90a 85be 85ac b3be 16b8 c1bc
-0.12090142 -0.008482808 0.19587526 -0.030007364 -0.23420559 0.19809733 0.2072899 0.020218037
-0.322804 0.27023005 -0.21265219 0.17901716 -0.23677059 -0.1803202 0.3312922 0.14136976
-0.08225332 -0.07917514 -0.16152912 0.20241633 -0.17364559 -0.22939034 -0.17425694 0.021430787
0.082510695 0.18069068 -0.1569917 -0.014897028 -0.20908968 0.10266289 0.112056166 -0.19213417
0.022961784 -0.35175234 -0.10682364 0.16192895 0.059364848 -0.28535882 -0.26997826 0.09315035
-0.03477376 -0.21374305 -0.018316174 0.18835716 -0.32831907 0.016610222 0.2711064 0.33941495
0.25460687 -0.090708405 -0.2346793 0.22816564 0.2706063 -0.30964068 -0.26682252 0.1955996
-0.02832256 0.1520768 0.33100608 0.15428102 -0.016829712 -0.25984934 -0.3509256 -0.02364735

module.slow_path.layer1.0.block.1.block.3.weight f4 [8]
00000000: e8e5 7b3f 0f3c 833f 4085 7c3f 5ff2 813f
00000010: 77e4 803f f917 7c3f 7d6a 7e3f ba30 803f
0.98397684 1.0252703 0.98640823 1.0152091 1.0069722 0.9847408 0.9938124 1.001487

module.slow_path.layer1.0.block.1.block.3.bias f4 [8]
00000000: e07e 34b9 c700 c338 3e71 5ab8 a5bc cd39
00000010: 5381 90ba 9293 0f37 4ad2 fe39 39b7 5e39
-0.00017213402 9.2984694e-05 -5.2080715e-05 0.00039241198 -0.001102487 8.557823e-06 0.00048603333 0.00021239826

module.slow_path.layer1.0.block.1.block.3.running_mean f4 [8]
00000000: 20d6 9d3d f8e7 c0bc da2e 13be 8ab0 9abd
00000010: f6c1 e1bd cadc 983d d929 0abd 1619 ae3c
0.07706857 -0.023548111 -0.14373341 -0.075532034 -0.11023323 0.07463987 -0.033731315 0.021252196

module.slow_path.layer1.0.block.1.block.3.running_var f4 [8]
00000000: 44c0 a03c ecfa 163d c42e 2e3c 732e 1c3c
00000010: b23a b33c c0f3 d83c adda 1f3d f7cd b43c
0.01962293 0.03686039 0.010631267 0.009532559 0.021878574 0.026483417 0.039026905 0.022070868

module.slow_path.layer1.0.block.2.block.0.weight f4 [32, 8, 1, 1, 1]
00000000: c167 80be 1694 7cbe 6639 f6bc 60ba 3d3e
00000010: e996 4ebe 438d 883d 5cb8 81be 3c58 89be
00000020: fa1b 92bd cad1 853c ed04 9c3e ce13 253e
00000030: 13d4 243d dd13 3ebe 34f0 3b3e 30fc aa3e
00000040: 0564 9d3e 0b9c 193e 4500 cc3d 86d3 c4bc
00000050: c988 5cbe efc9 86bd 2f8e 5b3e 4870 1b3d
00000060: 6a06 99be 427f bbbe 0606 b5be 4d82 ac3e
00000070: 2b91 35be 9346 8f3d 95af 13be 08fb 1b3e
00000080: 1711 193e 66f7 9d3d 4df8 733e 9a96 8a3e
00000090: c094 a73e 5019 953e 55fc 623e 2555 3abd
000000a0: 9aaf b6be a9ea 133e 7889 a63c b2d0 debd
000000b0: 64bf 8abd 7197 52be 8e4b 823e 688d 953e
000000c0: 0c1c 8dbe 5e4a 713e 17b9 98be 5880 3b3e
000000d0: 341a 033e 512d a13e f240 74be 94e0 b13e
000000e0: 5e47 aebe befa 9fbe 5809 4a3e 365d a33e
000000f0: 59e5 2e3e eb2b e3bd 8a6a 76bc f6cb 3dbd
00000100: f603 96be a7a7 893d 1269 023e 6c74 923e
00000110: e584 a0be 2e5e 8bbe 1ebe 1b3e 92c4 11bd
00000120: acaf 453e 906e b63e 0348 a7be 72c3 88be
00000130: c485 abbe b11e 7c3e 3e68 053d 3f8f 80bd
00000140: de7e 4dbe 7436 42bc 374d 783e 7acf cd3d
00000150: 84cb 733e 0dc1 3a3d 6a5a e4bd 11cb 80bd
00000160: 3823 89be fa40 8b3e 447c a53d d3ff 523e
00000170: 88ea 513e b4de 0f3d e62d 383c b417 63be
00000180: 2aa2 86be e818 85be 9662 7b3e da06 973e
00000190: 8442 2bbe cdcd 463e 0fa0 51be 347c 5dbb
000001a0: 7ddf 7ebe 67de efbc 4f0c 043e 7da6 f6bd
000001b0: 64f0 3bbe c696 fd3d 6ba9 7e3e 986d 733e
000001c0: eb7a 2c3e 31cc 8ebe 8f63 993e 1fb8 0f3d
000001d0: 6182 3e3e 9057 e03d 98c6 0bbe 5b4b 4dbe
000001e0: 142a 54bd 745a bb3e 9915 d83d 5c75 9b3e
000001f0: ed23 0bbe be43 7dbe 83e8 a43e 718c a23e
00000200: 564e 8d3e 80c2 aa3e 2d97 ccbd 45f4 dcbd
00000210: 8d7b 77bc f31f 81be e734 373d c6f3 4ebe
00000220: 62c4 963e 1067 5abe b2ed 98bd c5ef 1b3e
00000230: 925a 193e cbff 0e3a ed9a a6be f0e1 d1bd
00000240: 51c0 873e e079 c3bb 12cf 57be a9d1 903c
00000250: 0dfd 3c3e b311 ffbd 766c 4ebe 8f21 8ebe
00000260: cb25 1dbd 96b0 733e 9c6b bebd 7650 943d
00000270: 6499 07be de4a 27bc a7f8 843d e1ca 57bd
00000280: 3c84 9c3e dfc3 97be 67de b13d 84b4 dfbd
00000290: cb3a a53e 29df 4fbe 23c0 263e 74ea 12bd
000002a0: 1f80 9abe e3f2 023e fd03 203d 4f23 583e
000002b0: e79a 813e 5316 41be 8fa5 61bc 9a42 fc3d
000002c0: 49a2 493e eaad 0abe 5825 71bd a9a2 2ebe
000002d0: ce13 ea3d 3c0a 9a3e 32f7 1abe bfa5 99be
000002e0: 557d 50be 64a2 d9bc 242e 68be bdce 9b3e
000002f0: ba59 dc3d fdd2 a93d 992c 51bd 8b2a a7be
00000300: f0ba 13be bb87 363e 17c8 a7be 5e22 773e
00000310: b802 84be 6496 9fbc c241 3bbe 27fd 833e
00000320: 1caf 343e 58a1 dd3d 5e29 42be a29d 2e3c
00000330: 22f7 74be 953d 8cbe 5332 913d 1452 82be
00000340: 9836 0c3e 26e3 d2bd e07e b8be 53aa 8abe
00000350: 2e69 f5bc f9e0 1a3e 609c 56be cd2a 0cbe
00000360: d473 0e3e 7982 573e 2e3e 893e fe2d 533e
00000370: 440a 2ebe 9e20 8cbe 8fb4 bb3d bdfb 06be
00000380: 0ce5 433e 6764 ac3d c582 c53d 636e c3bc
00000390: 601f 643e 8677 39be caad 8b3e 56d1 8b3e
000003a0: 26d2 9abc 0883 6b3e 6366 84be e301 bd3d
000003b0: ddd6 b9be 75f6 8dbe 6ab4 3bbe 44fb dbbc
000003c0: cdd9 043e 18b5 073e 63b3 77be b1e6 993c
000003d0: 5ea7 f3bc ae79 b43e ec1d 343e dd4c 26bd
000003e0: aa65 a23d eb32 86bc bb64 8b3e ad9b acbe
000003f0: cff3 a9be 3b58 babd 0b6d a2be e250 acbe
-0.25079158 -0.24665865 -0.030056667 0.18528128 -0.20174755 0.066675685 -0.25335968 -0.2682513
-0.07134242 0.016335387 0.30472508 0.16120836 0.040241312 -0.18562265 0.18353349 0.3339553
0.3074037 0.15000932 0.09960989 -0.024026643 -0.21536554 -0.065814845 0.21440957 0.037948877
-0.29887706 -0.36620528 -0.35356158 0.33693162 -0.17731158 0.06995883 -0.14422448 0.1523248
0.14947926 0.07713203 0.23825188 0.27068025 0.32730675 0.29120874 0.2216657 -0.045491356
-0.35680848 0.14444984 0.020329222 -0.10879649 -0.06774786 -0.20565583 0.2544827 0.29209447
-0.2756046 0.23563525 -0.29828712 0.18310678 0.12802964 0.31479886 -0.238529 0.34741652
-0.34038824 -0.3124599 0.19730127 0.31907052 0.17079677 -0.11092361 -0.015040049 -0.04633709
-0.29299897 0.0672143 0.12735394 0.28604448 -0.3135139 -0.2722029 0.15209243 -0.035587855
0.19305295 0.35631227 -0.32672128 -0.26711613 -0.33500493 0.24621083 0.032570116 -0.06277322
-0.20067927 -0.011853803 0.24248205 0.10049339 0.23808104 0.045594264 -0.111500576 -0.06288732
-0.26784682 0.2719801 0.080803424 0.20605402 0.20499623 0.035124496 0.011241412 -0.22177011
-0.26295596 -0.25995564 0.24549326 0.29497415 -0.16724592 0.19414444 -0.20471214 -0.0033795955
-0.24889942 -0.029280854 0.1289532 -0.12043474 -0.1835342 0.123822734 0.24869315 0.23772275
0.16843764 -0.2789016 0.2995877 0.0350877 0.18604423 0.10954201 -0.13649976 -0.20048277
-0.05179794 0.36592448 0.105509944 0.30362976 -0.13587923 -0.24732873 0.32208642 0.31747773
0.27598828 0.33351517 -0.09989772 -0.10788778 -0.01510514 -0.25219688 0.044728186 -0.2021018
0.29446703 -0.21328378 -0.07467212 0.15228184 0.14975956 0.0005454986 -0.32540074 -0.10248172
0.26513913 -0.0059654564 -0.21075085 0.017678099 0.18455906 -0.12454548 -0.20158562 -0.27759978
-0.03836612 0.23797831 -0.092978686 0.07241909 -0.13242108 -0.010210721 0.06492739 -0.052683715
0.30569637 -0.29641625 0.08684998 -0.109231025 0.32271418 -0.20299973 0.16284232 -0.035868123
-0.30175874 0.12787966 0.039066304 0.21107219 0.25313494 -0.18856172 -0.013772382 0.12317391
0.19690813 -0.13542905 -0.058873504 -0.17054237 0.11429559 0.30085933 -0.1513336 -0.30009267
-0.2036031 -0.026566692 -0.22673851 0.30431166 0.107593015 0.08292196 -0.051067922 -0.32649645
-0.1442678 0.17825215 -0.32769844 0.24134204 -0.25783324 -0.019480892 -0.18286803 0.25779077
0.17644924 0.108217895 -0.18961093 0.0106577 -0.23922399 -0.27390733 0.07089677 -0.25453246
0.13692701 -0.102972314 -0.36034298 -0.27083072 -0.02995738 0.15124883 -0.2095809 -0.13688202
0.13911372 0.21045865 0.26805252 0.20623013 -0.16996104 -0.27368635 0.09165298 -0.13181968
0.19130343 0.08417588 0.09644083 -0.023856347 0.22277594 -0.18112001 0.27281028 0.27308148
-0.018899035 0.22999203 -0.25859365 0.092288755 -0.3629674 -0.27727094 -0.18330541 -0.026853211
0.1297371 0.13252676 -0.24189524 0.01878676 -0.029742893 0.35249084 0.1758954 -0.040600646
0.07929547 -0.016381701 0.2722529 -0.3371252 -0.33193824 -0.0909886 -0.31723818 -0.3365546

module.slow_path.layer1.0.block.2.block.1.weight f4 [32]
00000000: 2fa9 803f 4f2e 783f e709 7f3f 5b94 7c3f
00000010: a773 7e3f 7c35 813f f79b 783f b9a3 7c3f
00000020: 1bb5 843f 275f 823f 3155 803f a86d 843f
00000030: 6772 7c3f a6af 7b3f 3cbf 783f 9fe6 833f
00000040: 52b8 783f 46d8 7e3f 9361 803f 4ef4 7a3f
00000050: 8aa3 823f cf2d 813f 5392 813f c865 833f
00000060: 4f09 7d3f 990a 813f 1656 7a3f 0d15 813f
00000070: b3f2 7e3f a66e 7f3f b4da 7c3f 3056 803f
1.0051631 0.9694566 0.99624485 0.9866387 0.9939522 1.0094447 0.97112983 0.9868732
1.0367769 1.0185288 1.0025998 1.0345964 0.98612064 0.98314893 0.971668 1.0304755
0.9715625 0.9954876 1.0029777 0.9802903 1.0206158 1.0092105 1.012278 1.0265436
0.9884233 1.0081359 0.97787607 1.0084549 0.9958908 0.9977821 0.98771214 1.0026302

module.slow_path.layer1.0.block.2.block.1.bias f4 [32]
00000000: 51b2 2cbc 59da 0fbc 0f83 bfbb 2a93 05bc
00000010: afc8 f6bc b6f7 8d3c 4077 16bc 9b7a 97b9
00000020: 72d1 253c 9712 f03b 7988 513c 2040 87bc
00000030: 272a 2438 09a6 79bc 56e4 3dbc ca8d ee3b
00000040: 9cec 74bc f7fc 37bc cfe2 aabb aa4f 73bc
00000050: eca0 483c 4b15 2c3c 6a2c 933c e215 a0bb
00000060: 91bf acbc 17f4 af3a d6ea e2bb d59b 033a
00000070: 488f 933c 9d7c 94bb 1f4d a6bc 12b5 afba
-0.010540561 -0.0087800855 -0.005844481 -0.008152762 -0.03012499 0.017330032 -0.009183705 -0.00028892313
0.010120736 0.007326435 0.012788885 -0.01651007 3.9139904e-05 -0.01523734 -0.011590084 0.007280086
-0.01494899 -0.011229745 -0.005215026 -0.014850536 0.012245398 0.0105031235 0.017965514 -0.004885421
-0.02108744 0.0013424185 -0.0069249673 0.0005020474 0.018012658 -0.0045314566 -0.020300446 -0.0013405404

module.slow_path.layer1.0.block.2.block.1.running_mean f4 [32]
00000000: 144c 60b7 0fcd 4939 c5d5 ca39 c0ac fb36
00000010: 5ac2 96b9 928b e939 2038 bab9 587a b8b8
00000020: 86ae 453a eee2 8439 c7cd 9bb9 2871 7e38
00000030: 5917 38b9 0969 4839 d279 03ba 610c 3f3a
00000040: 51ef bd39 9762 f0b9 42cb 3eb9 bd16 af39
00000050: 0389 78b9 5875 3238 5fd5 06ba 3c39 9a37
00000060: 4c16 8f39 0041 173a a991 a2b9 9950 0d3a
00000070: 4f56 9238 a59e 153a cfe4 71b7 1bf9 0e38
-1.3369154e-05 0.00019245244 0.00038687713 7.5004937e-06 -0.00028755033 0.0004454521 -0.000355185 -8.796592e-05
0.00075409596 0.00025346078 -0.0002971722 6.0663704e-05 -0.00017556305 0.00019112615 -0.0005015406 0.00072879164
0.00036227194 -0.00045849822 -0.00018195531 0.00033395542 -0.00023702164 4.2547792e-05 -0.0005143489 1.8384882e-05
0.00027291698 0.00057698786 -0.00031007573 0.0005390733 6.977899e-05 0.0005707539 -1.4417993e-05 3.4087436e-05

module.slow_path.layer1.0.block.2.block.1.running_var f4 [32]
00000000: a1d7 663e 90c1 153f 8348 b43d 66da 8c3e
00000010: 8b62 a93e 1ad4 423f 0ddc f83d d10e e93e
00000020: bfa1 133e 3cb0 793f 3921 353e 0579 513e
00000030: 07b9 d73d 0091 993e 38d9 b03d 675f 5f3e
00000040: 4470 4b3e 6ff7 923e f52c 883e 363a 133e
00000050: bf14 f03e 6000 9d3e 5b1c 9c3e 0f85 833e
00000060: 4ab0 d63e 0142 aa3e 22b6 d03e 5900 523e
00000070: b833 d73e a9f2 143f 32ae ae3e 02d8 783e
0.22543193 0.5849848 0.08802893 0.27510375 0.33082995 0.7610489 0.12151346 0.45519117
0.1441717 0.9753454 0.17688455 0.20456322 0.10533338 0.2999344 0.08635181 0.21813737
0.19867045 0.28704402 0.265968 0.14377674 0.46890828 0.3066435 0.30490384 0.25687453
0.41931373 0.33253482 0.40763956 0.20507945 0.42031646 0.5818277 0.34117275 0.2430115

module.slow_path.layer1.0.downsample.block.0.weight f4 [32, 8, 1, 1, 1]
00000000: a87f a33c 8e44 963e ed1e 60be 6fc7 c83d
00000010: 63ef 6ebe 6be5 adbe 4c20 043e e25e 153c
00000020: af44 343c 8aed 90be 8611 9bbe feae 9ebe
00000030: 5c58 93be eaed 0abe 2a1e 0fbb 5a4a a93e
00000040: 732a 583d 90e8 1cbe 25d9 cabc 2b75 a43e
00000050: 29fb 543e 6a16 873d a032 51be 5742 a7be
00000060: 6c5a 87bd 7541 73be 3849 82bd 1ec9 333e
00000070: 7e05 a73e 0b1a debb 3068 9fbe 9c74 8c3e
00000080: efc8 2bbd a469 98bd 554a 4dbe c2a0 2fbe
00000090: 99ec 6bbe 0fcd afbd dafa 44be ea3b 1f3e
000000a0: 1d72 90bd b313 a63e a0e1 a1be 4a03 a43e
000000b0: eae7 02bc a029 09be 39ec 9abe eb1e 6e3e
000000c0: 6f2d a03e 2875 453e bcfa 423e cacc 0dbe
000000d0: 9c15 87bd ccec b53c ceee 0bbd df6c 8bbe
000000e0: 675a 493e 6a40 9a3d bfd5 8ebe 3ce6 51be
000000f0: a4fd 77be 70ca 5f3e e84f 51be 772c 89be
00000100: 7c9a 43bd d294 adbe d0e7 e7bd c486 813e
00000110: 965a eabd ccb6 9ebe 63b6 5c3e 0cfc e43b
00000120: ca22 2dbd fc5f 66bd 726c c5bd 7a83 49be
00000130: 21d5 7bbe ce4e 90bd a3cc 32be 3c85 8fbe
00000140: fca0 09be 7322 4b3e 0f60 d93d 8eb8 c7bd
00000150: a85e 1c3e 3058 b0bd f5fc 093e f0b7 3a3e
00000160: 9de3 5cbd 6b28 ad3e ac7d b5be c049 a2be
00000170: 89d2 f9bd fc6d a7bc 8836 993e e16f 303c
00000180: 0576 8f3e ddb1 d2bd 7933 04be ea4d 823e
00000190: 99af f8bc e6c5 9cbe 2967 903d e06d f13c
000001a0: f2c1 043e 1e8c 95be b2fd b7be b380 f5bd
000001b0: c37f 933d cbf1 88bc 4b4b 003e b145 13be
000001c0: c450 5bbe a9fa 77bd 5104 69be e58f b0be
000001d0: 22ba 883e 98e3 6d3d 3f05 85be 07a8 523e
000001e0: 99a9 91be a06a e53d 7bdb 223c 3efb fd3c
000001f0: 3aa5 36be 0394 2b3e bd19 8ebd 01d4 8abb
00000200: 5e88 973d 6467 58be 0f9a aa3e 7113 493d
00000210: 4de5 c63c d804 ae3e 5ec1 463e 6796 8e3e
00000220: dfca 963d ad66 3a3e 8ebc a6be 141c 8a3e
00000230: 17a9 543e e6ee 883e 8a2b 34be de17 a83d
00000240: dd7f 8e3d 21b9 66be d982 3bbe c78f 373d
00000250: f911 b1be 6b03 8d3e 02fd 7dbe 4fc3 8a3e
00000260: 9f07 0bbe 6e14 91bd 00d4 0bbe 1c40 903d
00000270: 2b5f 633e 7b8a 4e3e 6b79 a93e 1c4e fb3d
00000280: 72e2 ecbd 4cde 8fbe 7ee6 99be 0d4d 93bd
00000290: 7a61 99be 6367 a83e 9913 733e d856 06bc
000002a0: 1bd3 23be 0bc2 873b 78d1 7cbe 7b4e 923e
000002b0: 485c a93d fdd0 7fbe 38e1 8ebe 45b8 c0bd
000002c0: f4ff 0dbe 4e37 593e 0cb3 b83e 7802 473d
000002d0: 0fe5 943e 3f5a 603e 3a57 a5be 8878 6ebe
000002e0: d8b2 1abe dfab aabe eca7 efbd 9eb6 543d
000002f0: 8245 c4bd 6d3d adbe bad1 323d 323d 6e3d
00000300: c8b9 30be 62e1 41be 67d0 b73e 7e28 813e
00000310: 4a7b a5bd 2a16 bebd 522f aebe d7e3 81be
00000320: c125 1b3e dcda b33d ad22 2d3e 5e4d 63bd
00000330: 85f2 5fbe 862d 03be d063 43be 00d2 87bd
00000340: 6bd1 edbd 4e10 a63e 8e69 8abe 66f0 123e
00000350: fd16 243e fabc 7b3e ef48 98be 8b0b 763e
00000360: 464a b7bc 4245 433d 63e7 9e3d 4bbb 323e
00000370: eede 00be af76 b63e c686 5c3e 57f5 50be
00000380: 6044 153b 4a63 c03d 3541 e63a c8b6 81bd
00000390: a160 053e 3fa2 903e 911a b33e 068d 1e3d
000003a0: 080b 62be aa85 553e e5fb 09be 1c6b d03c
000003b0: 89dc 91be 8758 b8bd d9f9 38be 72d6 9a3e
000003c0: 74af 503e b5fa a5be ab11 d1bc c75a 113e
000003d0: 2eb5 913e 8709 e5bd 085a 913e ce40 59be
000003e0: 479c c6bb 9894 2fbd 90cc 503e 82d5 1fbe
000003f0: 00df 8b3e 7043 0abc 39f8 6bbe 2fb7 9e3e
0.019958332 0.29349178 -0.21886797 0.09803664 -0.23333506 -0.33964095 0.12902945 0.00911686
0.011002704 -0.28306228 -0.30286807 -0.30992883 -0.2877835 -0.1356732 -0.0021838048 0.33064538
0.052774858 -0.1532309 -0.024761746 0.32120642 0.20798935 0.06596072 -0.20429468 -0.326678
-0.066090435 -0.23755439 -0.063616216 0.17557189 0.32621378 -0.006778007 -0.31134176 0.27432716
-0.041939672 -0.07442024 -0.20047887 -0.17151168 -0.23039474 -0.08584034 -0.19236317 0.15550199
-0.070530154 0.32436904 -0.3161745 0.3203376 -0.007989863 -0.13394785 -0.3025835 0.23253982
0.31284663 0.19282973 0.1904096 -0.13847652 -0.065959185 0.02220764 -0.03416329 -0.272315
0.19663392 0.07531817 -0.2789745 -0.20497984 -0.2421785 0.21854568 -0.20440638 -0.26791736
-0.04775475 -0.33902603 -0.113235116 0.2529813 -0.11443059 -0.30998838 0.2155395 0.006988054
-0.042269506 -0.05624388 -0.09639825 -0.1967906 -0.24593021 -0.07046281 -0.17460875 -0.28031337
-0.13440317 0.1983736 0.10614025 -0.09751998 0.15270483 -0.086105704 0.13475402 0.18234229
-0.053928006 0.338199 -0.35447443 -0.31696892 -0.121983595 -0.020438187 0.29924417 0.0107688615
0.2801973 -0.10287831 -0.1291026 0.2545007 -0.030357169 -0.30619735 0.07050926 0.029471338
0.1296461 -0.29208463 -0.35935742 -0.11987438 0.07202103 -0.016716858 0.12528722 -0.14382054
-0.21417528 -0.060541783 -0.22755553 -0.34484783 0.26704508 0.05807838 -0.25980565 0.2057191
-0.28449705 0.11201978 0.0099400235 0.03100359 -0.17836466 0.1675568 -0.06938503 -0.0042366986
0.07399057 -0.2113319 0.33320662 0.049090806 0.024279261 0.3398807 0.19409701 0.27849123
0.07362913 0.1820323 -0.3256573 0.26974547 0.20767628 0.26744765 -0.17594734 0.08207677
0.06957982 -0.22531559 -0.18311633 0.04481485 -0.34584025 0.2754167 -0.24803546 0.27102134
-0.13577126 -0.07083975 -0.1365509 0.07043478 0.22204272 0.20170014 0.33100447 0.122707576
-0.115666285 -0.28099287 -0.30058664 -0.07192431 -0.2995718 0.32891378 0.23737945 -0.008199416
-0.15998499 0.004143005 -0.24689281 0.285755 0.082695544 -0.24982066 -0.27906203 -0.094101466
-0.1386717 0.21212503 0.36074102 0.04858634 0.29081008 0.21909426 -0.3229311 -0.23288167
-0.15107286 -0.33334252 -0.117019504 0.05193197 -0.0958357 -0.33835927 0.043657042 0.05816383
-0.1725837 -0.18933633 0.35901186 0.25226206 -0.08080156 -0.09281571 -0.34020478 -0.2536914
0.1515112 0.087819785 0.16907759 -0.055493705 -0.21869858 -0.12810335 -0.19081044 -0.06631851
-0.11612209 0.32434314 -0.27033657 0.14349517 0.16024394 0.24583808 -0.29743144 0.24027841
-0.022374284 0.04767347 0.07758977 0.17454259 -0.12585041 0.35637423 0.21535787 -0.2040609
0.002277635 0.09393938 0.0017567041 -0.06333691 0.13025142 0.28248784 0.34981206 0.03870871
-0.2207452 0.2085177 -0.13474996 0.025441699 -0.28488567 -0.0900126 -0.1806406 0.30241734
0.2037943 -0.32417837 -0.02552112 0.14194785 0.28458542 -0.11183458 0.28389 -0.21216127
-0.00606111 -0.04286632 0.20390534 -0.1560879 0.27318573 -0.00843893 -0.23043908 0.30999133

module.slow_path.layer1.0.downsample.block.1.weight f4 [32]
00000000: eb5a 813f c451 7e3f 4f3a 803f 2142 803f
00000010: cc47 803f 0699 7a3f f882 7e3f 696b 813f
00000020: f3ef 843f 7a47 7e3f c847 813f a044 7f3f
00000030: e603 7e3f 5747 823f 24c9 803f 6069 803f
00000040: d8f6 813f a957 7f3f af2a 813f 12ca 7a3f
00000050: dd83 7d3f cf64 7d3f dca6 803f 90ca 803f
00000060: 44ff 7d3f 9ed7 7d3f 5b8f 803f 4c7c 7e3f
00000070: 0bf0 813f 72d9 7f3f 9d67 7c3f 2eb6 803f
1.0105871 0.99343514 1.0017794 1.0020181 1.0021911 0.97889745 0.9941859 1.0110904
1.0385727 0.99327815 1.0100031 0.9971409 0.992247 1.0178021 1.0061383 1.0032158
1.0153456 0.99743134 1.0091151 0.97964585 0.9902933 0.98981947 1.0050921 1.0061817
0.9921763 0.9915713 1.0043749 0.9940841 1.015138 0.9994117 0.985956 1.0055597

module.slow_path.layer1.0.downsample.block.1.bias f4 [32]
00000000: a67e 18bc 9a19 1abb 99e6 583c 9dfb 1aba
00000010: 6d84 fd3a 3d43 01bd d720 c23b 19bd 893c
00000020: 06d0 023d cf8f ee3a 9590 8d3c 1f53 763a
00000030: c229 903b a8a4 ed3c f0eb 3f3c 5924 803b
00000040: 2694 833c 87cd 4bbb 7d5b 5f3c 10ce f7bc
00000050: 798c bcbb 7d6e 6cbc 10ab 013c 5d13 373c
00000060: 6e37 97bc b77a ccbb 15b1 abbb 4840 2ebb
00000070: db0e 4c3c a48e c8bc d287 06bc 400a 613c
-0.009307539 -0.0023513795 0.0132385725 -0.0005912127 0.0019341834 -0.031558264 0.005924325 0.016813802
0.031936668 0.0018200817 0.017280856 0.0009396541 0.004399509 0.029009178 0.011713967 0.003910583
0.016061854 -0.0031097846 0.013632652 -0.030249625 -0.0057540503 -0.014430639 0.00791432 0.01117405
-0.018459048 -0.0062402147 -0.0052396157 -0.0026588608 0.012454714 -0.024482079 -0.008211093 0.013735354

module.slow_path.layer1.0.downsample.block.1.running_mean f4 [32]
00000000: 4024 493e a757 17bf 4c87 bd3d 49c7 f3bc
00000010: 4cfe bdbe 773c e93e b65f 953e 593b b9bd
00000020: 7218 8dbe 9396 07bf 3042 c33d 24ba 5abd
00000030: 8885 933e cd16 b9be d391 03bf 6116 0fbe
00000040: 4178 893e de9b 153f 787d 6cbd a2e3 973d
00000050: 554a d6be c664 f8bd 1846 383e 26a2 14bf
00000060: 6992 92be c456 733d c929 e73e 811e 873e
00000070: 7e20 863e 8be4 0abd 028b 58bb 19f3 9ebb
0.19642735 -0.5911812 0.092543215 -0.029758113 -0.37108076 0.45553944 0.29174584 -0.09044523
-0.27557713 -0.52964133 0.09534109 -0.053400174 0.28812814 -0.36150208 -0.51394385 -0.1397338
0.2684956 0.5844096 -0.057736844 0.074164644 -0.41853586 -0.12128596 0.17995489 -0.5805992
-0.28627327 0.059408918 0.45149067 0.2639046 0.26196665 -0.03390936 -0.003304184 -0.004850757

module.slow_path.layer1.0.downsample.block.1.running_var f4 [32]
00000000: 1563 f53d 43c2 323e fde8 0a3f c074 463e
00000010: 75d6 863d da5a 6f3e 364c 443d ab50 7d3e
00000020: 337e f03d 78ef 3e3e f5c7 113e d419 193e
00000030: 3ac8 ba3d 800a 0a3e 69e2 843e 0a83 b63c
00000040: 7216 ac3e 3a61 b83e caca 3e3d 60bf 7a3d
00000050: 610f a33d 8214 e53e 98f4 543e 7b5e a63d
00000060: 200b 563e f61b de3c f031 5d3e 56f6 433d
00000070: 5ff1 033e b635 183d eb51 ac3d 91fc a13d
0.11981789 0.17456917 0.5426176 0.19380474 0.06583873 0.23374501 0.047924243 0.24737804
0.117428206 0.18646038 0.14236434 0.14951259 0.091202214 0.13480568 0.25953987 0.022279281
0.33610874 0.36011678 0.046580113 0.061217666 0.07961918 0.4474221 0.2079643 0.081234895
0.20902681 0.027112942 0.21601081 0.047842346 0.12885045 0.037160598 0.08414062 0.07909501

module.slow_path.layer1.1.block.0.block.0.weight f4 [8, 32, 1, 1, 1]
00000000: 1e8b a93d 6916 19be bf5c 2d3d c94e febc
00000010: 4dc8 99bd 00ff 06bd aa10 f0bd 9d80 49bd
00000020: e922 083e f3ec e63d 1636 c1bd 6c25 1a3e
00000030: 4fd0 8bbc 1357 b03c e615 1dbe 13d1 2b3d
00000040: 13fc e8bd 8a9b 03be 561e 193e d835 b3bd
00000050: f582 c4bd fe43 21be 5970 f4bd 61ff 913d
00000060: f9aa 583d 04bb 283e d305 cabd 87e5 103d
00000070: a7c0 2d3d d9ce fb3b 41e6 dd3d d852 f8bd
00000080: 2154 bebd 57d3 133e 6e89 1f3e f667 0bbe
00000090: 35d2 62bc 9131 05bd 7459 d83d 2544 923d
000000a0: 8780 ffbd 8616 db3d 3d4a 4fbd e79c 31be
000000b0: 60a3 263e fbe1 e43d 9d41 6bbd 9cbc 4cbe
000000c0: 8d08 b2bd ed7d b4bd c2d1 d43d 3e7b d1bd
000000d0: 9d42 863d f886 563c 640c e5bd 55b7 1fbe
000000e0: 24a5 8e3d 1c9b 93bd 3eed d0bd 1007 ef3d
000000f0: 87cc c63d 3601 a93d 0fee 20bd 69a6 b43d
00000100: 6913 693d 6f52 003e 8af1 0cbe b9f2 00be
00000110: ade9 233e 058e 7abc 1b54 0a3e c716 66bd
00000120: 74eb fe3d 7ea0 163e 79cc 23be b75d b13d
00000130: 72d8 293d 2bf7 2ebe 5e6f 153e 7a25 22bd
00000140: a695 e7bc 8cc2 54bb 1382 9a3d 6278 fabd
00000150: d4e9 0f3e 1ba3 27be 4863 283e bb57 8c3d
00000160: 49c3 263e 58d5 44bd dd9a fbbc fe19 193d
00000170: 287e d0bc 500d 06be 6641 e13d 009c 003e
00000180: f69d 3b3e c1f3 083d 5755 3e3e 5679 efbd
00000190: e490 96bd 6193 02be 5a12 04be a653 2b3d
000001a0: f69d b8bb 2c49 a6bd a9a7 36be 6a96 243e
000001b0: 779a 613d ac72 bd3d 0eae 193d bee1 ce3d
000001c0: 6efd 1cbe a6c4 033e c646 cc3d edb2 203e
000001d0: d5b6 07bd 28c2 33be 8b30 033e 2d4c 89bc
000001e0: f198 b43c 1c25 93bc b8cb 0dbd b0d5 f83d
000001f0: 244b 0abe a20d 393c 3439 f0bd 9b6a 153e
00000200: 0f42 1b3e 292a 9a3b 12e6 27be dfcb 1abe
00000210: 5795 0c3e 8a88 27be 4cf5 ac3c f61f 4c3d
00000220: f4a4 adba 8c0e c7bd 7911 583d b391 0d3e
00000230: 00cf fabd 00f4 963b 1bdf 6bbd cd2d e13d
00000240: be2e b93d 79af 9f3c 7c0e 193e 0698 033d
00000250: cddf 133e eeb4 8e3d cc17 593c 5fff 813d
00000260: b3c1 60bd 69e6 2dbd 7192 76bd cf79 8a3d
00000270: 51ba 343e e7be 0d3e bf0c 183e 8395 8e3c
00000280: 2893 03be ba29 f13c 4def 53bd 9b53 b13b
00000290: f31d c03d c97d eabd f4bf fabd 7ec4 d73d
000002a0: 5fcf 5d3d 12de 103e d96a 4a3d d33b 993b
000002b0: b5aa 643d b742 b43d b917 71bd 10c6 273e
000002c0: 564d ab3d 4a79 0bbe 7ebf c93d 46c7 d43d
000002d0: 2e22 2d3e d7eb 913d 1968 12be 0b5d 1cbe
000002e0: 0e42 cb3d b5b3 133e 7e5f 833d 0085 65bd
000002f0: 6fc3 14be 54e6 c63d e8d4 1c3e 5303 99bd
00000300: fc54 283d ece7 43bd 71b6 45bd a616 20be
00000310: 9344 d9bc 0377 933d 891d 863d 8940 1f3e
00000320: 4dab 273e 9ef0 0dbe 46a8 6dbd eea1 a03d
00000330: 04c0 e53c 4f29 403e af11 37bc f549 f73d
00000340: 1c60 07be d1f6 083e 76a6 ddbd 045d 8fbd
00000350: dcf1 e03d 481b 753d aea1 09be 7872 e8bc
00000360: d016 273e f588 c93d d592 e13d 61ff 1e3d
00000370: 1632 ff3d 0eba 15bd 140f bbbd fbcd bf3d
00000380: 2000 fdbd ab30 0bbe a305 25bd a8bf 51bc
00000390: 4f56 ec3c 496f 89bd 2446 123e 7413 c4bd
000003a0: 6782 033e 20b7 b5bd 8b1b b9bc 3398 3fbe
000003b0: 3b0e 113e e13c 03bc 47cc b13a d468 4c3c
000003c0: ae75 c43c d1b1 2bbe 064a 22be 2cfb aabd
000003d0: c801 b73c fb55 e33d a7b8 a03c ca43 12be
000003e0: 894e 2d3d bc47 a1bd 7901 983d 1122 d1bc
000003f0: baee 49b8 5306 d23b af03 e73d 2198 28bc
0.082784876 -0.14949955 0.042324778 -0.031043427 -0.075089075 -0.03295803 -0.117219284 -0.04919492
0.13294567 0.11275663 -0.09434144 0.15053338 -0.017067103 0.021525895 -0.15340385 0.041947436
-0.11376204 -0.12852302 0.14952978 -0.08750504 -0.095952906 -0.15748593 -0.11935491 0.07128788
0.052897427 0.16477591 -0.09864392 0.035375144 0.042420056 0.0076845703 0.10834933 -0.12125176
-0.0929339 0.14436089 0.15579769 -0.13613877 -0.013844063 -0.032517973 0.10563937 0.07141904
-0.124756865 0.106976554 -0.05060791 -0.1734501 0.1627326 0.11175915 -0.05743562 -0.19993824
-0.08693037 -0.08813081 0.10391571 -0.10228585 0.06555674 0.0130937025 -0.11184004 -0.1559728
0.06965092 -0.07207319 -0.102015 0.11671269 0.09706979 0.08252184 -0.03928953 0.08820803
0.056903277 0.12531446 -0.13764015 -0.12592591 0.16007109 -0.015292649 0.13508646 -0.056174066
0.12447253 0.1470966 -0.15995969 0.08660453 0.041466184 -0.17086475 0.14593264 -0.03958652
-0.0282696 -0.0032464592 0.07544341 -0.122299924 0.14054042 -0.16370814 0.16444123 0.06852671
0.16285433 -0.048055023 -0.030713493 0.037378304 -0.025450781 -0.13091016 0.10998802 0.1255951
0.18321976 0.033435587 0.18587242 -0.11693065 -0.073518544 -0.12751533 -0.12897626 0.04182782
-0.005634065 -0.08119425 -0.17837395 0.16073003 0.05507895 0.092503875 0.037519507 0.10101651
-0.15331051 0.12867984 0.099744365 0.15693255 -0.033133347 -0.17554533 0.12811486 -0.016759956
0.022045584 -0.017962031 -0.03461811 0.12150133 -0.13505226 0.011294754 -0.11729661 0.14591448
0.15161918 0.004704733 -0.16396359 -0.15116833 0.13728844 -0.1636068 0.02111306 0.049835168
-0.0013248012 -0.097195715 0.05275104 0.13825111 -0.12246513 0.004606724 -0.057585817 0.10995064
0.090421185 0.019492852 0.14946932 0.032127403 0.14440842 0.06968103 0.0132503025 0.06347536
-0.054872226 -0.042456064 -0.06019825 0.067615144 0.17649199 0.13842355 0.14848612 0.017405277
-0.12849104 0.029438842 -0.051741887 0.005411578 0.09380712 -0.11449773 -0.122436434 0.10535525
0.054152843 0.14147213 0.049418304 0.004676321 0.05582686 0.08801787 -0.058860514 0.16384149
0.0836436 -0.13620487 0.09850977 0.10389571 0.1690757 0.07125061 -0.14297523 -0.15269868
0.09924708 0.14424022 0.06414698 -0.05603504 -0.14527677 0.097119 0.15315592 -0.07471337
0.041096672 -0.0478286 -0.048269693 -0.1563364 -0.026521957 0.07200434 0.06548602 0.15551962
0.1637394 -0.1386132 -0.058021806 0.07843386 0.028045662 0.18765758 -0.01117365 0.12074653
-0.13220257 0.13375403 -0.108227655 -0.07000163 0.10983631 0.05984047 -0.13440582 -0.028374895
0.16317296 0.098405756 0.11014334 0.038817767 0.12460725 -0.03655439 -0.09133735 0.093654595
-0.123535395 -0.13592784 -0.04028858 -0.012802042 0.028849749 -0.06710679 0.14284569 -0.09574023
0.12842713 -0.08872819 -0.022596141 -0.18710403 0.14165585 -0.00801012 0.0013564908 0.012476165
0.023981895 -0.1676705 -0.1584855 -0.083486885 0.022339717 0.11100384 0.0196193 -0.14283672
0.042311225 -0.0787501 0.07422156 -0.02552894 -4.8144466e-05 0.0064094453 0.112799995 -0.010290177

module.slow_path.layer1.1.block.0.block.1.weight f4 [8]
00000000: 054e 823f 2ff1 7c3f fcb1 7a3f bcbd 7b3f
00000010: 5c82 7c3f 833a 803f 6037 813f 2fe0 813f
1.018006 0.98805517 0.9792783 0.98336387 0.9863641 1.0017856 1.0095024 1.014654

module.slow_path.layer1.1.block.0.block.1.bias f4 [8]
00000000: 22a8 a43a dc2b 4c3c fe12 13bc 8234 9139
00000010: 84fd 353c f90e 49bc f2ee 513c 8494 a5bb
0.0012562315 0.012461629 -0.008976696 0.00027695677 0.011107806 -0.012271636 0.012813317 -0.005053105

module.slow_path.layer1.1.block.0.block.1.running_mean f4 [8]
00000000: fb5c adbe f63d c6bd ddaa e63e 2ff7 503e
00000010: 69db 273f 5e9a f93e 4884 143f 86c5 dbbe
-0.3386 -0.09679787 0.45052233 0.20406793 0.6556917 0.48750585 0.58014345 -0.42924136

module.slow_path.layer1.1.block.0.block.1.running_var f4 [8]
00000000: fccd 4e3e 6717 253e 2d58 623e e751 ce3e
00000010: 8419 f63e 5cee 253e af36 213e f481 443e
0.20195764 0.16122209 0.22103949 0.40296862 0.48066342 0.16204208 0.15743516 0.19190198

module.slow_path.layer1.1.block.1.block.0.weight f4 [8, 1, 1, 3, 3]
00000000: 0f11 943e cc34 443e e791 c6bd 88f0 803e
00000010: 174d 9f3d 3e36 173d 2439 9bbd 75d4 253e
00000020: c15b a43e ceb4 a4bd 906d a7bd 5a8c 10be
00000030: b66a 553e 618b 9e3e 1d4d 92be 27bb aabe
00000040: 7833 713e 6fdd 723e e130 3ebe 94c1 a4be
00000050: fd46 64be 58b6 dfbc 2c58 c8bd 5fd8 243e
00000060: fe84 d43d 796e 623e a380 4a3e 3db0 3f3e
00000070: 2b35 1ebc 4e0f 803e 18c4 3bbe acd8 34be
00000080: 17f3 0cbe 923e c83d c1ab 57be b331 913c
00000090: a901 a13e 4702 813d e3e3 eabd 5d36 093e
000000a0: 7fd2 0cbd 9fa3 10be 32e5 a3bd 404e 33be
000000b0: 621a a2be 3c87 43be e54d 97be 3b7b 9bbd
000000c0: fb2c 8e3e f962 9c3e df90 c63d b843 253e
000000d0: bee6 2abe 1528 543e b690 6cbd cd8c 89bd
000000e0: 865b 55bd 2853 563e ccf7 0abd 4c86 80bd
000000f0: be5c 183e 8838 973e dbf4 b93c 44e4 213e
00000100: a8e6 15be 9b74 99be 7090 24be 510b 87be
00000110: 465b b93c dcf7 e4bb eea8 b139 e4ad 933e
0.28919265 0.19160765 -0.096957974 0.2518351 0.077783756 0.036916964 -0.07579258 0.16194327
0.32101253 -0.08042298 -0.08175194 -0.1411604 0.20841488 0.30965713 -0.28574458 -0.3334591
0.2355479 0.23717283 -0.18573333 -0.32178938 -0.22292705 -0.027308628 -0.097824425 0.16098164
0.10376929 0.22112454 0.19775634 0.18719573 -0.009656231 0.25011677 -0.18336523 -0.17660779
-0.13764606 0.09777559 -0.21061613 0.017723894 0.3144658 0.062992625 -0.11469247 0.13399644
-0.034380432 -0.14124916 -0.080027 -0.17510319 -0.31660753 -0.19094557 -0.29551616 -0.07591864
0.27768692 0.3054426 0.09695601 0.16139114 -0.16689584 0.20718415 -0.057755195 -0.06716309
-0.052089237 0.20930159 -0.033927724 -0.06275615 0.14879128 0.29535317 0.022699764 0.15809733
-0.1463877 -0.29971775 -0.16070724 -0.2637582 0.02262653 -0.006987555 0.00033885933 0.28843606

module.slow_path.layer1.1.block.1.block.0.bias f4 [8]
00000000: fe2b 8abd a003 653e 42b3 d6bc 54ae 663e
00000010: 5c29 2dbe c419 813e 7184 a0be 910d f1bc
-0.06746672 0.22364664 -0.026208524 0.22527438 -0.16910309 0.2521497 -0.31351045 -0.029425414

module.slow_path.layer1.1.block.1.block.2.weight f4 [8, 8, 1, 1, 1]
00000000: 988a a23d 9489 a13e 701a 723e 5bda 873e
00000010: c8d3 aebc fd8e a6be ef52 0c3e 82ab 81be
00000020: 95a9 9e3e f692 a63e 5fe7 103e e35b b13d
00000030: 31f2 bd3d 7c36 953e 0bc9 563e 18cf 863e
00000040: 856a b4be cf7c e9bd 1e84 943e b4e0 cb3d
00000050: ad37 a4bd 7177 933d 0f61 5d3d 3e44 2abd
00000060: 577a b3be 0ca5 613d ae51 963e d3fd d23d
00000070: 899d d3bd fba0 de3d cc52 19be 6f6e cfbd
00000080: 6af3 37be 2292 15be 71ad 94be 712e 94be
00000090: de51 aa3e 83ab fdbd fbc5 a9be c74d b0be
000000a0: de9d 8cbc 5984 a0be be8d 39be b893 0d3e
000000b0: b9cb 63be 1873 a3be d9a6 8d3e 4904 84be
000000c0: dd82 bcbd ae86 27be 08db 21be 9655 f73d
000000d0: 71d0 f83d 269d 96bd 1b6b b3bd 9f19 953c
000000e0: 3a10 96be 7055 bebc ad75 40be c111 3e3e
000000f0: 7c4d 2d3e 1b3e ac3d dad0 9d3e d3ee fbbc
0.07936591 0.31550276 0.23642898 0.2653378 -0.02134122 -0.32530966 0.13703512 -0.25326163
0.30988756 0.32533997 0.14150761 0.08660104 0.0927471 0.2914313 0.2097513 0.26329875
-0.35237518 -0.114007585 0.29007047 0.09954968 -0.08018432 0.07200516 0.05404764 -0.041568987
-0.35054275 0.05508904 0.29359192 0.103023194 -0.10332782 0.10870548 -0.14972991 -0.101284854
-0.17963949 -0.14606526 -0.29038575 -0.28941682 0.33265585 -0.12386229 -0.3315886 -0.3443434
-0.01716512 -0.31350973 -0.18120477 0.13825881 -0.22245683 -0.31923747 0.27666357 -0.2578452
-0.09204648 -0.1635997 -0.1580621 0.12076871 0.12149132 -0.073541924 -0.08760663 0.018200694
-0.29309255 -0.0232341 -0.1879489 0.1856146 0.16924089 0.08410283 0.30823404 -0.030753529

module.slow_path.layer1.1.block.1.block.3.weight f4 [8]
00000000: 145d 803f 3821 7f3f d5d4 7d3f deba 7e3f
00000010: aa1b 803f 315b 7b3f 72c8 843f 9d08 7e3f
1.0028405 0.9966006 0.9915288 0.99503887 1.0008442 0.9818602 1.0373671 0.9923189

module.slow_path.layer1.1.block.1.block.3.bias f4 [8]
00000000: 5f6e dcb9 2234 b6b8 988e b23a 74c4 86ba
00000010: 0947 e838 08ff 11ba ff0d 71ba c744 c9b9
-0.00042043903 -8.688147e-05 0.0013622819 -0.0010281936 0.000110758534 -0.00055693137 -0.0009195506 -0.0003838895

module.slow_path.layer1.1.block.1.block.3.running_mean f4 [8]
00000000: d4f4 af3d b4a2 cb3e 521b 9ebd 8703 29bd
00000010: ee35 96be 7f9c 66be e02b a6bd b2e8 c7bc
0.08591619 0.3977257 -0.07720055 -0.04126313 -0.2933802 -0.22520636 -0.08113837 -0.02440295

module.slow_path.layer1.1.block.1.block.3.running_var f4 [8]
00000000: 11a4 153d fb98 c83d 5c6a 723d 328d 953d
00000010: 03bb 843d 1d81 143d deb7 213c adc7 383d
0.03653342 0.09794804 0.059183463 0.073023215 0.06480982 0.036255945 0.0098704975 0.0451123

module.slow_path.layer1.1.block.2.block.0.weight f4 [32, 8, 1, 1, 1]
00000000: bab1 b1be 0eff ab3d 1bcf 5e3e 04f8 45be
00000010: e0aa 403e 92e6 8bbd 545f a53e bee4 3b3e
00000020: 79d8 043e 0172 833e ccd9 4dbe 5e43 9f3c
00000030: 6946 55be d75f e23c 079e 5e3e c5a4 4c3d
00000040: b46c fb3d be27 99bd cac3 02be 5dd0 95bc
00000050: 270c 953e 30b3 75be 6b74 b13e 3cbb 86bc
00000060: 6f56 0ebd 3277 d9bc 4374 0ebe d8f9 a03e
00000070: 511b a53e 07b6 433e 91a4 853e b029 0bbe
00000080: 7cc3 053e 81e3 2ebe 7297 273d 0777 303d
00000090: 0067 7c3d 9a69 9a3e bfe7 943d 04ac f7bb
000000a0: 2405 b3bc 6f56 21be 7739 983e d970 183d
000000b0: 3b7c a53e a29a 513e 3d9a 593e e520 e23d
000000c0: 885f 95be 3a86 1f3e 20d4 8c3d 3363 ac3e
000000d0: 080f 673e 6e6a a0be 831d b6bd 021b 993d
000000e0: a2d8 3bbe d4dd 9c3e 564f 9ebe 0e49 61be
000000f0: 4ca9 8c3d e93c 8dbd 362d 8fbe ae21 8a3e
00000100: 1602 c63d 1c9e a03d 88c0 81bd 290a 813e
00000110: af1a 2d3d 229b b7be e54f 4b3e b0a8 a13e
00000120: 3f05 523e 4f1e 57bd 2328 a7be e071 52be
00000130: 5b27 85be 86ce 6c3e 7b0e 6f3e b130 7ebe
00000140: 7739 80be 59a0 233c c3ab 9fbe a01c 0e3e
00000150: 45f2 833c 4a3b 1a3d f192 bbbe 07de 15bd
00000160: 4ad7 9abe 8c6c ddbd 259d 493e b3ed b33d
00000170: 0c83 2fbe 6f1b e53d cc03 783e 26ac b5bd
00000180: 71ce 8ebe ae61 953e bbc4 733e 538c 803d
00000190: 2ea9 9f3e d219 133e feb5 9f3e d4ff 093d
000001a0: d664 60be c690 933e ac40 933e ef97 083e
000001b0: c6ad 10be ec9b 863e 42f5 5e3e ddb6 993b
000001c0: 4dc9 543d fb11 c03d 8923 c93d cd45 7c3d
000001d0: b26b abbe 2094 9ebe a0a4 9bbd 8076 b2be
000001e0: 46ed 6f3d e164 a13e df7d a63e 2e3a 5abe
000001f0: 1037 923e 1c26 0bbd 0690 f83c 4e97 13be
00000200: 32d2 e4bd 1867 94be f0eb ac3e adf1 a0be
00000210: 98f6 46be 65e0 773e d186 a63e a434 81be
00000220: 0a83 a1be 5680 923d 3426 2bbe 4837 eb3d
00000230: 1f7a 383d 30b1 3a3e dcfd 85be a299 6ebd
00000240: c72a 2c3e 259e 463c 4380 983e 34aa 91be
00000250: 2f40 a8be 0271 663d afd4 9b3e 2487 163e
00000260: 4f6e 9c3e d264 a5be 1eaf 993e d91e 933e
00000270: a3a4 adbe 608f 8c3c 90b8 f9bc 7db1 7c3e
00000280: dfb1 63be 49bb 023d f95c b2bd cea8 b03b
00000290: 0bfb 2fbe 662b 93be 19f3 183e ddfa 5cbd
000002a0: f93e 81be 2a9b 69be b748 8d3e ca1f 633d
000002b0: 3a4c 893d 898b 3abe aacd 873e 7e7f 7fbe
000002c0: 8fee 88be 1631 9d3e 44d6 a9bc 5ba8 27be
000002d0: 82f5 d0bd a73f fe3d c261 273e a110 6dbe
000002e0: 09c5 c8bb f013 0a3e 6d03 10be c6c0 67be
000002f0: 2b06 753e 7f16 b2bd 0c58 893c 3508 203e
00000300: 634f 9d3d ee6b 71be 839d d63c 79c2 833e
00000310: 348a 60be fcad 453e aab1 e43d d09b 3dbe
00000320: 8863 173e eeb5 adbe 56ae 4dbd f7e6 6bbd
00000330: d232 9fbe 106e a53e 63f8 0bbe 6ef1 af3e
00000340: 95cf b33e bd78 923e 96e9 7a3d b453 aa3e
00000350: 6ca2 28bd 72d5 a23e c9f6 9ebe 1e7b 9e3e
00000360: 7b85 623c 8b1d 0abd a5bd 183d 6e16 a4be
00000370: 50ee 513e 7348 183e c34f 983e ded1 a0be
00000380: 266b ab3e 0b53 bc3d ae51 83bc f5d6 113e
00000390: a7ea 403d 414c 9d3e 6d59 fcbc b52d 2d3e
000003a0: e240 313e c476 24bd a024 0fbd b469 8ebe
000003b0: 692c 9f3e a04f c13c c8b1 55bc 91c9 74bd
000003c0: 3ea3 253e 58fe 72be bf17 203d 64f2 36be
000003d0: eeef e8bc 1fbe a4be 720a 823e bbcd 84be
000003e0: 1759 fd3d 7ecc b03e 824a a3be 5a07 9f3e
000003f0: 97dd 183d 3b86 c43d 0ad7 b63e a460 553d
-0.34705907 0.08398257 0.21758692 -0.19332892 0.18815184 -0.06831087 0.32299292 0.18348977
0.12973203 0.25672916 -0.20102614 0.019441303 -0.2082764 0.02763359 0.2173997 0.049961824
0.12276593 -0.07478283 -0.1277 -0.018287832 0.29110834 -0.23994136 0.34659132 -0.016446702
-0.0347504 -0.026546095 -0.13911538 0.31440616 0.32247403 0.19112407 0.26102117 -0.13590121
0.13062853 -0.17078973 0.040915914 0.043082263 0.061621666 0.30158693 0.072707646 -0.0075583477
-0.021853037 -0.15755628 0.29731342 0.037216995 0.32321343 0.20469144 0.21250243 0.110414304
-0.29174447 0.15578547 0.06876397 0.33669433 0.22564328 -0.313312 -0.08892348 0.074758545
-0.18344358 0.3063799 -0.30919904 -0.22000524 0.06868228 -0.06896383 -0.2796418 0.2697882
0.096683666 0.07842657 -0.063355505 0.25203064 0.042261776 -0.35860544 0.19854696 0.3157401
0.20509814 -0.05251914 -0.3264781 -0.20551252 -0.26006588 0.23125657 0.23345368 -0.24823262
-0.25043842 0.00998696 -0.3118573 0.13878107 0.016106734 0.0376542 -0.36635545 -0.036588695
-0.30242378 -0.10811719 0.19688852 0.08785572 -0.17139834 0.11186873 0.24220198 -0.08870725
-0.27891877 0.29176086 0.23805515 0.06276765 0.3118376 0.14365318 0.31193537 0.033691242
-0.21913466 0.2882139 0.28760278 0.13339208 -0.1412879 0.26290834 0.21773246 0.0046909885
0.051949788 0.093784295 0.09821231 0.061590005 -0.33480603 -0.30972385 -0.07599759 -0.34856033
0.05857589 0.31522277 0.32517907 -0.21311256 0.28557634 -0.03397189 0.030342113 -0.14413187
-0.11172904 -0.28984904 0.33773756 -0.31434384 -0.19430006 0.24206693 0.32524732 -0.25235474
-0.31545287 0.071533844 -0.16713792 0.114851534 0.04503834 0.18231654 -0.26170242 -0.058251984
0.16813193 0.0121226655 0.29785356 -0.28450167 -0.32861468 0.056260116 0.30435702 0.1469999
0.3055291 -0.32303482 0.30016416 0.28734472 -0.3391467 0.01715821 -0.030483514 0.24677081
-0.22235821 0.03191689 -0.087091394 0.005391217 -0.17185609 -0.28744048 0.14936484 -0.05395018
-0.25243357 -0.22813097 0.2759454 0.05545024 0.06703992 -0.18217291 0.26524097 -0.24950978
-0.26744506 0.30701512 -0.020732053 -0.16372816 -0.10203077 0.124144845 0.16345885 -0.23150875
-0.006127004 0.13484168 -0.14063807 -0.22632131 0.23928134 -0.08695697 0.016765617 0.1562813
0.076811574 -0.23576328 0.026198154 0.25734308 -0.2192772 0.19304651 0.11166699 -0.18516469
0.14784062 -0.33927864 -0.050215088 -0.057593312 -0.3109346 0.32310534 -0.13668971 0.34363884
0.3511931 0.2860774 0.06125792 0.33266985 -0.041170523 0.3180347 -0.31047657 0.30953306
0.01382577 -0.03371958 0.037290234 -0.32048362 0.20501065 0.14871387 0.29748353 -0.31410116
0.33480185 0.09195527 -0.016030159 0.14242156 0.047098782 0.3072224 -0.03080436 0.16911967
0.17309907 -0.040152326 -0.034947038 -0.2781502 0.3108857 0.023597538 -0.013042875 -0.05976254
0.16175553 -0.23729837 0.039085146 -0.17865902 -0.02843472 -0.321763 0.25398594 -0.2593821
0.12370508 0.34531015 -0.31892782 0.31060296 0.0373207 0.09595915 0.35710937 0.052094117
