best.pth (torch_old, 971507 bytes, 614 tensors)

module.slow_path.conv1.0.weight f4 [8, 3, 1, 7, 7]
000000 3c 5d 93 3d 0c 79 98 bd 82 a7 56 3c 85 53 10 bc
       0.071955174 -0.07444963 0.01310146 -0.008808975
000010 ad af 29 bc dc 82 1e 3c 2c 92 5d bd 19 22 5a bd
       -0.010356826 0.009674754 -0.05409448 -0.053255174
000020 06 c4 8e 3c d3 6f 74 3d 07 ea 81 3c 84 dd 62 bd
       0.017427456 0.059676956 0.015858663 -0.055387035
000030 32 f1 84 3a 80 5c 0e bd df eb bf 3b 7e f2 e2 bb
       0.0010142683 -0.034756184 0.0058569754 -0.00692588
000040 ac dd 1c 3d 60 c0 14 3d c7 e0 6b bd 46 da 06 bc
       0.03829734 0.036316276 -0.05758741 -0.008230751
000050 e1 64 27 bd 8c bd 51 3d 2d cb 0e bd d0 11 87 3d
       -0.04086769 0.051206157 -0.034861732 0.06595194
000060 c9 99 85 bd 99 33 b1 3d db 35 c9 bb cf 00 2e 3d
       -0.06523473 0.086524196 -0.0061404533 0.04248124
000070 f7 6e bd bc b8 a1 31 bd 03 ec 13 3d 07 06 3d bc
       -0.023124201 -0.043367118 0.03611375 -0.011537082
000080 3b 44 d4 3c bf 00 b0 3d 6c f2 cb 3d 48 7e 91 3d
       0.025911441 0.08593892 0.09958348 0.07104164
000090 15 ef 4e 3d 98 bf 34 bc 6b 13 02 3d c9 f7 f7 3c
       0.050520975 -0.011032008 0.0317568 0.03026952
0000a0 15 e0 cc 3d 01 03 57 3d 1b e5 75 bd 3b 51 7b 3d
       0.10003678 0.0524931 -0.060032945 0.061356764
0000b0 f2 88 b0 bc 6a d5 a9 3d c4 65 22 bc 84 ff 6b 3d
       -0.021549676 0.082926586 -0.009911958 0.057616726
0000c0 1a 3a 5d bc be 25 f9 3c 4f 92 53 3d 3f 4b 10 bb
       -0.013502622 0.030413505 0.051653203 -0.0022017506
0000d0 39 4e dc bc e0 57 25 3c 51 c0 82 bd a8 7f 8a bd
       -0.026892768 0.010091752 -0.06384338 -0.0676263
0000e0 a9 b5 89 bd ab 80 11 3c 38 a8 6a bc 88 b0 79 bd
       -0.06724102 0.0088807745 -0.014322333 -0.06095937
0000f0 e7 d9 52 3b 02 e6 85 bd 44 93 6a bd c4 e9 87 bd
       0.0032173337 -0.06538011 -0.05726935 -0.06636384
000100 c1 62 bb bc d8 3c 80 bd fb e0 97 3d 9c d2 1a bd
       -0.022874238 -0.06261605 0.074159585 -0.03779851
000110 d5 e8 0c 3d 2a e7 7f bd ed 58 31 bd 91 89 62 bc
       0.034401733 -0.062476315 -0.043297697 -0.013826744
000120 01 5f 5a bb 0b 5b 0e 3d be b5 8e 3d e0 4f 06 3d
       -0.0033320787 0.034754794 0.06968258 0.03279102
000130 1a e8 db bc cb 3f 29 bd b6 9e 31 bc 2a f1 b1 3c
       -0.026844073 -0.041320603 -0.010841062 0.021721441
000140 31 96 7d 3d 48 95 a0 3d 71 90 d8 3c af 2f 25 bd
       0.06191081 0.07840973 0.026436063 -0.040328678
000150 9c 06 0b bd db 1a 36 3d a4 dc 67 bd f7 23 52 3d
       -0.03394185 0.044459205 -0.056606904 0.05130383
000160 cd d5 b5 3d da d6 39 bd a6 67 b3 bb 2b 35 81 bc
       0.0887867 -0.045370914 -0.0054750023 -0.015772423
000170 f5 5e ab 3d d7 2a e5 bb 9f f3 30 bd ea e4 8c 3c
       0.08367721 -0.0069936323 -0.043201085 0.017198998
000180 e6 a3 23 3c 2e 63 bf 3d c0 74 30 bc d8 53 81 bd
       0.009987807 0.09345089 -0.010770023 -0.0631482
000190 e8 f1 6b 3d 95 bb af bd 19 4d 03 bd 40 37 5b 3d
       0.057603747 -0.085807 -0.032055948 0.053519487
0001a0 be 03 44 bb 83 61 27 3b ff bc 81 3d b1 e3 c8 39
       -0.0029909457 0.00255403 0.06334876 0.00038316616
0001b0 22 a6 e7 bb c0 b8 33 3c b8 7a f2 3c 09 51 59 3c
       -0.007069365 0.010969341 0.029599532 0.013263949
0001c0 49 51 28 3d d7 d0 08 3d d5 78 05 3d ce 49 07 3d
       0.041093145 0.03340229 0.032585938 0.03302937
0001d0 09 36 de ba a6 4b 20 3c 54 85 56 bd eb 61 99 bb
       -0.001695336 0.009783661 -0.052373245 -0.004680862
0001e0 d0 6d 89 bd cc b8 08 3d 13 f8 9f bd c1 13 67 3d
       -0.06710398 0.03337936 -0.07810988 0.056415323
0001f0 a8 19 62 bd 1b 2a a5 bc d2 7a 78 bd 29 98 91 bd
       -0.05520025 -0.020161679 -0.060664006 -0.071091
000200 c5 b6 2e bb 80 b1 6d bd c7 85 41 bc 99 99 82 3d
       -0.0026659232 -0.058030605 -0.01181168 0.06376953
000210 53 6e 09 3d 90 e3 67 3d d9 90 13 3d 50 fb 50 3d
       0.03355248 0.056613505 0.03602681 0.05102092
000220 43 d0 88 bd a1 59 6f bd 82 0a 55 bd 27 1d 83 bd
       -0.06680348 -0.058435086 -0.052011974 -0.06402045
000230 6c c4 0d 3c 2e 33 59 bd fb 7c b8 bc 9e 4b 8a 3d
       0.008652788 -0.053027324 -0.022520533 0.06752704
000240 52 b2 9b 3c e5 ed 32 bd dc b3 0e bd 88 30 ad 3d
       0.019005928 -0.043683905 -0.034839496 0.08456522
000250 1f c9 93 bd 02 fa f8 3c d4 a0 ad 3d e4 15 aa 3d
       -0.07216095 0.03039265 0.08477941 0.083049566
000260 c2 77 de 3c 53 ee 8d bc 5b 80 5e bc b3 ae bc bc
       0.027156714 -0.017325556 -0.013580407 -0.023032522
000270 9d df 71 bc 0f fe fd 3c a1 bf 1f 3c 60 b3 b1 bb
       -0.014762786 0.031004934 0.009750278 -0.0054229945
000280 58 52 a8 3d fb c4 c1 3d a2 27 88 3c 71 7b 96 3d
       0.08218831 0.09461399 0.01662046 0.07347763
000290 d0 51 17 bd a0 2d bd 3c c6 a6 fb 3c 9e ed 8f bd
       -0.036943257 0.023093045 0.030719172 -0.07027744
0002a0 6e ef 15 3d 31 33 91 bc c6 fe 86 3d 0c bd 66 bc
       0.03660529 -0.017724605 0.06591563 -0.014083158
0002b0 c9 4a b6 bd f8 f7 ac 3c fc 61 cf bb 89 d2 8c bb
       -0.08900983 0.021114334 -0.0063288193 -0.0042975587
0002c0 d0 9e 90 3c e1 0d 3d 3d b8 57 8f bd 24 dc 56 bd
       0.017653853 0.046155814 -0.06999153 -0.052456036
0002d0 3d 93 23 bc 62 e7 92 3d 0e a4 38 bd cf 82 09 3d
       -0.009983835 0.07173039 -0.04507833 0.033572014
0002e0 0d e6 85 bd 12 6c 87 3c 2b 78 af 3a 02 7e 5e bc
       -0.06538019 0.016531024 0.0013387253 -0.013579847
0002f0 94 e6 df bc 6d 9d b9 3c fa 3a 06 bd a6 09 16 bd
       -0.027331628 0.022658074 -0.03277109 -0.036630295
000300 54 57 92 bd 6b f9 a4 bd f4 bf b9 bd e3 88 86 3b
       -0.07145563 -0.08055385 -0.09069815 0.0041056736
000310 a9 92 a6 bd 4b a9 3b 3d 44 e0 d0 bc 68 81 20 3d
       -0.08133442 0.045815747 -0.025497563 0.03918591
000320 22 b1 5d 3d 8d 2c 98 bd ca 77 ac bd 26 73 7f bd
       0.054124005 -0.074303724 -0.084212855 -0.062365673
000330 2d e5 6f 3d c1 7e 6a 3d c6 83 13 3c f9 a7 a0 bd
       0.05856817 0.05724979 0.009003585 -0.07844538
000340 25 04 cd 3c 0f ea 54 bc 1b e7 36 bd 87 98 96 3d
       0.02502639 -0.012995257 -0.044653993 0.07353311
000350 5b cb 0f bd ed 8c b9 bd 56 77 2d 3d ae 94 9f bd
       -0.035106044 -0.090600826 0.042350136 -0.0779203
000360 96 34 ff 3c 62 d4 ea bc 87 c9 87 bd 80 c8 79 3d
       0.031153005 -0.028665725 -0.06630235 0.060982227
000370 75 51 9e bc 0c df 3d 3d 65 c9 47 3d 9d 79 ac 3b
       -0.019325951 0.046355292 0.04877605 0.005263521
000380 8b 15 48 3b fe b8 70 3c cd 7d 65 bd 74 74 de bb
       0.0030530419 0.014692543 -0.056028176 -0.0067887846
000390 58 e6 7e bd 80 b7 5d bd ca 6a d1 3c df 73 e9 3c
       -0.06223139 -0.054130077 0.025563616 0.028497634
0003a0 c7 05 62 bd 65 93 5d bd 16 e1 86 3c f2 82 13 bd
       -0.05518129 -0.054095645 0.016464751 -0.03601355
0003b0 43 72 56 ba 88 f8 52 3d 6b b0 dd 3c f9 84 9d 3c
       -0.00081804785 0.05150655 0.027061662 0.019228445
0003c0 2d 35 c5 bd 3d 0f 8e bd ad f2 3b 3d 6a 08 d0 bd
       -0.09629283 -0.069365 0.04588573 -0.10157855
0003d0 f9 11 7b bd e9 3d 11 bd 6e 76 f7 3c e1 f6 6b 3d
       -0.061296437 -0.035459433 0.030207839 0.05760849
0003e0 7b 5a 64 bd 4c 44 4d 3c 14 af 69 3c 84 f5 16 bd
       -0.05575035 0.01252849 0.014262933 -0.036855236
0003f0 85 aa a8 bc 7f fa 05 bc 63 db 93 3c f0 d1 55 bd
       -0.020589123 -0.008177399 0.018048948 -0.052202165

module.slow_path.conv1.1.weight f4 [8]
000000 20 06 7f 3f e0 1b 80 3f 3b 93 79 3f 53 7e 7e 3f
       0.9961872 1.0008507 0.9749028 0.99411505
000010 46 0a 83 3f 39 20 82 3f 83 83 7f 3f f0 c9 80 3f
       1.023751 1.0166084 0.99810046 1.0061626

module.slow_path.conv1.1.bias f4 [8]
000000 82 fb 86 3c 96 85 58 b9 e7 26 d4 3b 51 3c 19 bc
       0.01647735 -0.0002064913 0.006474364 -0.009352759
000010 c4 60 f9 bb 2b 92 74 3c df ba e7 bb 7a fc 84 3c
       -0.0076104123 0.014927427 -0.0070718373 0.016233671

module.slow_path.conv1.1.running_mean f4 [8]
000000 63 2a e8 3d 2d 62 14 bf ff 7c 30 bf 8b d5 51 bf
       0.113362096 -0.57962304 -0.6894073 -0.81966466
000010 db 8a d3 3e 46 36 06 bf 47 5c 6a 3f 27 e1 6e 3e
       0.41316876 -0.52426565 0.91547054 0.23328076

module.slow_path.conv1.1.running_var f4 [8]
000000 4c d7 36 3c f7 35 bc 3d ab 01 fc 3d ee 00 32 3e
       0.011159729 0.091899805 0.12305006 0.17383167
000010 c8 a5 8c 3d 51 f7 ae 3d f6 65 61 3e de 55 ae 3c
       0.06867558 0.085432656 0.22011551 0.021281179

module.slow_path.layer1.0.block.0.block.0.weight f4 [8, 8, 1, 1, 1]
000000 67 46 27 3d 31 e8 c9 bd 96 5f 37 be c4 0d 61 be
       0.040838625 -0.0985874 -0.17907557 -0.21977907
000010 d2 62 61 bd 0b 0a fd 3d 8f 7c a2 bd 5c 4a 81 be
       -0.055025883 0.12355431 -0.07933914 -0.25252044
000020 36 85 c3 bd 55 e1 37 be 5c a7 1c 3e 8f 0b 00 be
       -0.09546892 -0.17957051 0.15298218 -0.12504409
000030 68 d6 a7 3b ba f5 fe bd d3 f5 90 3e 04 25 58 be
       0.0051219948 -0.12449212 0.2831255 -0.2110787
000040 1a e0 30 3b 0a b6 66 3e 2c 1f 05 3d ea 07 0f 3e
       0.0026989044 0.2253038 0.03250043 0.13967863
000050 24 3e a7 be 58 b5 86 3e 0c eb 20 3e 77 3e 83 3d
       -0.32664597 0.2631023 0.15714663 0.064083986
000060 8d 1b 6e bd c0 2c 84 3e 8f bb 8f bd 72 6f a3 3e
       -0.058131743 0.25815392 -0.07018196 0.31920964
000070 7c 5e d2 bd de c1 63 3e 1a f9 17 3e a5 7e a7 3e
       -0.10271928 0.22241923 0.14841118 0.3271381
000080 ac 44 0c 3d 86 24 e9 bd 5a 37 a6 bd bf 5d 22 be
       0.034245178 -0.113839194 -0.08116026 -0.15856074
000090 68 41 59 be 39 07 8a be 26 fe f3 bd 33 5c 60 3e
       -0.21216357 -0.26958635 -0.11913709 0.21910171
0000a0 e4 e0 46 3e 7e 34 13 be 6a c9 0a 3a fd ec 92 be
       0.19421726 -0.14375493 0.0005294295 -0.28696433
0000b0 55 b5 85 be cf 4b 47 bd 33 6a 1c be 2c 52 a4 be
       -0.26114908 -0.04865628 -0.15274887 -0.32093942
0000c0 6c 72 c1 3d 9f a7 75 bd 09 03 66 bc 43 5b 78 3e
       0.09445652 -0.05997431 -0.01403881 0.24253564
0000d0 b1 0a 35 bd e2 b3 93 bd 5e ec 0d bb e5 10 9f 3c
       -0.04419965 -0.07212044 -0.0021655778 0.019417236
0000e0 bf c9 ab bc a5 1b 20 be 29 1e 13 be 6a 7e f2 bd
       -0.020970223 -0.15635546 -0.14366974 -0.11840518
0000f0 d0 96 4d be c7 7c 95 3d 15 55 91 3c 79 80 92 3e
       -0.20077062 0.0729919 0.017740766 0.28613642

module.slow_path.layer1.0.block.0.block.1.weight f4 [8]
000000 71 67 7d 3f 0a c7 7f 3f c9 b1 7c 3f 0f 35 7d 3f
       0.98985964 0.99913085 0.9870878 0.98909086
000010 84 89 7c 3f ee b4 81 3f 27 6d 82 3f 1c d4 80 3f
       0.9864733 1.013334 1.0189561 1.0064731

module.slow_path.layer1.0.block.0.block.1.bias f4 [8]
000000 76 68 4c bc ee 2b 45 3c f2 aa 29 3b 30 38 2c 3d
       -0.012476077 0.012034399 0.0025889245 0.042045772
000010 df e3 a6 bc 65 b2 c2 3c 61 f1 ca bc cb df 6a 3c
       -0.02037233 0.023766706 -0.024773302 0.014335583

module.slow_path.layer1.0.block.0.block.1.running_mean f4 [8]
000000 b2 e2 eb be 80 2b 73 3b 3e 2f b8 3e ed 17 0d 3f
       -0.46071392 0.0037104785 0.35973543 0.5511463
000010 95 75 4a bd 65 16 ed be e5 da ef 3d f9 69 91 3d
       -0.04942854 -0.46306148 0.11711673 0.07100291

module.slow_path.layer1.0.block.0.block.1.running_var f4 [8]
000000 5c 6d 99 3d 3b fc 2f 3e 56 d8 f1 3d 06 80 00 3e
       0.07491562 0.17186062 0.11808841 0.12548837
000010 22 53 dc 3e 26 69 98 3d ad d4 00 3c c4 e3 ca 3e
       0.43032175 0.074419305 0.007863206 0.39626896

module.slow_path.layer1.0.block.1.block.0.weight f4 [8, 1, 1, 3, 3]
000000 90 6f 7f be 9e 59 b9 3e 67 b0 53 3e 03 89 80 be
       -0.24944901 0.36201185 0.20672761 -0.25104532
000010 34 a3 96 3d ca 13 40 3e 6e 48 ae bc 50 2e 17 3e
       0.07355347 0.18757549 -0.021274772 0.1476376
000020 0f 1d 99 be 43 bf 40 be 05 fa 8d 3d ce 24 94 3e
       -0.29904982 -0.1882296 0.06932453 0.2893433
000030 4f 45 a9 3e ba d4 27 be 81 2e 4b 3e a9 53 63 3e
       0.3306069 -0.16389742 0.19841959 0.22199883
000040 65 07 95 bd ef 5a c1 3d 8c fa 9e 3d 0b 08 32 3d
       -0.07276801 0.09441172 0.07762632 0.0434647
000050 d1 d8 9b be c7 de 77 3e 0a 40 d5 bd ae af 9a be
       -0.30438855 0.24206077 -0.10412605 -0.30212158
000060 81 55 ad bd 4d d9 92 3e b3 30 a6 3e 80 38 64 3e
       -0.08463574 0.28681412 0.3245903 0.22287178
000070 69 cb b2 3a 15 ac 4a 3e b2 9a 0e 3e 84 c6 13 be
       0.0013640943 0.19792207 0.13926199 -0.14431196
000080 b6 a1 46 bd f0 df 90 3e 16 75 0e 3d 12 12 ba 3d
       -0.048494063 0.2829585 0.03477963 0.09085478
000090 67 d0 96 3d 63 b6 44 3e 7a 77 15 be a0 10 b0 bd
       0.07363968 0.192102 -0.14596358 -0.08596921
0000a0 8c 6d 99 3e a0 82 15 3d fb f0 93 be ea 4b 0d be
       0.2996639 0.036501527 -0.2889479 -0.1379849
0000b0 49 eb 7e 3b 37 3f 96 be a9 0c ab bd cd 8e bf 3d
       0.0038897565 -0.29345104 -0.08352024 0.09353409
0000c0 19 cf e1 bc a7 c6 8a ba 52 ba a0 bd c7 bd 67 be
       -0.027564572 -0.0010587767 -0.07848038 -0.22630988
0000d0 0e 37 9a be ae 6e 12 3e 04 ff 4f be 18 9f 4a 3e
       -0.30120128 0.14300033 -0.20312124 0.19787252
0000e0 cb 0d 9f 3e 5d 22 a7 3e 8f ef 51 be 5e 23 4a be
       0.3106521 0.32643405 -0.2050154 -0.19740054
0000f0 f5 94 27 3e c0 e3 30 be ee 39 da 3c c1 b3 1a be
       0.16365416 -0.1727438 0.026638951 -0.15107633
000100 27 a5 3c 3e ac 58 2a 3e 1f 22 6c bb 9d eb 91 3e
       0.18422376 0.16635388 -0.003603108 0.2850007
000110 fa af 8b be d3 45 ac 3e cb 03 0d 3e 22 26 5a be
       -0.27282697 0.33647022 0.13770978 -0.21303609

module.slow_path.layer1.0.block.1.block.0.bias f4 [8]
000000 df 7e 68 be f5 58 92 3d 16 19 28 be 88 46 4a 3e
       -0.22704647 0.071458735 -0.1641582 0.19753468
000010 c8 ee 9b 3e 92 f2 b8 3d 7c 91 df 3d de a6 91 be
       0.30455613 0.090306416 0.10916421 -0.28447622

module.slow_path.layer1.0.block.1.block.2.weight f4 [8, 8, 1, 1, 1]
000000 c4 70 a4 be 9f fd 7f bd de e3 a5 be 70 49 82 be
       -0.32117283 -0.06249773 -0.3240041 -0.25446653
000010 dc 49 50 3e 25 e6 1a bd cc 37 7b 3e e2 1f 00 3e
       0.20340675 -0.03781714 0.24533004 0.12512162
000020 da cc 8e bd 3d 74 b4 be 3f ee fe 3d f6 4a 10 3e
       -0.06972666 -0.35244933 0.124477856 0.14091095
000030 b3 ac 3f 3e dc e3 04 3d b6 da a9 3e 30 a3 0b 3e
       0.18718223 0.032443866 0.33174676 0.1363647
000040 2a 9e 51 be a6 5c 7f be 47 2b 81 3e a4 28 63 be
       -0.20470491 -0.24937686 0.2522833 -0.22183472
000050 10 9e 56 be 60 aa 54 3e 2e 8e 87 3e 5c e3 91 be
       -0.20958734 0.20768118 0.26475662 -0.28493774
000060 ac 22 d0 3d 13 47 aa bc 5a d0 49 3d bf 5d 4e be
       0.10162863 -0.020785844 0.049270965 -0.20152949
000070 5a dd 99 3e 5a de 72 3d a2 1a a4 be 93 70 45 3e
       0.3005169 0.059294082 -0.3205157 0.19281225
000080 76 55 42 3d ca 5f 94 be 94 63 6d 3e 80 88 9e 3e
       0.047444783 -0.2897933 0.23182517 0.30963516
000090 ba ee 4e 3c 48 bc 6b bd 95 47 b0 be c1 86 83 3e
       0.012630159 -0.057552606 -0.34429613 0.25688747
0000a0 7f 1f 9c be 7f 80 04 be 52 17 bd 3d 4c 90 7a 3d
       -0.3049278 -0.12939642 0.092329636 0.06117277
0000b0 85 ae 6a 3e e0 27 3b bc 6b 6a a3 3e f4 ac 69 be
       0.22918136 -0.011423081 0.31917128 -0.22819883
0000c0 48 65 63 be 5e 2a 97 3e 6b 0f 1a bc 34 19 a1 be
       -0.22206604 0.2952451 -0.00940309 -0.3146454
0000d0 de 4f b7 be 62 42 b2 3e e6 18 8d 3e fb 59 89 3e
       -0.3580312 0.3481627 0.27558059 0.26826462
0000e0 b9 3d 3d 3e 8b 37 0b 3e 3e 13 98 be a8 84 47 be
       0.18480577 0.13595407 -0.2970218 -0.19484198
0000f0 4f a1 a0 be bd 99 89 bd df b5 bd be 06 f4 ad bc
       -0.3137307 -0.067187764 -0.3705282 -0.021234524

module.slow_path.layer1.0.block.1.block.3.weight f4 [8]
000000 bd 94 7e 3f 93 35 81 3f 8c c3 81 3f 44 05 79 3f
       0.99445707 1.0094475 1.0137801 0.9727366
000010 be f2 80 3f 37 2f 7e 3f 91 8f 7a 3f 7f e8 82 3f
       1.0074079 0.99290794 0.97875315 1.0227202

module.slow_path.layer1.0.block.1.block.3.bias f4 [8]
000000 77 d1 3d 38 9c 77 3c b7 70 65 84 39 ea 91 80 b7
       4.525619e-05 -1.1233522e-05 0.0002525258 -1.5326736e-05
000010 72 ff ef b7 f9 9a b0 b8 2d 5e 03 b9 89 1a de 38
       -2.8609971e-05 -8.4212e-05 -0.00012528217 0.000105907275

module.slow_path.layer1.0.block.1.block.3.running_mean f4 [8]
000000 e5 1d 17 bd 3b 4c b5 3d 8e 7e 0d be 74 8a 5f ba
       -0.036893744 0.088524304 -0.13817808 -0.0008527406
000010 20 c1 9b bb 41 08 9f 3d 19 7b f4 3c da 5d 66 be
       -0.004753247 0.07765246 0.029843854 -0.22496739

module.slow_path.layer1.0.block.1.block.3.running_var f4 [8]
000000 a4 a0 a5 3c 14 bc 22 3d 14 1d 27 3d ce e1 76 3c
       0.020218201 0.039730147 0.040799215 0.0150684845
000010 81 39 03 3d 63 20 bf 3c 67 c3 af 3d 78 a5 09 3d
       0.032037262 0.023330873 0.08582192 0.03360507

module.slow_path.layer1.0.block.2.block.0.weight f4 [32, 8, 1, 1, 1]
000000 48 76 91 be 1f 15 59 3c 0c 84 07 3c ec 20 81 3e
       -0.28410554 0.013249665 0.0082712285 0.2522043
000010 33 2a 72 be 34 ec 54 be dd 7b 87 be 26 23 6f 3e
       -0.2364891 -0.2079323 -0.26461688 0.23353252
000020 ca a4 31 be af dd b6 be 47 60 7d 3d 78 76 10 3e
       -0.17348018 -0.35716006 0.061859395 0.14107692
000030 4e 02 26 be ce 6d a5 3e 92 c2 a7 3e 88 e1 0d 3e
       -0.16211817 0.32310337 0.32765633 0.13855565
000040 e2 36 51 3e 7a 71 7e 3d 89 0d 03 3c b7 e6 5b 3e
       0.20431092 0.06211994 0.0079988325 0.2147473
000050 b5 ad a2 be ca a5 23 3c 95 bc 81 3e 43 ca b1 ba
       -0.31773153 0.009988258 0.2533919 -0.0013564307
000060 4b 72 65 be 1e 0c 8a bc 75 0a 8f be a8 7f 19 be
       -0.2240688 -0.016851481 -0.27937666 -0.14990103
000070 52 29 2b be 4b 7f 43 be 1a 84 d3 bd 40 89 94 be
       -0.16714981 -0.19091527 -0.10327931 -0.29010963
000080 fc 09 e3 bd a5 c9 89 be ad 3c 65 3e 01 0b 07 bd
       -0.11085889 -0.26911655 0.22386427 -0.03296948
000090 35 2b 82 3e be 07 f0 3c 78 60 9e be 24 2e 1a 3e
       0.2542359 0.029300567 -0.30932975 0.15056664
0000a0 e7 c1 0b bc 54 10 79 3e 26 d8 97 be c7 8a ac be
       -0.008530117 0.24322635 -0.29657096 -0.3369963
0000b0 1d c0 91 3e c9 59 10 bc 38 94 f0 3c 1f 14 5b be
       0.28466883 -0.008810469 0.029367551 -0.21394394
0000c0 43 10 06 3e 4e a4 b0 3e 2f c0 fa bd 47 a5 12 bc
       0.13092141 0.34500355 -0.12243687 -0.008950538
0000d0 10 f9 e4 bc 6a 88 8c 3e 55 29 a9 3e 9a d8 cb bd
       -0.027950794 0.27447826 0.33039346 -0.09953423
0000e0 e6 cf 37 be 47 5b bb be 45 a9 61 be 86 01 81 bd
       -0.179504 -0.36593077 -0.22037227 -0.06299119
0000f0 b8 63 70 be d6 34 01 be 2d 95 07 3e fe 6d 4f 3e
       -0.2347554 -0.12617812 0.132405 0.20256802
000100 f1 7b c1 bc 6a 4c 85 bd e5 3d 74 3b 55 8f 77 bd
       -0.02361867 -0.065087155 0.0037268337 -0.060439426
000110 cb 77 c9 3d 66 ec 9b 3e 31 66 ad 3e 54 00 5c be
       0.09837302 0.30453795 0.33867028 -0.214845
000120 88 c5 79 be b6 04 9d be 9a 23 46 bd 04 73 6b be
       -0.24391758 -0.30667657 -0.048373796 -0.22993094
000130 fe cf 3e be f3 e1 fc 3c 62 51 d0 bc 71 d1 b1 be
       -0.1863403 0.03086946 -0.025429431 -0.34730104
000140 f5 2e 84 be 96 78 3b 3e be 12 93 3e 05 ad c9 bd
       -0.25817075 0.18307719 0.28725237 -0.09847454
000150 93 25 b7 bd ed d2 a0 be 5b 41 8e bc d0 07 8e bc
       -0.089427136 -0.31410924 -0.017365148 -0.01733771
000160 f4 bd e4 bd 61 b2 5c 3c 0a 0f 22 be b6 24 1b be
       -0.11169043 0.013470263 -0.1582605 -0.15150723
000170 87 4e 23 3e 19 f3 b7 3e 93 aa e7 bd 48 4c 7a bd
       0.15947925 0.35927656 -0.11311831 -0.061107904
000180 c5 8f 67 3e 9a b1 25 3e 8a 01 2f bc a4 fc bd bd
       0.22613437 0.16181031 -0.010681519 -0.09276703
000190 0b cd 92 3e 00 07 fa 3d 7a 97 b5 be ec 55 10 3d
       0.2867206 0.122083664 -0.3546713 0.03523819
0001a0 31 41 99 3e d7 fc 62 3d 2d 06 8a 3e f2 95 a9 bd
       0.2993255 0.055416908 0.26957837 -0.08280553
0001b0 d7 80 04 3d ea c4 62 be fb 5c 50 be 94 ca 85 be
       0.032349434 -0.22145429 -0.20347969 -0.26131117
0001c0 13 8f a8 3d 36 03 57 be ec 75 2f 3e b1 95 82 3e
       0.08230414 -0.20997319 0.17134827 0.2550483
0001d0 38 41 2a bd b4 75 b1 bc ee 54 f9 3d 6a 53 55 3d
       -0.041566104 -0.02166257 0.12174402 0.052081503
0001e0 2a 5a 6b be db cd 3e bc 11 6b 88 be 07 62 89 be
       -0.22983614 -0.011645759 -0.26644185 -0.268326
0001f0 19 c2 e8 3d f4 dc f7 bd 9e 88 2d 3e 70 a1 2b be
       0.11365146 -0.1210269 0.16946647 -0.16760802
000200 9b 37 ba be 2b 06 16 bd 7a bd 3e be 3a 10 d6 ba
       -0.3637055 -0.036626976 -0.18626967 -0.001633174
000210 12 8d 39 3e ea 3f f7 bd 0e 1d 9b 3e 6e b2 d7 bc
       0.1812022 -0.120727375 0.30295604 -0.0263302
000220 05 b7 38 be fd ca 86 be 10 e6 38 be 6e 8e 72 3d
       -0.18038566 -0.26326743 -0.18056512 0.059217863
000230 b9 75 87 bd b9 d7 2b be 84 fe 19 3e 08 b3 82 bd
       -0.06614251 -0.1678151 0.15038496 -0.06381804
000240 fd 48 e8 3d c2 a7 86 3e 67 50 3c be f8 2f 1c be
       0.113420464 0.26299864 -0.18390046 -0.15252674
000250 73 c6 b1 3c dd 7e 7b be 40 cd bf 3d 62 e5 77 bd
       0.021701073 -0.24560113 0.0936532 -0.06052149
000260 47 19 8d 3e 38 f5 fc bc c5 0c 81 be a0 e6 3a be
       0.27558348 -0.030878648 -0.25205055 -0.18252039
000270 32 5c b8 be 05 b1 89 3e 54 c8 3c 3c 10 4d 8e 3e
       -0.3600784 0.26892868 0.011522371 0.2779317
000280 5e c8 91 3e c9 d9 05 3e 8a 2c 42 bd ce a8 af 3c
       0.2847318 0.1307136 -0.047405757 0.021442797
000290 11 6b 84 3e a2 08 92 3e 28 36 ef 3a 50 c1 2c b9
       0.25862935 0.2852221 0.0018250393 -0.00016475213
0002a0 de 1c 15 3e d8 77 8d 3e bb c7 17 be 79 37 dd 3d
       0.14561793 0.27630496 -0.14822285 0.10801596
0002b0 43 d7 81 be 6b 12 89 3a 28 bc 8f be 84 2b 09 be
       -0.25359544 0.001045776 -0.2807324 -0.13395506
0002c0 c7 0e bf bd 12 87 37 3d 23 81 95 3e 25 c1 76 bb
       -0.093289904 0.044806547 0.29200086 -0.0037651744
0002d0 80 ce 96 be bd fc 8a be 37 50 68 3e aa 5f 91 bd
       -0.29454422 -0.2714595 0.2268685 -0.070983246
0002e0 b8 03 81 be 5b 9c af 3e af 8a 78 3e 83 a4 86 3e
       -0.2519815 0.34298977 0.24271654 0.26297387
0002f0 32 9c 94 3e 3c 22 41 bd c6 54 44 3e 81 21 a1 be
       0.29025418 -0.04715179 0.19172964 -0.31470874
000300 76 c0 10 be db 30 0c 3d 5f e2 36 3e 25 88 31 3e
       -0.14135918 0.03422628 0.17859791 0.17337091
000310 b2 9a ae 3e 7c d6 8c 3e 3e ab 18 3d 42 c6 55 bc
       0.34102398 0.2750739 0.037272684 -0.013047757
000320 bc 14 40 3e c2 4b 9d 3e 04 48 a0 3e fc dd 8b be
       0.1875791 0.3072186 0.31304944 -0.27317798
000330 c6 ad 9a be 8f 62 43 bd 8c ef a8 3e 98 c6 93 bd
       -0.30210704 -0.047701415 0.3299526 -0.07215613
000340 21 d7 59 bd 0d 6e ae be 6d f6 8f 3e 78 c8 fd 3d
       -0.05318368 -0.34068337 0.28117695 0.12391752
000350 36 5b ab be 62 72 38 be 02 38 f4 3b 5f 7a 3d 3e
       -0.33468026 -0.18012384 0.0074529657 0.18503712
000360 68 3f 15 3e 7b b5 e0 bd 7f 1d 72 3e 60 27 a3 3d
       0.14574969 -0.10972115 0.23644064 0.079664946
000370 03 e3 25 bd b5 a7 31 3e 30 e1 29 be 76 7a 95 3e
       -0.0404997 0.17349131 -0.16589808 0.29194993
000380 62 48 85 3d 2c eb 33 3c 95 b9 2f 3e 10 1b 52 be
       0.065079466 0.010981362 0.17160638 -0.20518136
000390 79 ab 20 3d 32 8a 2e be 02 94 4f be af a1 9b 3e
       0.03922603 -0.17044905 -0.20271304 0.30396792
0003a0 82 72 76 be ed 89 69 3e db ad 6b 3e 92 81 63 3e
       -0.24067119 0.22806521 0.2301554 0.22217396
0003b0 6b 1c 25 be 72 f7 65 be df 64 62 be bd 69 cb bd
       -0.16124122 -0.22457674 -0.22108792 -0.09932277
0003c0 4d 9b 98 3e d8 a9 fb 3d 54 6c ad be 7c 64 ad be
       0.29805985 0.122882545 -0.3387171 -0.33865726
0003d0 80 d8 61 3e fc 61 4f 3d 76 50 6a be 9b 69 61 be
       0.22055244 0.050630555 -0.22882256 -0.22012942
0003e0 26 f5 35 3e 0c 15 60 be be 2b fb 3d 98 14 ac 3c
       0.17769298 -0.21883029 0.122642025 0.021005914
0003f0 63 cb f6 bd 57 28 bc be cd 10 e0 bd 39 c5 9e 3e
       -0.12050512 -0.36749527 -0.109407045 0.31009844

module.slow_path.layer1.0.block.2.block.1.weight f4 [32]
000000 a0 e2 7e 3f ba 34 7d 3f b6 22 82 3f 4e 62 81 3f
       0.9956455 0.9890858 1.0166843 1.0108125
000010 25 d7 81 3f 5e d8 82 3f 46 4d 81 3f 16 82 82 3f
       1.0143782 1.022228 1.0101707 1.0195949
000020 97 da 7e 3f ff cb 81 3f b0 a3 7d 3f ab 3e 7a 3f
       0.9955229 1.014038 0.9907789 0.97751874
000030 13 80 82 3f 4d 1c 82 3f c4 ea 83 3f 2a cf 80 3f
       1.0195335 1.0164887 1.030602 1.0063221
000040 4f a3 7e 3f 27 24 7f 3f b7 20 82 3f 70 36 80 3f
       0.9946794 0.9966454 1.0166234 1.0016613
000050 1a 66 7c 3f f0 95 83 3f cd af 83 3f ab 58 79 3f
       0.98593295 1.0280132 1.0288025 0.9740092
000060 29 26 84 3f 31 78 86 3f c8 88 81 3f 7e 3e 7e 3f
       1.0324146 1.050543 1.0119867 0.99314106
000070 01 c8 7a 3f 31 87 81 3f b2 43 84 3f cf 5f 7d 3f
       0.9796143 1.0119382 1.0333159 0.9897432

module.slow_path.layer1.0.block.2.block.1.bias f4 [32]
000000 36 a2 4d bb ed af c3 bc 0b 18 72 3b 8f 80 ce 3c
       -0.0031377203 -0.023887599 0.00369406 0.025207786
000010 14 47 0e bc ec a9 b5 3c a8 7e c3 3b 47 ba eb 3c
       -0.0086839385 0.022175752 0.0059660263 0.028775347
000020 32 0b 7c 3b b0 ae 05 3c e6 97 94 bb 02 3e 82 3b
       0.0038458821 0.0081593245 -0.0045347093 0.003974677
000030 c6 21 e0 3b 0e 1d da 3a 11 2f 0f 3d a1 e8 7b 3c
       0.0068399636 0.0016640739 0.034956995 0.015375287
000040 e5 93 e0 3c c0 1d c5 3c 22 61 c8 3c 89 33 0a 3c
       0.027414272 0.024062037 0.024460379 0.0084351385
000050 10 c4 0a b9 6b 37 14 bb b8 d7 d2 3c 59 11 eb bb
       -0.00013233745 -0.002261604 0.025737628 -0.007173699
000060 61 10 81 3c 96 ef a9 3c 11 b3 27 3c 81 40 88 bb
       0.01575488 0.020744126 0.010235564 -0.00415808
000070 46 4d 2c bc 1b e0 15 3c a8 b5 34 3d d5 2f de bb
       -0.01051647 0.009147669 0.044118553 -0.0067806044

module.slow_path.layer1.0.block.2.block.1.running_mean f4 [32]
000000 f0 19 93 38 72 f9 3e b8 71 d2 ad b7 6a bb a4 b8
       7.0143375e-05 -4.5531844e-05 -2.0721202e-05 -7.855038e-05
000010 a6 a8 dc 38 26 c2 dd b8 97 04 dc b8 38 c0 31 b8
       0.00010521831 -0.00010574264 -0.000104912724 -4.2379106e-05
000020 5c bb cb b8 af c5 5f b8 c6 93 b9 38 9e 2c 8c b8
       -9.714693e-05 -5.335145e-05 8.8490124e-05 -6.684031e-05
000030 d6 38 41 38 03 ce d0 38 e5 6d 18 38 33 e7 e6 b8
       4.606772e-05 9.9565856e-05 3.634197e-05 -0.00011010319
000040 8b 04 da b8 84 f8 8c b8 1d 94 2b b8 69 a5 06 b8
       -0.00010395896 -6.72201e-05 -4.090752e-05 -3.210214e-05
000050 5b 76 eb b7 7c b4 6f b6 92 ba 72 38 d9 0b ab b7
       -2.8069297e-05 -3.571883e-06 5.7871053e-05 -2.0390306e-05
000060 72 98 89 b4 e5 13 44 38 89 c1 e6 38 ec 03 e5 38
       -2.5629157e-07 4.674857e-05 0.000110033034 0.000109203014
000070 81 96 02 39 9e 40 b0 38 7c 06 91 b8 ec 77 00 39
       0.00012453833 8.40437e-05 -6.9153466e-05 0.00012251706

module.slow_path.layer1.0.block.2.block.1.running_var f4 [32]
000000 35 c0 c2 3e 91 d7 a3 3e 74 0b c9 3e e5 b4 83 3e
       0.38037267 0.32000402 0.3926655 0.2572395
000010 dd 0e a5 3e ec d3 14 3f 0a 34 ab 3e 49 16 7b 3f
       0.32237902 0.5813587 0.3343814 0.9808088
000020 a1 98 60 3e f2 01 67 3e e4 05 01 3e fa 96 a4 3e
       0.21933223 0.22559336 0.12599903 0.32146436
000030 e2 98 17 3f 54 2e 81 3e ad ee 77 3e c7 51 d6 3e
       0.59217656 0.25230658 0.24212141 0.41859266
000040 99 6b 00 3f 03 3a 06 3f 08 7a c0 3d c8 01 f8 3e
       0.5016418 0.5243227 0.093982756 0.4843886
000050 db 8d 96 3e 24 db 1e 3e 57 13 36 3e 7a 49 25 3f
       0.29405102 0.15513283 0.17780815 0.6456524
000060 d2 66 bb 3e c8 e2 0c 3f dd e2 22 3f ba cc 9c 3e
       0.36601883 0.5503354 0.63627416 0.30624944
000070 a3 63 0e 3e 1d a3 0d 3e f1 81 f5 3e a7 23 2c 3f
       0.13905196 0.13831754 0.479507 0.672419

module.slow_path.layer1.0.downsample.block.0.weight f4 [32, 8, 1, 1, 1]
000000 04 98 4d be dd 64 56 be c5 31 6d be ce d0 89 3e
       -0.2007752 -0.20936914 -0.23163517 0.26917118
000010 1d 4a a6 3d db 36 18 be 05 55 81 be 3f 8f 27 3e
       0.08119605 -0.14864676 -0.25260177 0.16363238
000020 bd 18 f8 3d 78 9d 4f bd f0 2f 83 be c7 53 ff bd
       0.121140935 -0.050687283 -0.2562251 -0.12467151
000030 5a 3a a6 be fd a7 ab 3e 59 f8 63 3e 19 f9 9b be
       -0.32466394 0.33526602 0.22262706 -0.30463484
000040 66 79 38 be 30 51 16 3e bc 8d 83 be 02 5e ad 3e
       -0.1801506 0.14679408 -0.25694072 0.33860785
000050 17 03 1c 3e 7d 2e 57 be d6 a9 4c 3e c3 ee 05 bd
       0.15235554 -0.21013828 0.19986662 -0.032698404
000060 be 90 35 be e1 2c 99 3d 70 50 89 be 6d 46 af 3e
       -0.17730996 0.07479263 -0.2681918 0.34233418
000070 27 fb d7 bd 51 30 7a 3e 32 74 22 be 41 18 91 be
       -0.105459504 0.24432494 -0.15864637 -0.28338817
000080 7d 2f 1e be 0c c3 bc bd e3 1c 8d be 30 56 20 be
       -0.15447803 -0.0921689 -0.275611 -0.15657878
000090 0d 6c 77 3e d6 cc 0d be 86 22 8b bd 2c 90 6e 3e
       0.24162312 -0.1384767 -0.06793694 0.23297185
0000a0 17 95 a7 be 46 8c 97 bd 3f 8a 9e be c7 94 c4 3d
       -0.32730934 -0.07399802 -0.30964848 0.095986895
0000b0 e1 29 8a be ff 6a 95 3e 7f 6f 66 be d1 22 ea 3d
       -0.26985076 0.29183194 -0.2250347 0.11432422
0000c0 20 c8 2d 3e cf fb c6 bc f6 62 d2 3d 14 61 9a 3e
       0.16970873 -0.024289994 0.102727816 0.3015219
0000d0 dd ce 9e bd 76 a8 06 3e 12 cd 8c 3e 8f 86 f4 3d
       -0.077543 0.131502 0.27500206 0.119397275
0000e0 ba 0e b2 3e f0 dc c2 bb 03 84 79 3e 25 36 a2 3d
       0.3477686 -0.005946748 0.24366765 0.079204835
0000f0 c9 89 31 be 20 ec 26 3e fc ef 5e 3d a8 df d1 3d
       -0.17337717 0.16301012 0.054428086 0.10247737
000100 09 22 8b 3e 4b 2e 1b 3e aa 0e 97 be 41 13 96 be
       0.27174404 0.15154378 -0.29503375 -0.29311565
000110 dd 76 bd bc c8 6f 4d be 88 25 a6 3d ca ee 90 3e
       -0.023127967 -0.20062172 0.08112627 0.28307182
000120 97 72 ce 3d 6b 0b c3 bd 03 fa 5d be 51 bc 99 3e
       0.1008045 -0.09523662 -0.21677403 0.30026487
000130 b2 cf 0b be bc ff a0 3d 8a 34 76 3e 4d 1a f3 3d
       -0.13653448 0.078612775 0.2404348 0.11870251
000140 bc 78 32 3c 3e e1 f0 3d d4 af 2d 3e 68 55 10 3e
       0.010893043 0.117617115 0.16961604 0.1409508
000150 da d3 2d 3e 21 f1 a5 bd 07 e2 61 be 00 c3 82 bc
       0.16975346 -0.08102632 -0.22058879 -0.015962124
000160 d3 0b 88 bb 9a 20 65 3e c0 e3 23 3e b7 ee af bd
       -0.0041518 0.22375718 0.16004848 -0.08590453
000170 e6 a3 02 be ad b1 a2 be ff e7 08 3e 2a 9b 83 3e
       -0.12757835 -0.3177618 0.1336975 0.25704318
000180 74 1e b4 3e e4 1e 11 be f7 6e 5a 3e 63 ee 42 3d
       0.35179484 -0.1417194 0.21331392 0.047590625
000190 87 28 7b 3e e5 45 74 bd df f8 15 3c a2 4b 0a bd
       0.24527179 -0.05963697 0.009153574 -0.033763535
0001a0 2b 28 2f be 93 51 62 3c ff 36 68 3e 91 a1 3f 3e
       -0.17105167 0.013813394 0.2267723 0.18713976
0001b0 6e 12 53 be 9e cc 23 3e 3b 83 3e 3e e2 ee 8d 3e
       -0.20612499 0.15996024 0.18604748 0.27721316
0001c0 c1 c9 92 3e 7a de 94 3e 95 d6 33 3e ed 1d 42 bc
       0.2866955 0.29075986 0.17562325 -0.011847955
0001d0 d8 82 fa bb 21 34 11 be 5c d5 68 be 61 d4 b3 be
       -0.0076449923 -0.14180042 -0.2273764 -0.3512297
0001e0 e0 17 83 3e b1 96 44 3d 7a a0 9c be a0 d3 ae 3e
       0.25604153 0.047995273 -0.30591184 0.34145832
0001f0 bf e0 6b be 9d be 92 be e5 58 d3 bd d5 d6 6a 3e
       -0.23034953 -0.2866105 -0.1031969 0.22933514
000200 86 73 15 be 0a 5e 97 be 0c ed 99 3e d1 3f 24 3d
       -0.1459485 -0.29563934 0.30063665 0.040099923
000210 81 c0 4d be d0 d7 d9 bd 0b 16 cb 3c 93 1e a0 be
       -0.20092966 -0.10636866 0.024790784 -0.31273326
000220 62 64 34 3e 26 e0 25 be fa 66 99 3e 20 75 9e be
       0.17616418 -0.16198787 0.29961377 -0.30948734
000230 d1 37 1f 3d bb ca 8a bd d3 de 51 be 81 d6 5a 3e
       0.03887159 -0.06776949 -0.20495157 0.21370889
000240 d5 d4 55 be 40 23 b3 be 45 43 7b 3e e4 b5 9b be
       -0.2088197 -0.3498783 0.2453738 -0.3041221
000250 a9 82 1f 3e 5a bc a7 be e7 0b 33 be 14 2c 1f 3e
       0.15577187 -0.32760888 -0.17485009 0.15544158
000260 ab b1 8f be 73 2d 1f 3e b1 df c4 3c 62 83 94 3e
       -0.28065237 0.15544681 0.024032446 0.29006487
000270 d5 3f 9d 3e a4 73 a4 bc a1 b4 16 be 32 8e 80 be
       0.30712762 -0.020074673 -0.14717342 -0.25108486
000280 d3 bb 8b 3e 6d 86 a7 3e a2 50 38 be 00 b8 84 be
       0.27291736 0.32719746 -0.17999509 -0.2592163
000290 89 79 85 3d 14 99 90 3e 05 ba a8 3e 3b 1a 84 3d
       0.065173216 0.2824179 0.32954422 0.064503156
0002a0 bc 39 91 3e 7b e1 46 3e e1 66 c0 3d 95 2d 97 be
       0.2836436 0.19421951 0.093946226 -0.29526964
0002b0 b3 ff 80 bd 25 1e 26 bc 6e c3 94 3c 3b 89 8e 3d
       -0.06298771 -0.010139023 0.018159594 0.069597684
0002c0 e7 1a 1f bd 98 95 b9 be b5 c7 8b 3e 95 0c 1e 3e
       -0.038844015 -0.36246943 0.27300802 0.15434487
0002d0 31 2d 36 3e 95 78 f7 3c c5 b5 1b be 4d 99 91 3e
       0.17790677 0.030208865 -0.15206058 0.28437272
0002e0 81 8a a3 3c 07 42 89 3e d3 c0 92 3e eb ed 9f 3d
       0.019963505 0.26808187 0.28662738 0.07809051
0002f0 67 25 4f 3e a3 f2 fd bd 91 34 0b 3e a8 ef 8f 3d
       0.20229112 -0.12399795 0.13594271 0.07028133
000300 7a 75 41 3c a5 0e 24 be 1a 54 12 3e e9 9d b2 be
       0.011807794 -0.16021211 0.14289895 -0.348861
000310 2e 5f 39 3e b3 a4 4c be 4e bb 60 be a5 e5 13 3e
       0.18102714 -0.19984703 -0.21946451 0.14443071
000320 3f 3b 02 be 97 1b 48 3e fb b6 e3 3d 8d 1b 00 3d
       -0.12717913 0.19541775 0.11118885 0.031276274
000330 a7 20 df 3d d6 8a 00 be 10 bc 32 be db 3f 10 be
       0.108949 -0.12552962 -0.17454553 -0.14086859
000340 de fc 80 3e 80 0d 3d 3e 1e 64 9d 3e d2 34 f5 bd
       0.25192922 0.18462181 0.30740446 -0.11972965
000350 95 51 29 be 46 92 b8 be b0 a8 e7 bd 97 53 29 3c
       -0.16535027 -0.36049098 -0.113114715 0.010334871
000360 ba 17 b4 3e bd 0b bd 3c 6e 90 88 3e 80 b9 7c 3c
       0.35174352 0.023076886 0.2667269 0.015425086
000370 d8 72 b4 3e 5f a5 4b 3d 3d c7 59 be fc ba 44 3e
       0.3524387 0.049718257 -0.2126741 0.19211954
000380 af c1 6a 3e 88 91 02 3e 23 da 93 be 9f 3c 0e be
       0.22925447 0.12750828 -0.28877363 -0.13890313
000390 fd 90 8d 3d 3c b1 5b 3e b5 a1 f9 bc e4 48 86 be
       0.0691242 0.21454328 -0.030472616 -0.26227486
0003a0 f9 f0 a6 3d 35 76 48 be 0b 21 7e be 95 6f 79 3e
       0.08151431 -0.19576342 -0.24817292 0.24358971
0003b0 a9 4b 22 be 81 5d a2 3c 35 4d 9f 3e b1 5b c0 3a
       -0.15849175 0.019819977 0.31113592 0.0014675764
0003c0 70 6c 30 be b1 34 96 3e 2e 69 21 3d 40 ee 64 bd
       -0.17228866 0.29337075 0.039406948 -0.055891275
0003d0 3e 6f a2 be 49 20 16 3e 61 42 49 3e 76 46 3d be
       -0.31725496 0.14660753 0.19654228 -0.1848391
0003e0 5a 70 7a 3c e6 33 0e 3e 64 6c 87 be e6 0b 40 bd
       0.015285576 0.13886985 -0.26449883 -0.046886347
0003f0 9f b5 b8 3d 82 da 5d be fc 71 11 3d 77 79 44 3e
       0.090190165 -0.21665385 0.035509095 0.1918696

module.slow_path.layer1.0.downsample.block.1.weight f4 [32]
000000 80 18 82 3f a4 93 7a 3f 3f eb 7e 3f a1 f4 7b 3f
       1.0163727 0.9788153 0.9957771 0.9842015
000010 1d c4 7f 3f ad 99 81 3f 44 0b 84 3f f5 06 7e 3f
       0.9990862 1.0125023 1.0315938 0.99229366
000020 b5 c4 80 3f ec 4c 7f 3f 36 35 81 3f 00 01 7c 3f
       1.006003 0.9972675 1.0094364 0.98439026
000030 f8 eb 77 3f e9 37 81 3f 83 52 7e 3f be 6b 83 3f
       0.96844435 1.0095187 0.9934465 1.0267255
000040 75 6f 7c 3f 37 cf 7b 3f d5 5f 81 3f a5 9e 80 3f
       0.9860757 0.9836306 1.0107371 1.0048414
000050 95 a7 80 3f 2a e8 7b 3f c0 89 7d 3f 3f 3d 7a 3f
       1.0051142 0.9840113 0.99038315 0.97749704
000060 ad ea 7a 3f 3b b6 80 3f aa c6 7f 3f de 12 7d 3f
       0.98014337 1.0055612 0.9991251 0.98856914
000070 ad fa 84 3f b2 1e 81 3f 06 92 80 3f 53 b5 83 3f
       1.0389 1.0087492 1.0044563 1.0289711

module.slow_path.layer1.0.downsample.block.1.bias f4 [32]
000000 39 d8 83 3b 4e 53 e5 bb a4 2d 8a 3b e6 3b 9f bc
       0.0040235785 -0.006998456 0.0042168666 -0.019437741
000010 2a b2 8b bb 76 7b a9 3c fe 46 3c 3d d6 80 84 ba
       -0.004263182 0.020688754 0.04596614 -0.0010109197
000020 12 c1 82 3c a2 19 90 bc 4c 4b 37 3b 57 22 a1 3c
       0.015961204 -0.017590348 0.0027968464 0.019669695
000030 2e f6 d1 bc c9 42 2a 3c 2c b2 22 3c 94 ec 2e 3b
       -0.025630083 0.010391899 0.009930175 0.0026691305
000040 d1 86 d4 bb a5 f1 9c bb 1f 9a e8 39 36 ab 04 3c
       -0.006485798 -0.0047895485 0.00044365317 0.0080974605
000050 21 f9 88 3c 65 d2 5e bb dc 91 e6 ba 9d bc 27 bc
       0.016720356 -0.0033999917 -0.0017591077 -0.01023784
000060 2a 1d db bc d2 6e 0d bc 5d 49 80 3c b1 1c fe 39
       -0.026747305 -0.008632379 0.015659982 0.00048468032
000070 3e 95 87 3c 55 3f 59 3b 6d 74 86 bb e9 b6 86 3c
       0.016550656 0.003314932 -0.0041032345 0.01644464

module.slow_path.layer1.0.downsample.block.1.running_mean f4 [32]
000000 22 c0 5e be 3c cf 47 be 5d fa fd 3d 3e e1 b4 be
       -0.2175298 -0.19512647 0.12401269 -0.35328096
000010 15 f5 3a be 74 58 99 be a2 82 0a 3f b2 ae ca 3e
       -0.18257554 -0.29950297 0.5410558 0.39586407
000020 ee 48 01 3e d2 70 9c 3e f5 5d 65 bc 5d 9f dd 3e
       0.12625477 0.30554825 -0.013999452 0.43285647
000030 14 c1 0f 3e 6e 81 0a 3f fc 8a 45 be 89 ec 36 3e
       0.14038497 0.54103744 -0.192913 0.17863669
000040 89 99 2a be 22 16 9c 3c 4b 9d 56 be 73 ac 6a be
       -0.16660132 0.019053522 -0.2095844 -0.22917347
000050 54 09 94 3e 67 34 0f 3e d1 58 26 3e 6f c3 d7 3e
       0.28913367 0.13984834 0.16244818 0.42141291
000060 13 8b 51 be de f7 21 be 53 2e 2c 3e 8b 7b 4b 3e
       -0.20463209 -0.1581721 0.16814546 0.19871347
000070 cb 86 ac be 60 26 46 3e 59 82 bc 3d 90 40 62 3d
       -0.3369659 0.19350576 0.09204549 0.055237353

module.slow_path.layer1.0.downsample.block.1.running_var f4 [32]
000000 aa 8d be 3c cd 5d 06 3d f5 b3 a0 3d 3a f8 33 3f
       0.02326091 0.0328043 0.07846824 0.7030064
000010 16 d7 4d 3e f0 dd 08 3e cb 3c 01 3e a6 fc 08 3e
       0.2010158 0.13365912 0.12620847 0.13377628
000020 51 99 14 3f 2a 80 38 3e ea bf 86 3e fe 3d c5 3e
       0.5804644 0.1801764 0.26318294 0.3852386
000030 7e 83 de 3d 7b 10 8b 3e 89 d4 24 3f 1e c0 3a 3e
       0.10864924 0.2716101 0.643868 0.1823735
000040 3f 14 ec 3d c3 b3 02 3e 36 cc b7 3e 75 15 5d 3f
       0.11527299 0.12763886 0.35897988 0.86360866
000050 0a 41 0f 3e 12 5c 8c 3d 87 92 55 3d dc b1 4b 3d
       0.13989654 0.068534985 0.052141692 0.049730167
000060 a3 a8 e8 3d 01 8d 8f 3e ef 42 65 3d 09 17 92 3e
       0.1136029 0.28037265 0.055972036 0.285332
000070 50 34 a3 3e 3d f8 8a 3e a8 e8 d8 3d 0d fc 26 3e
       0.3187585 0.27142516 0.10591251 0.16307087

module.slow_path.layer1.1.block.0.block.0.weight f4 [8, 32, 1, 1, 1]
000000 7e 60 cf bd 16 d5 23 3e 44 9a e2 3d 19 e2 a2 3d
       -0.10125826 0.15999255 0.1106458 0.07953281
000010 ca f3 c0 3d fb f6 8c 3d dc 51 a9 3d f8 5c 71 3c
       0.09421499 0.06883045 0.082675666 0.014731638
000020 35 4e 18 be de 24 32 bc ea b5 9d 3d 3c 56 ab bd
       -0.14873584 -0.010873048 0.07700713 -0.08366057
000030 2f f8 61 3d c1 31 0d be 1f af e3 3c 00 67 3f 3e
       0.055168327 -0.13788511 0.027793465 0.18691635
000040 24 47 11 be 2b 6c 5d bd 17 be 76 3d 52 7e 70 3c
       -0.14187294 -0.054058235 0.060239878 0.014678555
000050 12 f9 bf bd 1d 30 d0 3d 91 6a 24 3e 59 1f cc bd
       -0.09373678 0.10165427 0.16056277 -0.099669166
000060 76 98 03 bd eb f8 c7 bd 4b b0 eb 3b ee df af bd
       -0.03212782 -0.09764274 0.0071926466 -0.08587633
000070 12 f3 da 3d d0 3a 27 3e 19 78 bc bc ee 2f f6 bd
       0.10690893 0.16331029 -0.023006486 -0.120208606
000080 33 25 35 3d a4 52 74 bd 67 5e 7b 3d 7e b0 f8 bd
       0.04422493 -0.059649125 0.061369326 -0.12143038
000090 4d a8 14 be a8 dd 7f 3d 96 a0 21 3d 4a 4f 33 3d
       -0.14517327 0.062467247 0.039459787 0.043776788
0000a0 7e 87 35 be 76 3d 07 3e 60 04 c2 bb e5 0d 7a bd
       -0.17727467 0.13207039 -0.0059209317 -0.061048407
0000b0 78 fe f7 3d ba 75 05 3e 71 b1 1d 3c 56 aa b1 3d
       0.12109083 0.1303319 0.009624825 0.08675067
0000c0 17 62 bb bd 1d f0 af bd c8 13 0e ba 94 4e 1f be
       -0.091495685 -0.0859072 -0.0005419818 -0.15557319
0000d0 ad 86 1e 3e 3e 33 f8 3d 23 6f ec 3c 05 fa c5 3d
       0.15481062 0.12119149 0.028861588 0.09666828
0000e0 b4 93 51 3d 70 fd 45 bd 14 09 95 bd ae 99 87 3d
       0.05116625 -0.0483374 -0.07277122 0.06621109
0000f0 8a 56 ef 3d eb 9a ea bd c3 f4 e4 b9 bb 58 ae 3c
       0.11686428 -0.114553295 -0.0004366991 0.021282544
000100 6b fd d4 bc 9c 5b 32 bb 89 5e fa bb 19 7e 0a 3e
       -0.025999745 -0.0027215248 -0.007640664 0.13524665
000110 1d 32 15 be a6 8f 05 3e 12 05 be 3d d5 2a a2 bd
       -0.14569898 0.13043079 0.09278311 -0.07918326
000120 28 ab c4 bd d5 97 16 3e 2b b4 69 bd 0d 60 a5 bd
       -0.09602958 0.14706357 -0.057056587 -0.08074961
000130 65 b0 8c 3c 6e 84 23 3e 14 c7 86 bd 42 7f d2 bd
       0.017173955 0.15968487 -0.0658094 -0.10278179
000140 7a 97 88 bd 78 57 7b bd b0 d7 fe bc b8 c0 e8 3c
       -0.06669517 -0.061362714 -0.031108707 0.028412208
000150 ce a3 84 bd ea 84 24 3d 4d 6a cd bd b5 96 61 3c
       -0.06476556 0.04016582 -0.10030041 0.0137688415
000160 33 18 32 3e 4d 91 a7 bc 02 16 08 3e 0e 2e cb bd
       0.17392044 -0.020455027 0.13289645 -0.099208936
000170 42 3f 21 3d 82 b7 10 3e f9 af 14 3e d8 7e 05 3e
       0.039366968 0.14132503 0.14520253 0.13036668
000180 e1 7d 7a 3c c6 5b 69 3d d1 e0 27 3e fb c9 4c 3d
       0.015288801 0.056972288 0.16394354 0.04999731
000190 ae e8 0b bd 62 1b 91 3d f1 41 d3 3d 6a d6 23 3d
       -0.034157448 0.07085301 0.10315312 0.039999403
0001a0 c5 83 05 be 10 3f d3 3d a9 0c dd 3d 32 d8 0d 3e
       -0.13038547 0.103147626 0.1079343 0.13852003
0001b0 7e f7 b7 3d 43 b0 ab 3a ab 17 1d bd ae 18 dd 3d
       0.08982752 0.0013098795 -0.03835265 0.10795723
0001c0 d2 e7 d9 3d 18 58 10 be 76 87 f6 3c de 8a 5b 3d
       0.10639919 -0.14096105 0.03009389 0.05359923
0001d0 d6 d8 3d 3e 27 4d 4e 3e b1 36 b0 3d d0 81 a7 3c
       0.18539748 0.20146619 0.086041816 0.020447642
0001e0 d6 f5 e6 3d 08 15 dd 3d 7f 1b a9 3d ea dd 1c 3d
       0.11277358 0.10795027 0.082571976 0.03829757
0001f0 6e a0 a7 3c 38 99 c1 3d f4 4b 15 3e 46 89 2a 3e
       0.020462241 0.09453052 0.14579755 0.16653928
000200 e3 e8 74 3d c7 6c 79 3d 8f a9 ba 3c 53 70 ba bd
       0.05979241 0.060894754 0.02278593 -0.091034554
000210 4e d2 67 3d cf d2 df 3d fe 26 0b 3e a6 64 a8 bd
       0.056597047 0.109288804 0.13589093 -0.08222322
000220 0f 26 4a bc 12 fb 4f bd d8 8c f3 3d 5c 05 c9 3d
       -0.012338175 -0.05077655 0.11892098 0.09815475
000230 83 30 1e bd 99 cf f6 bd a4 f6 fe bd 59 48 98 bd
       -0.038620483 -0.12051315 -0.12449387 -0.07435674
000240 6e 5c 9f bd b8 e5 b5 3c 04 0b 4e bc 64 77 33 be
       -0.077813014 0.022204265 -0.0125758685 -0.17526013
000250 bc ce 14 be e6 2f 6e 3d cb 0f 8e bd e6 70 39 3b
       -0.14531988 0.05815115 -0.06936606 0.0028296052
000260 d7 fe bf 3d 29 12 1a 3e b4 d3 6b bd a3 66 48 bc
       0.09374779 0.1504599 -0.057574943 -0.012231502
000270 04 97 8a bd da 71 53 bd bd fb 3d 3e 6b 8d 21 be
       -0.06767085 -0.05162225 0.18553062 -0.15776603
000280 25 17 ac bd cf f7 f2 3c 2d 5c f0 3d d4 68 81 3d
       -0.08402852 0.02965918 0.11736331 0.063188225
000290 02 05 42 bd cd c5 0b bc 61 d0 23 be c0 d1 7e 3b
       -0.047368057 -0.008531046 -0.15997459 0.0038882345
0002a0 40 26 2e bc f6 fd ca 3d 4a bd f5 3c 92 d1 39 3d
       -0.010629237 0.099117205 0.029997487 0.045365877
0002b0 4e 77 43 be b1 bf 0a be 3c 27 22 3e 4f 36 2b bc
       -0.1908848 -0.13549687 0.15835279 -0.01044996
0002c0 f7 d1 28 be a4 ae f1 3d 94 cf c5 bd 24 5b c2 3d
       -0.16486345 0.11800888 -0.09658733 0.0949004
0002d0 36 59 44 3d c0 a1 96 bb 88 e2 e0 3d 6d 12 ac 3d
       0.04793664 -0.004596919 0.109807074 0.08401952
0002e0 ba 44 d8 bd 5c 07 2c be 89 d5 6c 3d 9f ad 92 bd
       -0.105599836 -0.16799682 0.05782083 -0.07162022
0002f0 14 21 20 3e e5 57 ac bd d8 79 9f bd 1c 6d ea bd
       0.15637618 -0.08415202 -0.07786912 -0.11446592
000300 97 b4 99 3c 95 07 03 be 1b 71 cb bd a5 cf 33 3d
       0.01876287 -0.12795861 -0.099336825 0.043899197
000310 5f a0 5d 3d ef 76 58 bb 6d 26 81 3d 4e 50 d3 3d
       0.05410802 -0.0033029874 0.06306157 0.10318051
000320 68 98 2d 3e 72 51 81 bd 18 5c 93 bd aa d9 f0 3d
       0.1695267 -0.063143626 -0.071953 0.11760266
000330 b9 ce 80 bc 3b 04 1b bb 3f a9 60 bd 7d 6e e3 bd
       -0.015723573 -0.0023653645 -0.054848906 -0.11105058
000340 ca 80 4f bd ee da 13 3d b4 f8 1f 3e b7 88 cb bd
       -0.050659932 0.03609746 0.15622216 -0.09938186
000350 78 bf 3b bb 60 fb c5 3d 05 1d a8 3d db db f3 3d
       -0.002864806 0.096670866 0.0820866 0.119071685
000360 a0 01 9f 3d 31 41 12 be c8 a9 f1 3d 5f 0f 0e 3e
       0.07763982 -0.14282681 0.11799961 0.13873051
000370 71 2b 14 be 8b f1 ba bd a7 9b 05 3e e2 f2 61 3d
       -0.14469697 -0.09128102 0.13047658 0.05516327
000380 6c 12 c5 bd 48 4c 96 bd 3e 05 ba 3d b0 ab 30 be
       -0.09622654 -0.07338768 0.09083031 -0.17252994
000390 84 57 30 3e 10 4b 1c 3d 2b ad 75 3c 4c ea b6 bd
       0.17220885 0.038157523 0.0149949 -0.08931407
0003a0 a2 1d f9 bd 3a 7d 26 bd 6a 75 35 be eb f8 a1 bd
       -0.12163855 -0.04064677 -0.17720571 -0.079088055
0003b0 da 5b 14 bd 3b 2a ae bd e2 7a c2 bd e8 93 90 3c
       -0.03622041 -0.085041486 -0.09496094 0.017648652
0003c0 4d a3 0b be 15 29 1e 3c 9a 11 f2 3d 22 a2 a7 3d
       -0.13636513 0.009653349 0.118197635 0.08185221
0003d0 d7 57 83 3d 7e 90 a1 3d 10 a3 fc bd 8c eb 87 bb
       0.064132385 0.07888888 -0.12335789 -0.0041479524
0003e0 cb 44 d9 bd a6 eb 9f bc 48 c0 18 be 77 23 00 be
       -0.10608824 -0.019521546 -0.149171 -0.12513529
0003f0 f0 6f 31 3e a3 57 05 3e a7 b8 2c 3e f4 81 4f 3e
       0.17327857 0.13021712 0.16867314 0.20264417

module.slow_path.layer1.1.block.0.block.1.weight f4 [8]
000000 4d 3c 7f 3f d3 73 82 3f eb 7d 81 3f 43 d2 82 3f
       0.99701387 1.0191597 1.0116552 1.0220417
000010 82 9b 7e 3f ea 83 7c 3f 86 68 7f 3f 19 1e 80 3f
       0.99456036 0.98638785 0.99768865 1.0009185

module.slow_path.layer1.1.block.0.block.1.bias f4 [8]
000000 35 63 ba 3a 58 5e e2 3b a1 e9 d9 3b 28 5f cf 3c
       0.001422024 0.0069082193 0.006650165 0.025313929
000010 b0 05 c9 bc bd 71 e5 bc a7 c6 d4 3c 61 95 73 3b
       -0.024538845 -0.028008336 0.025973631 0.0037167894

module.slow_path.layer1.1.block.0.block.1.running_mean f4 [8]
000000 31 4d 76 3e 84 d5 42 3e 25 56 a7 3e 18 2d d3 3f
       0.24052884 0.19026762 0.3268291 1.6498137
000010 1d ca 3d be 62 b2 70 be f6 42 d5 3e 24 d4 7c be
       -0.18534131 -0.23505548 0.4165265 -0.246903

module.slow_path.layer1.1.block.0.block.1.running_var f4 [8]
000000 6e 51 1a 3e 55 15 5a 3e d5 5b f5 3d 3f 2c 76 3f
       0.15070125 0.212972 0.11980406 0.96161264
000010 95 92 b7 3e 6a 03 33 3e c7 fb c9 3e 24 16 3d 3e
       0.3585402 0.17481771 0.39449903 0.18465477

module.slow_path.layer1.1.block.1.block.0.weight f4 [8, 1, 1, 3, 3]
000000 ea 84 30 bc dd 9f 23 3c f4 8a 11 3e 60 d8 5f be
       -0.010773877 0.009986845 0.14213163 -0.21859884
000010 92 c0 a4 be 48 62 c5 3d e5 7c 63 be c8 dc 99 3e
       -0.3217817 0.09637886 -0.22215612 0.30051255
000020 c0 45 2a bd 4a a3 69 be 41 0f 9e 3e 38 d1 4f bd
       -0.041570425 -0.22816196 0.30871013 -0.050736636
000030 30 99 ac bc 76 7c 45 3e 66 2d 77 be 70 19 06 3e
       -0.02106914 0.1928576 -0.24138412 0.13095641
000040 63 a0 48 be f9 12 dd ba 39 a5 c6 3c 0d 2e 95 3e
       -0.19592433 -0.0016866616 0.024248706 0.29136696
000050 d7 54 02 3d 78 4f 8c 3e 41 8c eb bd 55 07 4a 3e
       0.03181919 0.2740438 -0.11501361 0.1972936
000060 b9 24 29 be 82 3d 93 3e fd ab 00 be 31 e9 0d be
       -0.16517915 0.28757864 -0.12565608 -0.13858487
000070 ac 3d 66 be 19 8b a7 3e 32 87 ae 3e cf 09 11 be
       -0.22484463 0.3272331 0.3408752 -0.14163898
000080 e6 bd 8e be ea 90 b5 3d 07 01 ae 3e ba ed bd bd
       -0.27879256 0.08865531 0.3398516 -0.09273858
000090 b6 98 db 3b 6a b9 ac be 0d c8 81 be 05 cb 94 be
       0.006701554 -0.3373521 -0.2534794 -0.29061142
0000a0 f6 34 21 3e 98 7f 14 3e 35 8f ea bd 14 f2 c7 3d
       0.15742859 0.14501798 -0.11453096 0.097629696
0000b0 85 28 6a 3d 8b 97 ac be 5a 09 35 3e 58 1e 24 3d
       0.05716755 -0.33709368 0.17679349 0.040068
0000c0 d4 c2 8c 3e 8d 18 5e 3e b5 af 6e 3e 06 d8 d5 bd
       0.27492392 0.21689053 0.23309214 -0.10441594
0000d0 f8 e9 32 3e 3b 77 14 3e 13 e2 9d be 3d 02 f0 bd
       0.17472064 0.14498608 -0.30836543 -0.11719177
0000e0 d9 0e 00 be 67 b9 85 be ec 8f 85 be 8a c5 47 3d
       -0.12505664 -0.26118013 -0.26086366 0.048772372
0000f0 3f 11 a1 bb 2c ef 8f 3d 47 38 20 be 6f dc 98 be
       -0.004915386 0.0702804 -0.15646468 -0.29855677
000100 8c 38 75 bd 07 32 85 3e 98 f6 5d bd 96 43 cf bd
       -0.05986838 0.2601473 -0.05419025 -0.10120313
000110 cf 36 5b 3e 66 51 a7 be ff 8b 55 3e ee bb 83 3e
       0.21407627 -0.3267929 0.20854186 0.25729316

module.slow_path.layer1.1.block.1.block.0.bias f4 [8]
000000 dd 35 8e be 31 61 4b 3e bf 32 3f be 7a 0b 25 be
       -0.2777547 0.19861294 -0.18671702 -0.16117659
000010 a3 f7 3d 3e 28 89 70 3d c9 ee 89 3e eb 75 91 bd
       0.18551497 0.058724552 0.2693999 -0.07102569

module.slow_path.layer1.1.block.1.block.2.weight f4 [8, 8, 1, 1, 1]
000000 06 0b cf 3d 9e e5 c9 bd 70 d5 6a 3e 2d 53 b1 3e
       0.101095244 -0.09858249 0.22932982 0.3463377
000010 f1 cc e3 3d 0c 5c b4 be c4 60 99 3e 77 fd 4a 3e
       0.11123074 -0.35226476 0.2995664 0.19823252
000020 c9 18 4e be c8 c7 f3 3c a7 09 95 3e 47 90 7b be
       -0.20126642 0.029758349 0.29108927 -0.24566756
000030 75 00 5c 3e 85 94 a7 ba 46 e9 4e be c6 d1 18 3e
       0.2148455 -0.0012785351 -0.20206174 0.14923772
000040 a9 fc 48 3e d0 5b ab 3e 65 40 5f 3c 2f 74 a4 be
       0.19627632 0.33468485 0.013626193 -0.3211989
000050 44 08 29 3e cd 38 95 3e c6 16 99 be 22 91 30 3e
       0.1650706 0.29144898 -0.29900187 0.17242864
000060 f8 38 91 3e f1 33 93 3e ea 46 ad 3e 15 2e b0 bd
       0.28363776 0.28750566 0.33843166 -0.086025394
000070 68 af d9 bd 84 ee 4f 3d c6 11 96 be 4f 70 32 bd
       -0.10629159 0.050764576 -0.29310435 -0.043564137
000080 71 28 2d be f5 c5 7a 3e d1 04 af 3e 5b 78 be be
       -0.16909958 0.24489577 0.34183362 -0.372012
000090 2d 11 32 3e a4 4b 87 3e ec b3 1a bb 11 1b 8f 3e
       0.17389365 0.26424897 -0.0023605777 0.27950338
0000a0 ee 06 05 3d 56 30 a0 3d 57 fc a1 3e cd 79 6e 3b
       0.03247731 0.07821719 0.31637833 0.0036388517
0000b0 e1 c2 ea bd fe 40 30 3c 24 00 4c be 67 1d 87 3e
       -0.114629515 0.010757683 -0.19921929 0.2638962
0000c0 b7 0d 26 3e 14 ce 82 be df c1 2d be 5d 0b a8 bd
       0.1621617 -0.2554785 -0.16968487 -0.082052924
0000d0 47 bb 9e 3e da 30 49 bd 2d 4f b6 3e a5 ee 91 bd
       0.31002256 -0.049118854 0.3560728 -0.07125596
0000e0 d5 82 a9 3e e8 ad 83 3e 41 ee 8c 3e cf 48 a6 3e
       0.3310763 0.25718617 0.27525523 0.32477424
0000f0 0c 3d 68 3d a6 5e 3a be c1 47 02 bd 64 51 be bc
       0.056698844 -0.18200168 -0.03180671 -0.02323217

module.slow_path.layer1.1.block.1.block.3.weight f4 [8]
000000 5d e5 83 3f a2 20 7d 3f 8e 23 7f 3f 9f 33 82 3f
       1.0304371 0.9887792 0.9966363 1.0172004
000010 60 bd 7b 3f 40 2e 85 3f 09 45 79 3f 9e c4 72 3f
       0.9833584 1.0404739 0.97370964 0.94831264

module.slow_path.layer1.1.block.1.block.3.bias f4 [8]
000000 23 0c 41 37 ec 06 c8 b8 b2 76 f8 38 10 48 20 b9
       1.1506522e-05 -9.5380325e-05 0.0001184767 -0.00015285634
000010 26 e6 29 b7 f4 45 8f b8 af 68 b1 b8 85 5e c7 b8
       -1.0126771e-05 -6.831801e-05 -8.4595165e-05 -9.506665e-05

module.slow_path.layer1.1.block.1.block.3.running_mean f4 [8]
000000 74 8e 1f 3e ed 15 47 3c 55 e6 61 3d fb 15 5b bd
       0.15581685 0.012151224 0.055151302 -0.05348776
000010 a3 e1 72 3e 13 3a 18 bd 18 f5 31 3e 67 2f aa 3d
       0.23718886 -0.03716476 0.17378652 0.083098225

module.slow_path.layer1.1.block.1.block.3.running_var f4 [8]
000000 b4 37 1d 3d 27 5d 21 3d 59 76 45 3d 68 dc 4e 3d
       0.0383832 0.039395478 0.04820857 0.050503165
000010 20 99 1e 3d 5d 8f 16 3d 12 00 41 3d f4 90 0e 3d
       0.03872025 0.036757816 0.047119208 0.034806207
