epoch.pth (torch_old, 971507 bytes, 614 tensors)

module.slow_path.conv1.0.weight f4 [8, 3, 1, 7, 7]
00000000: 1d4d 51bd d8ff 8c3d 9a83 3e3d 9364 5bbd
00000010: dac7 a13d 16aa 38bc 5191 4d3d 5250 2abd
00000020: 9f78 a43d 9d17 933d 3ce1 d0bb e4a0 77bd
00000030: 1121 593d 7233 40bd 2c3b 1f3c c739 143d
00000040: 036a d33c e12f 3a3d 3fcb 89bd 66b7 40bd
00000050: 0fc1 86bd 0868 67bc 3246 8f3b b6c4 c9bc
00000060: cc9d a43d 9ce1 3a3d a3d1 523d 3c5d 3fbd
00000070: b17a 7dbd 7400 923d 0442 b43d 9abc 95bc
00000080: 2ad7 0bbd bcc5 123d aea3 1ebd a420 8abd
00000090: 43cc 8fbc 12de 5cbd 687d e63c 2a70 803c
000000a0: 14ef 883d c963 93bc 1e57 debc 9c49 953d
000000b0: 7a05 973c 5f9b 14bd 9589 f43c 77c5 54bc
000000c0: d3af 0b3c 0200 c739 d85d 283c ae5e aa3d
000000d0: 978f e13b 4931 a3bd d65f adbd 0a9a 4d3d
000000e0: 9d4b 0e3d 5741 aa3d 42d5 80bd 9aac 2fbc
000000f0: ebbb da3c 06d6 aabc f386 a73d 6113 b73d
00000100: cb6c 3a3d a8b7 cebc fb58 563d d885 4a3d
00000110: 453a 5d3c 1b9d cb3b 2767 ab3b 40c6 0b3d
00000120: e1ee 843d e523 783d 68ed 8dbd 2e92 cabb
00000130: f203 3d3d 65dd 493d edf6 c93d 8ff9 673d
00000140: b4fe 08bd d13f 82bd e4e2 80bc b5db 843d
00000150: 1bd8 c73d 3a8a a13b c440 62bd ad77 823c
00000160: b096 653d a9cd 6c3d b424 803d d492 c23d
00000170: ee45 903d 42b3 913d 2c58 74bd a129 133d
00000180: 8b4a 8d3b 2fcd 21bc ed8b a43c c6af a03d
00000190: 9b5d 49bd 0806 2e3d 5cb2 b93c 407c 2fbd
000001a0: 3a80 10bd e416 633d 9637 2e3d 578c 27bd
000001b0: 1352 e5bc 49a5 273d 934e 66bd 7a6b d93c
000001c0: 64f6 4e3d b533 1d3d fade 62bd 0814 26bd
000001d0: ad85 33bd a406 753d 9d04 d23c 9b98 533d
000001e0: 7c30 19bd dadd e23a 3a53 043d 40df 2fbd
000001f0: e44a 5f3d 53db 893d 176b 5f3d 3e11 043d
00000200: ed3b 263d da30 0abd c569 4a3d e5ee 34bd
00000210: 0440 903d f748 26bd b95e a63d 1adb c63a
00000220: 7925 0abd b8e3 123b 423f 27bd d260 d9bb
00000230: a0bb e6bc 6b21 8dbb e9c1 d73c 94fe 51bd
00000240: 157b 053d 9412 4dbd 17e2 a23a 8938 1f3c
00000250: 6e1e 5fbc 997e 803d de68 813c c32b 16bd
00000260: 3199 503b 9bc0 ddbc 4fb7 5fbd 7e91 43bc
00000270: 6770 a1bc cc6c c43d 1e0a 823d 315c 5b3d
00000280: 5638 bcbc ab7c 433c 7c01 633d 2c68 3cbd
00000290: 3597 103d 1009 56bd 3dbd 103d 4e50 27bd
000002a0: e2cc 5f3d 737d f03c 4c38 a1bc 3ff5 273d
000002b0: 8513 3cbc 25cc 81bc af13 51bd 5da7 a93a
000002c0: 4b3b 5abd dfa8 71bd 196e 123d b1bc c7bc
000002d0: 9e9a 393c 65dd 253d 0a4e 9a3d 3191 873c
000002e0: b601 8e3d 5af1 44bd 71c7 393d 2413 963d
000002f0: 2539 173d d293 903d bfbe 003d 0b0a a0bc
00000300: ea2a 0e3c b15e b73c b634 ce3c 1375 e1bc
00000310: 30ce 163d 113b ac3d 8b27 f83d 1ec2 083e
00000320: 455f d13c acfe adbb 0430 fa3c 504e 933c
00000330: 07aa 503d 8099 023d 0e9f 3f3c 390d 7f3d
00000340: 9baa 0c3d 5b98 1e3c 606f 463d cfd2 c43c
00000350: f234 44bd bd3c 80bd 845d d53c a1ef 783d
00000360: 7969 c9bc c171 573c b4f9 22bc 31e0 803d
00000370: 35e0 c6bd 22d8 9ebd 7a99 ce3c c133 173d
00000380: 0f1e 4ebc fe9c 1b3d 6879 abbc 3d9d 0c3d
00000390: 435f bcbc 2def 38bd a3b0 b4bb dbe4 ad3d
000003a0: be37 b53c 6047 8e3d aea1 a9bd 3547 0fbd
000003b0: 16a4 0ebd c2bb 983d 325b 263d 6224 8f3c
000003c0: b81e 413d cd30 273d 651b 90bd a2a2 963d
000003d0: 5930 c5ba 4958 913d d248 d63c 18d8 1b3d
000003e0: 3334 983c d755 b23d bd3f b13d b21d 7a3d
000003f0: 3762 b6bd 2a60 bbbd 6223 11bc 0a3f aa3d
-0.05109893 0.06884736 0.046512224 -0.053562712 0.07899447 -0.01127102 0.050187413 -0.041580506
0.08030819 0.07182238 -0.0063745063 -0.06045617 0.05301005 -0.046924062 0.0097186975 0.036187913
0.025807386 0.045455817 -0.06728219 -0.047049902 -0.06579792 -0.014123924 0.0043723816 -0.024629932
0.0803791 0.045625314 0.051469456 -0.046719775 -0.061884586 0.07128993 0.08801654 -0.018278409
-0.034140743 0.035833105 -0.038730316 -0.06744507 -0.017553454 -0.05392272 0.02813597 0.015678484
0.066862255 -0.017991917 -0.02714115 0.072894305 0.018435229 -0.036280986 0.02985076 -0.012986532
0.0085258065 0.00037956244 0.01027628 0.0831884 0.0068835723 -0.07968385 -0.08465545 0.05019573
0.03474008 0.08313244 -0.06290676 -0.010722304 0.026700934 -0.020854007 0.081800364 0.08939243
0.04551391 -0.025234058 0.052330952 0.04944405 0.013502662 0.006213797 0.0052308026 0.034124613
0.06490875 0.060581107 -0.06930047 -0.0061819768 0.04614634 0.049283404 0.098615505 0.056634482
-0.03344603 -0.06359828 -0.01573319 0.06487218 0.09758016 0.004929808 -0.055237547 0.015926206
0.05605191 0.05781332 0.062570006 0.095006615 0.07044588 0.07114269 -0.0596544 0.035928372
0.0043118647 -0.00987558 0.020086253 0.07846026 -0.049161535 0.04248622 0.022668056 -0.042843103
-0.035278536 0.055441752 0.04253348 -0.040905323 -0.027993238 0.040929113 -0.056227278 0.026540507
0.050527945 0.03837939 -0.05538843 -0.040546447 -0.043828655 0.059820786 0.025636965 0.051659208
-0.037399754 0.0017308549 0.032305934 -0.042937517 0.05451478 0.06731286 0.05454549 0.032243006
0.040584493 -0.033737995 0.049417276 -0.04417314 0.0704346 -0.04059693 0.08123536 0.0015171499
-0.033727143 0.0022413563 -0.04083181 -0.0066338563 -0.028165638 -0.0043069622 0.02633758 -0.051268175
0.032588083 -0.050066546 0.0012426999 0.009718069 -0.013618095 0.062741466 0.015797075 -0.03666283
0.003182959 -0.02706938 -0.054618176 -0.0119365435 -0.019706918 0.09591064 0.06349586 0.053554717
-0.022976082 0.011931579 0.055421337 -0.045997784 0.035300452 -0.052254736 0.03533672 -0.04084807
0.05463875 0.029356694 -0.019680165 0.04100537 -0.011479263 -0.015844414 -0.051044162 0.0012943555
-0.053279202 -0.05899894 0.03574953 -0.024381967 0.0113283675 0.04049434 0.07534416 0.016548725
0.0693392 -0.048081733 0.045356218 0.073278695 0.03691973 0.070594445 0.03143191 -0.019536039
0.008677224 0.02238402 0.025171619 -0.027521646 0.03681773 0.084097035 0.12116917 0.133553
0.025558123 -0.0053099003 0.030540474 0.017981678 0.0509434 0.03188467 0.011695636 0.06226847
0.03434239 0.009679879 0.04844606 0.024026303 -0.047902055 -0.06261585 0.026045568 0.060775403
-0.024586426 0.01314968 -0.009947229 0.06292761 -0.09710733 -0.07756068 0.025219668 0.03691459
-0.012580409 0.037991516 -0.020931914 0.03432964 -0.022994643 -0.04514997 -0.005514221 0.08490916
0.022121307 0.069472075 -0.08282791 -0.034980018 -0.034824453 0.07457687 0.040614314 0.017473403
0.047148436 0.040818024 -0.07036475 0.073552385 -0.0015044316 0.07096917 0.02615777 0.03804788
0.018579578 0.08707779 0.08654735 0.061063476 -0.08905452 -0.09149201 -0.008858534 0.08312805

module.slow_path.conv1.1.weight f4 [8]
00000000: a05f 843f 423e 7e3f a114 833f 0937 803f
00000010: 918f 7f3f 4d90 813f a1c1 7e3f 35cf 7c3f
1.0341682 0.9931375 1.024067 1.0016795 0.9982844 1.0122162 0.99514204 0.9875367

module.slow_path.conv1.1.bias f4 [8]
00000000: 850d a73c fb21 56bc efc3 1dbc 34d0 92bc
00000010: 6ee4 98bc f3bd 683c 0f55 523c 329e 82bc
0.020392189 -0.013069625 -0.009629234 -0.017921545 -0.018663611 0.014205444 0.012837662 -0.015944574

module.slow_path.conv1.1.running_mean f4 [8]
00000000: eb9a 1e3f ad4a d43e 4185 353f 0bb1 e83c
00000010: 8350 2ebf 9d0c e4be 9f4b fc3e 189a 7a3f
0.61955136 0.41463223 0.70906454 0.028404733 -0.680916 -0.44540873 0.49276444 0.9789138

module.slow_path.conv1.1.running_var f4 [8]
00000000: 0a82 253e 351c 9c3d 3e48 4f3e 47c7 743c
00000010: fecb 353e def4 ab3d e67a de3d 7f08 ca3e
0.16162887 0.076225676 0.20242402 0.01494009 0.17753598 0.08396314 0.10863285 0.39459607

module.slow_path.layer1.0.block.0.block.0.weight f4 [8, 8, 1, 1, 1]
00000000: 648e 5dbd e52c c23e bbaf 7ebe 65de 93be
00000010: de3b 073e ad19 483d 1f63 4e3e 414b a4be
00000020: 2998 283e 94ce 3fbe 116c 38be d1f2 10be
00000030: 6fd4 973e b4c4 7a3d e817 243e 7f80 523a
00000040: a5da 833d 439a 083d 592b 7b3e ac75 84be
00000050: 3c65 0cbd 7ea6 38bc 5d2c 423e 87b7 af3e
00000060: b4fe 893e c4fa 493e 0c1e c23c 73bf 75be
00000070: 0f38 123e 0d2f dabc 07c4 c7bd 2691 98be
00000080: ef9d 883d 0bbf 153e e7f7 20be b772 323d
00000090: a4c3 9e3d 9554 debc 3569 cbbc 22f4 4e3d
000000a0: 041a e63d b2b9 cfbb 4365 d93d d8ed 983e
000000b0: ef55 983e b824 843e 617c b33e a5e8 263e
000000c0: 8c84 003d 3901 8cbe 3230 913d 53bd acbe
000000d0: 5eef 9c3e 05b1 fe3d 4c4c 02be a9af a13e
000000e0: 6486 95bc 502a 83be a672 85be 952e b63d
000000f0: e6e2 993e 13a0 843d 5c20 cdbd 0d7a ae3e
-0.054090872 0.37924877 -0.24871723 -0.2888061 0.13206431 0.04885261 0.20154999 -0.32088664
0.16464294 -0.18731147 -0.18009974 -0.14155127 0.2965426 0.061222747 0.16024745 0.00080300117
0.064381875 0.03335024 0.24528255 -0.25871027 -0.034276232 -0.011270164 0.18962236 0.34319708
0.26952136 0.19724566 0.023695968 -0.23998813 0.14279197 -0.026633764 -0.09754186 -0.2979824
0.066707484 0.14623658 -0.15719567 0.04356643 0.07752159 -0.027139941 -0.02483044 0.050525792
0.11235431 -0.0063392753 0.10615017 0.2986896 0.29753062 0.25809264 0.3505583 0.16299684
0.031376407 -0.27344683 0.07089271 -0.33738193 0.30651373 0.124361075 -0.12724417 0.3157933
-0.018252559 -0.2561822 -0.26064032 0.088956036 0.30055922 0.06475844 -0.10015938 0.34077492

module.slow_path.layer1.0.block.0.block.1.weight f4 [8]
00000000: 91ce 7a3f 555f 833f 17b5 773f b078 783f
00000010: 791c 803f 3a73 7a3f 0861 843f cc36 803f
0.97971445 1.0263468 0.96760696 0.97059155 1.0008689 0.9783207 1.0342112 1.0016723

module.slow_path.layer1.0.block.0.block.1.bias f4 [8]
00000000: b84e 663c 6704 a4bc b875 12bd 1ebd 043d
00000010: d38e 3e3c 0ef6 0dbd 200a aa3c 5e2f 223a
0.014056854 -0.02002163 -0.035756797 0.03240692 0.011630732 -0.034658484 0.020756781 0.0006186868

module.slow_path.layer1.0.block.0.block.1.running_mean f4 [8]
00000000: feab 21bd 023f 5cbc 44fb d73d b945 223e
00000010: d96d 523e efd0 2b3f ab3d 5ebe dbba a6bc
-0.039470665 -0.013442757 0.10545972 0.1584691 0.20549716 0.6711568 -0.21703212 -0.020352772

module.slow_path.layer1.0.block.0.block.1.running_var f4 [8]
00000000: 001c e63d 391b 2b3d dfe4 f43e 33ad 173e
00000010: bdd5 c33c 84d1 a83e f1d5 b43d eb09 a43d
0.11235809 0.04177401 0.47830865 0.14812164 0.02390563 0.32972348 0.088298686 0.08009704

module.slow_path.layer1.0.block.1.block.0.weight f4 [8, 1, 1, 3, 3]
00000000: c2fa 713d 5ec4 c2bc 2c73 83be 95e3 0e3e
00000010: f074 33be 9ca0 92bd b07b 8a3e b49d 15bd
00000020: 6a48 57be d8f3 2ebd a516 6d3d 8836 5fbc
00000030: 6459 65be f934 52bd 2393 a53e 3f10 933e
00000040: de85 5abd 5830 73be 3a09 1cbe 8489 8fbe
00000050: e6b8 3ebe 9585 3bbe 7cb9 a23e 68bd d43d
00000060: d051 6b3e 4e3f 983c c7fb 3f3e 7d9a 6fbd
00000070: 9155 513e 80eb b7bd af30 653e b976 44be
00000080: f7d5 803e dae2 ff3d 267f 21be 8ffa 8fbe
00000090: a51e 93be 19f0 85bd b1c2 49be 052e 8b3d
000000a0: 1215 d9bd c86b 2abd ae15 ca3d 4382 8fbe
000000b0: dd7c 263e 562a 9f3d 23c9 79bd cef3 66bd
000000c0: 3967 483e c45b 81be cf0b 183e 0fb1 fe3c
000000d0: 9afe 073e c003 c1bd aa1a abbe 25f6 3d3d
000000e0: f224 983d 4bea dbbd 25c1 1d3c 8718 063c
000000f0: f983 7ebd 6a64 543d 23c4 a6bd 58c3 c53b
00000100: 296a 4dbe e53d 61be 6dd9 9a3e 4d59 16be
00000110: fc63 f83d 6cf5 2abe 6238 333e 9d08 443c
0.059077032 -0.023775276 -0.25673807 0.13954003 -0.17525077 -0.0715954 0.2704749 -0.03652735
-0.21023718 -0.042713016 0.057882924 -0.013623841 -0.22397381 -0.05132005 0.3233882 0.28723332
-0.053350322 -0.2374891 -0.15237895 -0.28034604 -0.1862522 -0.18312676 0.31782138 0.10387689
0.22980428 0.018584874 0.18748389 -0.05849694 0.20442797 -0.08980465 0.22381853 -0.19185914
0.25163242 0.124944404 -0.1577116 -0.2812085 -0.28734317 -0.065399356 -0.19703175 0.06795887
-0.10599722 -0.041606694 0.09867416 -0.2802907 0.16258569 0.07771747 -0.060982835 -0.056384854
0.19570626 -0.25265324 0.14848255 0.031090287 0.13280717 -0.094245434 -0.3341878 0.04637732
0.07428922 -0.10738047 0.009628569 0.008184559 -0.062137578 0.051853575 -0.08142879 0.0060352497
-0.20060028 -0.21996267 0.30244008 -0.14682503 0.121284455 -0.16695184 0.17501977 0.011964944

module.slow_path.layer1.0.block.1.block.0.bias f4 [8]
00000000: 780b a93b b25d 493d 780e a73e 1cd3 d0bd
00000010: 6c45 8fbe 8eb2 243d c68e 113e 8fd3 7e3e
0.005158838 0.04916162 0.32628226 -0.10196516 -0.27982652 0.040209346 0.1421462 0.2488539

module.slow_path.layer1.0.block.1.block.2.weight f4 [8, 8, 1, 1, 1]
00000000: dd79 f9bd 9fc2 833b 4dc2 4a3e 21a2 b4bc
00000010: 8103 73be 906e 4a3e da79 503e cebc c93c
00000020: bfb6 a4be decb 8d3e ab2f 56be fc08 313e
00000030: a1c6 6bbe 143f 26be e856 ad3e 794c 1a3e
00000040: 971c b0bd d1d7 a4bd f905 25be 69e4 4c3e
00000050: 988a 30be 94e1 6fbe d697 31be 9989 853c
00000060: 6e51 af3d 9b41 333e b3e9 28be b984 91bc
00000070: 1808 52be a75a cd3d 50a2 e73d 31de 45be
00000080: 07e9 c33c 383b b3be 1d47 ccbd f8fe 263e
00000090: c9c8 853d 7be3 94be f186 88be c534 d83d
000000a0: 93ac 1dbd a030 5abe 5e57 4dbc fd26 473e
000000b0: 3908 aabe 55ee 0b3c 138d 873e 5485 ae3e
000000c0: ab14 803e 7f46 a8bd b494 74be 47e2 633e
000000d0: 5fb2 8f3e 6439 9cbe e712 89be fa42 4a3e
000000e0: 1733 10bd 42c5 1a3e 4c37 ad3e 5204 193e
000000f0: a9ff 94bc cf02 7cbe 9976 b5be e2f8 bdbc
-0.12181447 0.0040210034 0.19800682 -0.022049965 -0.23731805 0.19768739 0.20358983 0.024626162
-0.32170674 0.276946 -0.20916621 0.17288584 -0.2302499 -0.16235 0.33855367 0.15068235
-0.08599203 -0.08048976 -0.1611556 0.20009007 -0.1724037 -0.23425895 -0.17343077 0.016300963
0.08560453 0.17505495 -0.16495399 -0.017763482 -0.205109 0.10027056 0.113102555 -0.1932304
0.023914827 -0.35006118 -0.09974501 0.163082 0.06532437 -0.29079804 -0.26665452 0.1055694
-0.038494658 -0.21307611 -0.012533037 0.19448467 -0.33209398 0.0085407095 0.2647482 0.34086096
0.25015768 -0.08216571 -0.2388485 0.22254287 0.28065774 -0.30512536 -0.26772234 0.19752112
-0.035204973 0.1511431 0.3383125 0.14943054 -0.018188315 -0.24610446 -0.35442045 -0.023189966

module.slow_path.layer1.0.block.1.block.3.weight f4 [8]
00000000: dbfb 7a3f 5c2b 833f 2485 7e3f 3d56 823f
00000010: 6a25 803f 521a 7d3f a2cf 7d3f fec7 7f3f
0.9804055 1.0247607 0.99421906 1.0182568 1.0011418 0.98868287 0.9914495 0.9991454

module.slow_path.layer1.0.block.1.block.3.bias f4 [8]
00000000: bea7 1aba 0a12 54ba a5d7 d2b8 b84d 1c39
00000010: f804 d33a f8c9 873a 2260 c9ba f4e5 85ba
-0.00058996293 -0.0008089846 -0.00010053747 0.00014906272 0.0016099503 0.0010359874 -0.0015363733 -0.0010215626

module.slow_path.layer1.0.block.1.block.3.running_mean f4 [8]
00000000: c137 a23d 27c8 b1bc ad70 12be 05e4 a8bd
00000010: f975 bdbd 4f21 9f3d 7df3 0abd b536 b53c
0.079207905 -0.021701885 -0.14300795 -0.08246616 -0.09251017 0.07770025 -0.033923615 0.022120813

module.slow_path.layer1.0.block.1.block.3.running_var f4 [8]
00000000: 05da 943c 9bbc d03c 890e 2f3c a709 313c
00000010: 9585 9a3c 51e2 b53c 6d63 113d d55b bf3c
0.018170366 0.02548056 0.010684618 0.010805524 0.018862525 0.022202643 0.03549521 0.023359219

module.slow_path.layer1.0.block.2.block.0.weight f4 [32, 8, 1, 1, 1]
00000000: 4573 85be 6adb 80be 157f ffbc e9e8 3c3e
00000010: 8cc9 46be c26c 803d 99f3 78be 1b39 8abe
00000020: 54f8 6bbd 06d1 983c 6b5b 9f3e f8dc 2d3e
00000030: 2e12 0a3d 88a8 37be 9c82 2d3e a15f ad3e
00000040: c7e7 9a3e 7fdc 1b3e efbc cc3d 8bd2 3abc
00000050: 9682 60be 7554 8ebd 0f14 5e3e 2efe 073d
00000060: 94a0 95be 3284 b7be 752b b6be ed0f b23e
00000070: 8a64 3bbe 0c84 b23d 5f00 16be 322c 0c3e
00000080: e54a 153e 42f4 983d 6fb8 753e 1e00 873e
00000090: 01c6 a93e 13ef 943e 47f8 683e efa9 2abd
000000a0: a3aa bebe e229 0e3e 875a 9538 a944 f0bd
000000b0: 93a6 9dbd dc2f 56be 9a23 8a3e 2e3a 8a3e
000000c0: c1b9 88be 4adb 6b3e 3d4a 9bbe 9347 373e
000000d0: 08ab 003e acb1 a33e c037 79be 39e9 b13e
000000e0: ebe3 adbe b646 a2be 7c1c 463e 0a5c a33e
000000f0: 2d31 293e ba85 f1bd 6158 9bbc 71eb 22bd
00000100: ee8e 96be cbbb 883d 29e4 ff3d b82e 923e
00000110: c310 a0be b6ee 8cbe b2b9 193e 89e5 2fbd
00000120: d27f 453e 655c b73e ae10 a6be d1ca 87be
00000130: ae26 aabe a856 813e 8580 0d3d c91c 88bd
00000140: ff27 3ebe aa71 abba 290b 7e3e b91e f63d
00000150: 7d3d 613e 5b70 713d 22a6 00be 8cdd 98bd
00000160: 5e90 88be 4f3e 8c3e b19c 963d 9720 4f3e
00000170: 0568 4f3e ff09 223d 90a7 3d3c a713 6bbe
00000180: f9cc 8bbe 9001 85be b688 853e 6929 933e
00000190: f3c9 1fbe 9649 383e 8301 4ebe ca0a ec3b
000001a0: d8ee 7bbe c9d8 f5bc b9e4 053e 14fd fcbd
000001b0: db54 3bbe 6672 f13d e140 763e e44c 7d3e
000001c0: a374 273e ba3a 93be 57b3 993e 2b28 d93c
000001d0: b409 493e a9a4 e73d 89ac 00be 8c87 43be
000001e0: fb84 3ebd 7359 be3e 36b4 ce3d a247 9c3e
000001f0: a704 11be 9e28 7cbe dd19 a23e ed76 a13e
00000200: 2860 903e aba0 aa3e 0965 d7bd 8738 e6bd
00000210: c107 cdbc 3102 82be 33c3 263d 9ea9 43be
00000220: e430 963e c9d5 58be b8b1 a2bd 9559 1a3e
00000230: df42 173e b9f9 e53a f75d a6be 6fa9 dabd
00000240: fa77 873e f62e 04bb 40da 56be aab2 9f3c
00000250: 0c7a 3d3e 39a2 f5bd 74a1 4cbe 5f22 90be
00000260: 307e 0abd 9164 713e 45d2 c5bd c2b8 923d
00000270: c297 0dbe a351 0ebc c0cc 803d 7ab0 43bd
00000280: 6a74 a03e f04f 96be 9ace b33d b05c ecbd
00000290: ff89 a43e 90d9 4ebe ed18 1c3e babb 03bd
000002a0: 28af 9ebe ac6f 043e 6387 083d 8b51 563e
000002b0: c3ad 813e ef07 43be 8db2 f7bb 00e8 de3d
000002c0: b91c 4d3e 6ca8 eabd 59df 80bd 39c9 28be
000002d0: ebe1 d43d ec21 9a3e 25e5 21be 5527 9fbe
000002e0: 0611 5abe 4bdf f9bc 3752 63be 255d 9c3e
000002f0: c616 ed3d c20c a03d e9c3 29bd f2ea a3be
00000300: bbbf 11be 42ca 333e 8449 a8be ab89 763e
00000310: 0815 85be 923e 9bbc f8d8 3bbe b8a9 843e
00000320: f5ff 2f3e 2059 d43d c5f9 43be fb4c 733c
00000330: 34a2 71be 9bba 8dbe 1f7c 983d bcfd 82be
00000340: edad 073e cf2e e2bd 735f bbbe 031c 8dbe
00000350: 5196 e8bc dd6d 123e 8f86 53be facb 03be
00000360: 6247 073e 3819 563e 1ad4 8a3e c9d3 553e
00000370: ba87 27be 1cff 8abe 4c93 cd3d 308d 0dbe
00000380: c03d 383e 54e5 9a3d 0abe ad3d ccbe 14bd
00000390: 5a39 643e 58b1 45be ea6d 903e 39db 893e
000003a0: 8307 adbc 88c5 603e e887 86be 9dfe c63d
000003b0: ebc2 b8be ddc7 90be 02ba 3abe c2e5 d8bc
000003c0: 9643 073e ec0d 143e 3e5c 6dbe 7e35 9f3c
000003d0: 8b85 e1bc 65d0 b83e 17cb 323e f838 fabc
000003e0: 997d b13d 0af8 b1bc ceac 8c3e 8625 adbe
000003f0: 1e45 a8be 8d0f afbd 1d37 a4be 7884 abbe
-0.26064506 -0.251674 -0.031188527 0.18448223 -0.19412822 0.06270744 -0.24311675 -0.26996693
-0.05760987 0.018654358 0.31124434 0.16978824 0.033708744 -0.17935383 0.16944355 0.33862022
0.30254957 0.15220831 0.09996974 -0.011402736 -0.21924815 -0.06949703 0.21687339 0.03320139
-0.29224074 -0.35843045 -0.3558003 0.34777775 -0.18300071 0.08716592 -0.14648579 0.13688734
0.14579351 0.074684635 0.23996137 0.26367277 0.33158877 0.2908865 0.2275096 -0.041665968
-0.3723956 0.13883165 7.121736e-05 -0.11731846 -0.07697787 -0.20916694 0.26980287 0.26997513
-0.2670422 0.23032871 -0.30330077 0.17898397 0.12565243 0.3197149 -0.24337673 0.34748247
-0.3396295 -0.31694573 0.19346803 0.31906158 0.16522665 -0.117930844 -0.01896304 -0.039775316
-0.29405922 0.06676444 0.1249469 0.2855127 -0.31262788 -0.27525872 0.15012243 -0.04294351
0.19287041 0.3581268 -0.324346 -0.26521924 -0.33232635 0.25261426 0.034546394 -0.06646115
-0.18569945 -0.0013080139 0.24808945 0.12017579 0.21996112 0.05894504 -0.12563375 -0.07464132
-0.26672643 0.27391288 0.07354105 0.20227276 0.20254524 0.039560314 0.011575595 -0.22956716
-0.2730482 -0.25977755 0.26080865 0.2874253 -0.15604381 0.17996821 -0.20117764 0.0072034346
-0.2460283 -0.030010598 0.13075532 -0.12352958 -0.18294089 0.11789398 0.24048187 0.24736363
0.16353087 -0.28755742 0.30019638 0.026508411 0.19632608 0.11310703 -0.12565817 -0.19094676
-0.04651354 0.3717762 0.10092966 0.30523401 -0.14161931 -0.24624869 0.31660357 0.31536046
0.2819836 0.33325705 -0.10517318 -0.112412505 -0.025028111 -0.25392297 0.0407135 -0.19107673
0.29334176 -0.21175303 -0.079440534 0.15073235 0.14771603 0.0017545737 -0.32493564 -0.10676848
0.26458722 -0.0020169592 -0.20981693 0.019494373 0.18503588 -0.11993832 -0.19983464 -0.28151223
-0.033811748 0.2357352 -0.09659246 0.07164146 -0.13827422 -0.008686456 0.06289053 -0.047775723
0.31338817 -0.29357862 0.087796405 -0.11541116 0.32136533 -0.20200181 0.15243883 -0.032161452
-0.3099301 0.12933224 0.03333224 0.20929544 0.25327882 -0.19045995 -0.0075591267 0.10884094
0.20030488 -0.11457905 -0.062926 -0.1648301 0.10394653 0.30104005 -0.15810068 -0.31084695
-0.21295556 -0.030501982 -0.22199331 0.30539814 0.11576609 0.07814933 -0.0414466 -0.32015187
-0.14233296 0.17557624 -0.32868588 0.24075954 -0.25992608 -0.018950734 -0.18344486 0.25910735
0.17187484 0.10368562 -0.19138248 0.014849897 -0.23597032 -0.2768143 0.07445549 -0.2558421
0.13249941 -0.11044084 -0.3659626 -0.27560434 -0.028391989 0.14299722 -0.20656799 -0.1287078
0.13210824 0.20908058 0.27114946 0.20881571 -0.1636037 -0.27147758 0.1003786 -0.1382339
0.17992306 0.07563272 0.08483513 -0.03631477 0.22287503 -0.19305933 0.28208858 0.26925066
-0.021121746 0.21950352 -0.26275563 0.097165324 -0.3608621 -0.28277484 -0.18235019 -0.026476745
0.13209376 0.14458436 -0.23179719 0.019434687 -0.027529499 0.36096492 0.17460285 -0.030544743
0.08666534 -0.02172472 0.2747559 -0.3381769 -0.32865232 -0.08547888 -0.32073298 -0.33499503

module.slow_path.layer1.0.block.2.block.1.weight f4 [32]
00000000: 812c 813f 17c1 763f 0899 7d3f 40e2 7c3f
00000010: 62a2 7c3f 7132 833f c79b 773f a0e6 7b3f
00000020: 4f55 843f cb05 813f ba40 813f 0705 863f
00000030: bbdb 7b3f 5e8e 793f 39e3 793f 6ac1 843f
00000040: 546e 783f 7195 803f dcbc 7d3f 3ccd 7a3f
00000050: 8502 823f ecd0 803f 9e50 823f 01cc 843f
00000060: c8c8 793f d25c 7f3f b440 7b3f 52b7 813f
00000070: 9313 803f 5b5f 7f3f bc78 7a3f 6e7e 803f
1.0091707 0.9638838 0.9906163 0.9878273 0.98685277 1.0249768 0.9672207 0.9839878
1.0338534 1.0079893 1.0097878 1.0470284 0.9838216 0.9748286 0.9761234 1.0371525
0.9704335 1.0045606 0.991163 0.9796941 1.0157019 1.0063758 1.0180852 1.0374757
0.9757199 0.9975101 0.98145604 1.013407 1.0005974 0.99754876 0.97840476 1.0038583

module.slow_path.layer1.0.block.2.block.1.bias f4 [32]
00000000: 2d06 81bc 69ca 37bc 66ee 3dbc e09f 49bc
00000010: 40f2 2ebd d095 fb3b b4b9 45bc 994a 83ba
00000020: 8520 953c 028a 65bb b4a2 7f3c 046a 9bbc
00000030: 0f2d 01b9 4f8e 62bc 692e 8fbb 33ae 843c
00000040: fd5d 28bc 29aa 88bc d2b2 55bc 832c 68bc
00000050: 8ea2 913c 67df a53b 0ea8 7e3c 025e baba
00000060: 3fc5 debc 6c3b cabb 44d9 d2bb a929 663b
00000070: d3bf 613c 2c63 51ba 6361 99bc 81ed df3b
-0.015750015 -0.011217692 -0.011592483 -0.012306184 -0.042711496 0.007677771 -0.012068201 -0.0010016739
0.018203983 -0.0035024886 0.015602756 -0.01897145 -0.00012319184 -0.013827874 -0.004369546 0.016196346
-0.010276315 -0.016682701 -0.013043122 -0.014170769 0.017777707 0.005062032 0.015542997 -0.001421869
-0.027193664 -0.0061716344 -0.0064345915 0.0035120046 0.013778645 -0.0007987495 -0.018723195 0.0068337326

module.slow_path.layer1.0.block.2.block.1.running_mean f4 [32]
00000000: 65bb 6839 1f2e 3a36 6658 adb9 685e d939
00000010: f937 a638 dac4 88b8 7fe3 443a f59e 4e39
00000020: e78d c3b7 29e7 d5b8 2e01 8139 256c 8539
00000030: 26b6 c039 62ad 4ab8 9988 5ab8 fc22 8436
00000040: 8c4d 9cb9 9a1e 0539 fa7b 5ab8 2823 f437
00000050: cc01 dbb9 facb 9339 41fb 1cb8 8c93 8239
00000060: ca86 dd39 0494 abb9 e3d7 e4b7 be42 51b9
00000070: a3f1 7cb9 0c1e 8e38 5027 fc37 39b1 7bb9
0.00022195054 2.7743006e-06 -0.00033062993 0.00041459803 7.9259225e-05 -6.521652e-05 0.0007510706 0.00019704907
-2.331189e-05 -0.000101996884 0.00024605676 0.0002544831 0.00036756805 -4.832203e-05 -5.2102467e-05 3.9379793e-06
-0.00029812416 0.00012695268 -5.2090712e-05 2.9103438e-05 -0.00041772274 0.0002819 -3.7427297e-05 0.00024905463
0.0004225283 -0.00032725942 -2.7280248e-05 -0.00019956657 -0.0002412261 6.776684e-05 3.0059047e-05 -0.00024003246

module.slow_path.layer1.0.block.2.block.1.running_var f4 [32]
00000000: da10 493e 25ea 1d3f 9001 b23d fd5a 603e
00000010: 1519 8b3e f443 4b3f d9a9 0d3e 466a 053f
00000020: bc3b 003e 8534 8f3f b122 1c3e 9893 5c3e
00000030: aa27 ef3d b61c 9b3e 613c 783d fa7c 503e
00000040: db8b 5e3e 56a3 913e 354f 893e 5bb5 203e
00000050: 0b03 f63e 3989 b13e a933 b63e b10f 813e
00000060: 7cd7 c53e e44e 993e 9f96 e53e 0be3 503e
00000070: 193e 003f 96ec 053f b8c4 c93e 7400 703e
0.19635335 0.616854 0.08691704 0.2190971 0.27167574 0.79400563 0.13834323 0.52115285
0.12522787 1.1187903 0.15247609 0.21540678 0.11677487 0.30295342 0.060604457 0.20360175
0.21733038 0.28444928 0.26818243 0.15694182 0.48049197 0.34675005 0.3558629 0.25207284
0.38640964 0.29943 0.44841477 0.2039911 0.50094754 0.52314126 0.39407897 0.23437673

module.slow_path.layer1.0.downsample.block.0.weight f4 [32, 8, 1, 1, 1]
00000000: 4e03 ae3c b8f1 923e 62a1 5abe f3b1 d13d
00000010: 917c 7fbe 2a5b afbe a419 093e 2de0 9f3c
00000020: a13a 6c3c 432a 8fbe 18ab 9abe ee9c a0be
00000030: 71ec 92be 84bc 06be 2615 a9ba 860b aa3e
00000040: 17d8 3a3d 1e73 23be 4781 24bd 535f a03e
00000050: a3fe 4e3e df69 983d af26 52be 2d63 adbe
00000060: 81b1 7bbd 9e95 6fbe 6e08 5bbd 61e1 3f3e
00000070: eb5c a93e 8261 8dbc 9340 96be 0694 903e
00000080: a5e8 36bd 88ee a3bd 85f1 53be 3d8e 2fbe
00000090: 22af 62be 5716 8ebd a713 4bbe 7c2c 183e
000000a0: 1335 86bd fd0a a83e bb84 9cbe b496 aa3e
000000b0: 688a 24bc db20 0cbe 0959 94be daea 7b3e
000000c0: 189d a53e b463 483e e531 513e 6398 0abe
000000d0: 97fd 95bd d047 7f3c c126 b9bc 2297 84be
000000e0: 9537 4b3e dbce 9d3d 4dbe 97be ded8 50be
000000f0: 8c17 7abe ff08 603e c480 47be 2222 85be
00000100: 3a34 59bd 9023 b2be 5a33 e7bd 0020 803e
00000110: 9601 edbd 6b06 9fbe b8bc 593e 8262 c53b
00000120: 55df 2bbd 96f9 43bd 30a1 c1bd 12c2 4cbe
00000130: 126f 7bbe 3d5d 84bd c1c5 30be e071 90be
00000140: ebff 01be 1f1b 553e d022 d73d 4544 c4bd
00000150: 5ac1 333e 5b2b a4bd 48dd fa3d 57bf 383e
00000160: bda9 82bd dcc5 aa3e e809 b7be c330 a7be
00000170: a389 ffbd 8415 8abc 4793 943e 48b7 d43a
00000180: bc0a 903e c237 d3bd e99c 07be 9437 823e
00000190: a7e6 d9bc 2ec9 9cbe d2d8 883d 93be d63c
000001a0: f772 093e 5ba7 94be ad1c b7be 3ca6 f9bd
000001b0: 2910 873d b504 c4bc cb91 083e 1d61 08be
000001c0: 5d73 5fbe 0c14 8fbd ce0e 6cbe 82a4 aebe
000001d0: 8f67 893e d53c 6e3d 3700 87be a1fe 4b3e
000001e0: b87b 92be 32b4 ca3d e35b 9cbb 6148 143d
000001f0: 2d6e 22be 6883 383e 812d b7bd 32e2 a3bc
00000200: 7da9 a33d 3cab 51be ada9 ad3e fb71 263d
00000210: 2c21 1b3d d0cd af3e 950e 443e 3f92 8e3e
00000220: 0f26 823d 26a0 3a3e 12eb acbe 0351 873e
00000230: 9c1e 543e 0e98 883e 32b3 34be 49f2 9c3d
00000240: 4cad a83d ba7f 58be e11b 35be 1f4d 453d
00000250: 666b b2be df52 8e3e 9add 75be aa2d 8f3e
00000260: 261d 06be b278 7cbd 9a37 09be 0031 923d
00000270: f5c8 633e 1389 4b3e b3fb ab3e e708 023e
00000280: 235d e7bd 1259 93be db54 9cbe a14e a4bd
00000290: 6112 95be c977 aa3e eaeb 6a3e be0e 55bc
000002a0: c2b4 23be c8a0 9cbb a340 7bbe 364a 933e
000002b0: ba0e a33d 9e7b 84be f10d 88be 2c53 a7bd
000002c0: f0f4 1bbe 94d9 573e cbcc b83e 2339 543d
000002d0: 5427 903e 7e33 5b3e 384b a4be 90bc 77be
000002e0: 8ad3 11be 0b2b a8be ad3f e5bd bb8f 8a3d
000002f0: 1965 c9bd c7be adbe 4ef3 563d 60df 893d
00000300: 3276 29be c50c 54be e8e4 b63e 2843 843e
00000310: 030d a7bd 0c68 d4bd ac64 aebe 68b6 77be
00000320: 2130 183e aacb b33d 7b22 2c3e f24a 72bd
00000330: c49e 5fbe 6c79 01be a7b9 45be d1e6 8cbd
00000340: 6f38 e4bd b49e a13e 5c4d 8dbe a7f1 133e
00000350: b2aa 333e 5e47 753e 81e3 9dbe 71f0 6d3e
00000360: 0099 e7bc ab54 283d 801c 8b3d 408c 333e
00000370: 2962 f2bd a564 bd3e 2cf8 533e 9b75 59be
00000380: 5fad 4ebc 5e41 973d 9e28 433c c43c 9cbd
00000390: 4f37 fd3d c03d 913e eefb b43e d254 1a3d
000003a0: a192 5dbe 0a0d 583e 9b2e fbbd df30 8e3c
000003b0: 865e 9bbe 40a1 adbd 0bff 2dbe 2fb2 9f3e
000003c0: f439 4d3e fe6a aabe 837c 1fbd 1d55 183e
000003d0: f65d 973e 0b79 d8bd 9da0 873e 467e 68be
000003e0: 570d 793b 28cd 0cbd db37 5b3e 0d71 13be
000003f0: 2b93 8b3e 31c7 c1bc 559f 62be b04f a33e
0.02124181 0.28700042 -0.21350625 0.10239019 -0.24949862 -0.3424924 0.13388687 0.019516075
0.014418275 -0.2796193 -0.3020866 -0.31369728 -0.28696015 -0.1315785 -0.001289998 0.33211917
0.045616236 -0.15961882 -0.04016235 0.31322727 0.20214324 0.07442068 -0.20522569 -0.33864728
-0.061448578 -0.23396918 -0.053474836 0.18738319 0.33078703 -0.01725841 -0.2934614 0.28237933
-0.04465546 -0.080044806 -0.20697601 -0.17144103 -0.2213712 -0.06937855 -0.19831716 0.1486072
-0.06553092 0.32820883 -0.30570015 0.33318102 -0.010042764 -0.13684408 -0.28974178 0.24601308
0.32346416 0.19569284 0.2042919 -0.13534693 -0.07323759 0.015581086 -0.022601487 -0.25896555
0.19845422 0.0770547 -0.29637375 -0.20395228 -0.24423045 0.21878432 -0.19482714 -0.26002604
-0.053028323 -0.34792757 -0.112890914 0.25024414 -0.11572568 -0.31059584 0.21263397 0.006023706
-0.041961033 -0.047845446 -0.09454572 -0.19995907 -0.24554089 -0.06463096 -0.17262937 -0.2821188
-0.12695281 0.20811127 0.10504687 -0.09583334 0.17554227 -0.08016082 0.12249237 0.1804174
-0.06380031 0.3335408 -0.35749745 -0.3265439 -0.12477424 -0.016855963 0.29018614 0.0016228938
0.2813319 -0.10313369 -0.1324345 0.25433028 -0.026599241 -0.30622238 0.0668198 0.02621392
0.13422762 -0.29033932 -0.35764065 -0.1218991 0.06594879 -0.023928026 0.13336866 -0.13318296
-0.21821351 -0.069862455 -0.23052523 -0.34109885 0.2683682 0.058163483 -0.2636735 0.19921352
-0.28610015 0.09897651 -0.004771696 0.03620184 -0.15862341 0.18018878 -0.08944226 -0.02000532
0.07991312 -0.20475477 0.33918515 0.040636044 0.037873432 0.3433671 0.19146188 0.27845952
0.06354915 0.18225154 -0.33773094 0.26428995 0.20714802 0.2667851 -0.17646483 0.076634
0.08236179 -0.21142474 -0.17686416 0.04816925 -0.34847564 0.277976 -0.24010316 0.27964526
-0.13097057 -0.06163854 -0.13400117 0.07138252 0.22244628 0.19876508 0.3359047 0.12698708
-0.11297061 -0.28778893 -0.3053349 -0.0802281 -0.29115584 0.33294514 0.22941557 -0.013004003
-0.15986922 -0.004779909 -0.24536376 0.28767556 0.07961793 -0.25875562 -0.26573136 -0.08170161
-0.15230155 0.21079093 0.36093745 0.051812302 0.28155005 0.21406361 -0.32088637 -0.24193025
-0.14240852 -0.3284534 -0.11193786 0.06765696 -0.09833736 -0.33934614 0.052478127 0.067320585
-0.16548994 -0.20707996 0.35721517 0.25832486 -0.08156779 -0.10371408 -0.34061182 -0.24190676
0.1486211 0.0877908 0.16810028 -0.059153505 -0.21837908 -0.12643975 -0.19309102 -0.06879962
-0.11143576 0.31566393 -0.27598083 0.14447652 0.17545584 0.23953006 -0.30837634 0.23236252
-0.028271198 0.04109637 0.06792545 0.1753397 -0.11835129 0.36990848 0.20700139 -0.21236269
-0.012614577 0.07385515 0.011911539 -0.076287776 0.12364065 0.28367424 0.35348457 0.037678547
-0.21637966 0.21098724 -0.12264749 0.017357288 -0.30345553 -0.084780216 -0.16991822 0.3119063
0.20041639 -0.33284754 -0.038937103 0.14876218 0.29563874 -0.10569962 0.26489726 -0.2270442
0.0038002336 -0.03437534 0.21408026 -0.14398594 0.27260718 -0.023654552 -0.22131093 0.31896734

module.slow_path.layer1.0.downsample.block.1.weight f4 [32]
00000000: 5b1f 813f 9cdc 7e3f 57a7 7e3f 599e 803f
00000010: 991a 803f aa6a 7a3f eedf 7e3f 003e 823f
00000020: 9f4a 843f 2287 7f3f bcea 813f 1189 7e3f
00000030: 433d 7c3f a1c3 813f d57b 803f f1dc 7e3f
00000040: 034e 823f 69a0 7f3f 208e 823f 3b10 7b3f
00000050: 5b8e 7e3f 8427 7e3f 07ea 813f aa4a 823f
00000060: 66d0 7c3f b71e 7e3f f677 803f 0527 803f
00000070: be03 823f 01f7 7d3f 8d5d 7a3f cf93 813f
1.0087694 0.99555373 0.9947409 1.0048324 1.0008117 0.97819006 0.9956044 1.0175171
1.0335273 0.9981557 1.014976 0.99427897 0.9853098 1.0137826 1.003779 0.9955588
1.0180057 0.9985414 1.0199623 0.9807164 0.9943597 0.99279046 1.0149544 1.0179036
0.9875549 0.9926562 1.0036609 1.0011908 1.0157392 0.99205023 0.97799 1.0123233

module.slow_path.layer1.0.downsample.block.1.bias f4 [32]
00000000: 278b 3bbb 8e72 7a3b b9a5 8c3c 102e e1bb
00000010: e42c d6b9 0a77 13bd 93ed 193b 923f 953c
00000020: 49ef cf3c 358b c83b 238b f83b 3f30 d63a
00000030: 7469 10bc 6cae cc3c e318 4a3c 5254 003c
00000040: eed3 1a3c c64c 743b b99d 613c c1fb d6bc
00000050: c2ca 02bc 32f2 6ebc 6390 9a3c c8b4 8a3c
00000060: 8a49 c8bc 77b1 60bb ec9b 0cbc 2e89 f0ba
00000070: 4589 d13c 3499 f2bc 1105 34bc 7940 573b
-0.0028616877 0.0038215253 0.017168866 -0.006871946 -0.00040850707 -0.036002196 0.0023487553 0.01821879
0.025382655 0.0061201104 0.0075849458 0.0016341283 -0.0088142045 0.024985515 0.012335035 0.0078326035
0.009449942 0.0037277206 0.013770514 -0.026243092 -0.007982912 -0.014584111 0.018867677 0.016931906
-0.024449129 -0.0034285465 -0.008582097 -0.001835143 0.02557815 -0.029614069 -0.010987536 0.0032844825

module.slow_path.layer1.0.downsample.block.1.running_mean f4 [32]
00000000: f3e0 f83d e4aa 0fbf 64c2 963d 0401 a03c
00000010: aa38 c1be 0c0f be3e 179c 9f3e 30a4 d3bd
00000020: 4355 90be 1b41 fdbe 14e2 ef3d def9 fbbd
00000030: acb6 823e e2f4 a0be 5906 f3be 663a 37be
00000040: 0238 963e 2204 f93e f8da 90bd cc42 ab3d
00000050: f716 dbbe 5931 16be 5b54 3b3e e892 03bf
00000060: 5379 84be 613f 563d 1f85 b63e d146 633e
00000070: 2bf1 603e 30f1 c7bd 9787 4f3d bddf 843d
0.12152281 -0.56120133 0.07361296 0.019531734 -0.37738544 0.37120855 0.31173775 -0.10334051
-0.2819005 -0.49463734 0.11713043 -0.12303518 0.25529993 -0.3143683 -0.4746578 -0.17893371
0.29339606 0.48635966 -0.07073015 0.0836235 -0.42790958 -0.14667262 0.18293898 -0.51396036
-0.25873813 0.052306537 0.35648438 0.22194983 0.21966998 -0.097628 0.050666418 0.06487987

module.slow_path.layer1.0.downsample.block.1.running_var f4 [32]
00000000: f35b d53d 9d99 dc3d cbc5 d63e fccf e33d
00000010: fd14 953d 1056 063e af00 4d3d 8638 a03e
00000020: 9178 f83d 77b0 6e3e 53aa de3d 2a88 793d
00000030: 8330 d23d 3e6d 1b3e e5a8 b23e 1bfc d93c
00000040: 56c8 a33e d025 8c3e 17f2 d33c be08 463d
00000050: 0219 9e3d d5b2 973e 3b25 353e 3fa4 8b3d
00000060: 258a f63d c6f0 9a3c c6ad 333e 65ee fb3c
00000070: c4ad bd3d 2770 2d3d 7631 753d 55a3 1d3d
0.104179285 0.10771487 0.4194778 0.11123654 0.07279394 0.13118768 0.05004948 0.31293124
0.12132371 0.23309503 0.108723305 0.06092087 0.10263159 0.15178391 0.3489448 0.026609471
0.31988782 0.273726 0.025872273 0.04834818 0.077196136 0.29628626 0.17689984 0.06818437
0.12038068 0.018913638 0.17546758 0.030753324 0.09261659 0.042343285 0.059861623 0.038485844

module.slow_path.layer1.1.block.0.block.0.weight f4 [8, 32, 1, 1, 1]
00000000: c22f a43d bb9b 16be 22f0 1e3d 2ac5 06bd
00000010: 12aa 98bd c738 f1bc 793a f5bd f673 2dbd
00000020: b1be 093e 1194 dc3d f918 c6bd f12b 203e
00000030: 811d 85bc cd99 b73c dd38 1cbe 194e 3c3d
00000040: 5705 f2bd 780e 06be 877f 1a3e 78df b4bd
00000050: 2df6 c0bd d7c5 21be 911d f7bd 1e89 8e3d
00000060: 69d6 463d 7cd9 233e fd63 cdbd eaa2 1c3d
00000070: f285 283d 0a9f ea3b a058 d73d 69f2 05be
00000080: 2d5b c7bd 17d4 153e 1033 163e bdc4 10be
00000090: bcec 79bc 3761 3bbd 7f71 ca3d 2b22 993d
000000a0: 4853 01be 1d17 d73d ccf5 4fbd a05b 34be
000000b0: eb56 263e 8aaa e33d e6e3 47bd ac3d 49be
000000c0: 2a69 c3bd a6de bcbd d732 d43d 480d e3bd
000000d0: 4e5c 863d 93fe 133c f5f7 e7bd e51a 28be
000000e0: 3ec4 703d b942 aebd 2722 d7bd 2bb0 e23d
000000f0: 63c9 c53d 41b5 8f3d 820c 42bd 4853 983d
00000100: 4974 1c3d 0db2 f33d 5187 0bbe e9d5 02be
00000110: 9160 283e 51ad 45bc d06c 083e a8e1 54bd
00000120: f4b5 e93d 04cd 183e f966 2dbe 3740 a33d
00000130: e8c8 fe3c bc8a 2abe 361c 173e 23a5 21bd
00000140: 08e7 1bbd ea8a 09bc 0d34 923d 85a3 09be
00000150: 74a5 143e 76b7 22be ae4a 2e3e a182 733d
00000160: ec41 223e ab74 71bd 8a7d 00bd 7eb9 b73c
00000170: 7a63 08bd 39e2 13be b6b2 e73d 622b e83d
00000180: 5be8 333e 445b 473d 284e 3d3e f6a7 fbbd
00000190: b307 8fbd 5c53 08be 0955 04be 5e96 313d
000001a0: f6e0 39bc c82d 8ebd c29d 39be 0a43 243e
000001b0: ded7 443d 8565 ca3d 517a 1f3d 14b1 e93d
000001c0: 05a5 21be d01b fa3d 8f37 ce3d e2e8 203e
000001d0: 8205 f5bc 592b 34be 7386 013e 3543 adbc
000001e0: 9b0f ad3c 7cc0 aebc 0c4e 1ebd 9df0 f13d
000001f0: dc1e 07be 825d fa3b 1b5c f5bd 1c55 103e
00000200: aa67 153e 4fb1 6bbb e1a1 2fbe e80e 21be
00000210: fd0d 093e 42c3 2ebe b270 993c 0a9c 1f3d
00000220: 9b6e 20bb 35ad d5bd b339 4a3d c277 193e
00000230: 5dae 04be 35dd adbb e70c 85bd 046c e03d
00000240: 1dfe b73d 323f 183c 6e42 103e a228 ee3c
00000250: 6ccf 113e ffb9 5a3d 1bd8 2c3c 8040 6a3d
00000260: 2260 75bd 6803 3ebd 607e 8abd da8a 743d
00000270: e2f0 353e 2b86 0a3e d894 113e d300 5b3c
00000280: 36fb 18be f3c6 e93c 0d06 5bbd f085 86bb
00000290: 9435 be3d ac8d 05be 7015 fcbd a3b5 d43d
000002a0: 110a 273d 3598 0c3e d3cc 453d 2dfe 23bc
000002b0: 6545 4c3d 9a40 b43d 7728 69bd 1e3c 2a3e
000002c0: 47da 863d c42e 13be d3b2 bc3d 2dff a03d
000002d0: ba32 253e 3ba9 8a3d 707c 1abe 2b16 33be
000002e0: 1071 c33d 1e10 053e a645 6c3d 662f 96bd
000002f0: 0076 1ebe 6c57 a43d d7b1 0f3e c4fd b9bd
00000300: fb5a ae3c e9ef 26bd a5ca 79bd 7ab9 22be
00000310: 9d9b 08bd 7558 aa3d cdb5 803d f476 1e3e
00000320: 3a33 1e3e 4562 26be 677c 54bd 04ee 913d
00000330: c1fe 133c aebe 4c3e b0b6 cbbc cdbf c13d
00000340: 29ee febd 4123 fe3d 01f1 eebd f254 bdbd
00000350: 75f3 f03d 12c1 813d 79e7 15be b49c 15bd
00000360: 26d0 133e a0ea d73d a5d3 d43d cffd b03c
00000370: 9e25 003e 1b65 37bd 70fa ddbd 849b e93d
00000380: 597c f3bd 1c5d 0abe d69b 2ebd 499b 12bc
00000390: 35ec c73c 2842 83bd 2531 113e a879 c5bd
000003a0: 077e ff3d 72d2 babd 2afc 98bc 3fd0 3cbe
000003b0: 4b6c 113e 6a5a 30bc 6b32 3bbb 3c1c 9c3b
000003c0: 676b f33c c035 2abe 120c 27be 0f0a aebd
000003d0: bd3e 983c 5edf e23d 37bb a33c 2e88 1ebe
000003e0: 7456 253d 3cc7 98bd 9348 9c3d 36c5 fabc
000003f0: 177b c83b f60f e33b 0bbc e73d 0627 d7bb
0.080169216 -0.14707844 0.038803227 -0.032902874 -0.07454313 -0.029446019 -0.119740434 -0.042346917
0.13451649 0.10770429 -0.09672732 0.15641762 -0.01624942 0.022412205 -0.15256067 0.045972917
-0.11817425 -0.13091457 0.1508771 -0.08831686 -0.09421954 -0.15798126 -0.12066186 0.06959747
0.04854432 0.16000932 -0.10028837 0.038241304 0.041143365 0.007160072 0.10514951 -0.13080753
-0.09734187 0.14631687 0.14667916 -0.1413755 -0.015254196 -0.04574701 0.09884929 0.0747722
-0.12629426 0.105024554 -0.05077152 -0.17613077 0.16244094 0.11116512 -0.048801325 -0.19652432
-0.09541543 -0.09222154 0.103612594 -0.110865176 0.065605745 0.009032863 -0.11326591 -0.1641651
0.0587809 -0.0850882 -0.10504561 0.110687576 0.09657552 0.07016993 -0.04737521 0.0743776
0.038196836 0.11899195 -0.13625838 -0.12776913 0.16443087 -0.012065248 0.13322759 -0.051973015
0.11411658 0.14921957 -0.16933812 0.079712324 0.031101659 -0.16654485 0.14756855 -0.039464127
-0.038062125 -0.008394936 0.07138834 -0.13441284 0.1451624 -0.15890297 0.17020676 0.05945075
0.1584546 -0.058949154 -0.031369723 0.022427317 -0.033297993 -0.14441766 0.11313383 0.113363996
0.17569105 0.048671022 0.18486845 -0.122878954 -0.069838904 -0.13313049 -0.12923063 0.043356292
-0.011345139 -0.06942326 -0.18126586 0.16041198 0.04805743 0.098826446 0.03893501 0.11410728
-0.15785606 0.12212336 0.10069191 0.15713838 -0.029909853 -0.17594661 0.12648945 -0.02115021
0.021125605 -0.021332018 -0.03864865 0.118134715 -0.13195366 0.0076405415 -0.11980458 0.14094967
0.14590326 -0.0035963838 -0.17151596 -0.15728343 0.13384242 -0.17066672 0.018730495 0.03896717
-0.0024479988 -0.10433427 0.049371433 0.1498709 -0.1295714 -0.005305911 -0.064966016 0.10958102
0.08984015 0.009292411 0.14087841 0.02907211 0.14239281 0.053400036 0.01054957 0.05719042
-0.059906133 -0.046389967 -0.06762385 0.05970273 0.17767671 0.13527744 0.14216936 0.013366896
-0.1493958 0.02853725 -0.053472567 -0.004105322 0.09287563 -0.13042325 -0.123087764 0.10386207
0.040781084 0.13729937 0.04829104 -0.010009331 0.049870867 0.08801384 -0.056923356 0.16624495
0.06584602 -0.14373308 0.092137955 0.07861171 0.16132632 0.067705594 -0.15086532 -0.17488925
0.09543049 0.1299443 0.05768361 -0.07333259 -0.15474701 0.08024487 0.14032684 -0.09081605
0.021283617 -0.04075614 -0.060984273 -0.15891066 -0.03335153 0.08317653 0.06284676 0.15475065
0.15449229 -0.16248424 -0.05187645 0.07125476 0.009032906 0.19994614 -0.024867386 0.09460411
-0.12447769 0.12409068 -0.116670616 -0.09244718 0.11765186 0.06335653 -0.14639081 -0.036526397
0.14434871 0.10542798 0.103919305 0.0216054 0.1251435 -0.044774156 -0.10838783 0.114066154
-0.11888952 -0.13512081 -0.042629085 -0.008948156 0.024404624 -0.06409103 0.14178903 -0.09642345
0.1247521 -0.091221705 -0.018674929 -0.18438815 0.14201467 -0.010763744 -0.0028563987 0.004764108
0.0297143 -0.16622066 -0.16313198 -0.08498012 0.018584603 0.1107776 0.019986732 -0.15481636
0.04036565 -0.07459876 0.0763103 -0.030611616 0.006118189 0.006929393 0.11315163 -0.0065659313

module.slow_path.layer1.1.block.0.block.1.weight f4 [8]
00000000: 2a6c 813f 358f 7b3f b663 783f 7e94 7b3f
00000010: 1d67 7c3f e00d 833f ecfa 803f d897 7f3f
1.0111134 0.9826539 0.97027147 0.98273456 0.9859484 1.0238609 1.0076575 0.9984107

module.slow_path.layer1.1.block.0.block.1.bias f4 [8]
00000000: e4c4 c5b9 2cbb 763b 9599 21bb 195f 68bc
00000010: eb71 063c cf39 92bb 021a ea3b 9106 473c
-0.00037721463 0.0037648184 -0.0024658192 -0.014182829 0.008205871 -0.0044624577 0.0071442137 0.012147562

module.slow_path.layer1.1.block.0.block.1.running_mean f4 [8]
00000000: e0ea a3be 1a40 64be 6f9e c83e ea59 5a3e
00000010: 7a42 163f 70ba 963e e4d3 de3e 2e5d e9be
-0.32015133 -0.22290078 0.39183375 0.21323362 0.58695185 0.29439116 0.43521035 -0.45578903

module.slow_path.layer1.1.block.0.block.1.running_var f4 [8]
00000000: eb75 3f3e 0339 423e 9a15 203e 5487 883e
00000010: a46f bd3e 2809 3f3e d77d 5d3e 1bc0 363e
0.18697326 0.1896706 0.1563324 0.26665747 0.36999238 0.18655837 0.21630035 0.1784672

module.slow_path.layer1.1.block.1.block.0.weight f4 [8, 1, 1, 3, 3]
00000000: 0540 943e 1147 463e b56a c4bd 1cd8 7c3e
00000010: 4bbb 8a3d 67c3 053d b81c abbd db3f 193e
00000020: 43d7 a03e fa3a 8ebd 8563 a4bd 78e6 10be
00000030: ae2c 633e c463 a23e a990 8ebe 5ff7 a3be
00000040: 3c0d 773e 91f1 773e 8991 3bbe df60 a3be
00000050: 8dbb 62be 6561 d2bc 1609 cabd b894 243e
00000060: 58e5 d63d 1e65 603e 08e5 473e 1022 413e
00000070: 7fe3 46bc 7421 7f3e c107 37be d7d5 36be
00000080: 1ca1 0dbe 0aac cc3d 58e4 58be f1ae 843c
00000090: fe13 9d3e b259 6c3d 45c4 ffbd ef5a 043e
000000a0: 8b17 17bd 27e9 1bbe aef4 a9bd cc72 34be
000000b0: 6c4d a4be f2f7 41be 8b95 93be 9681 88bd
000000c0: 24c0 913e 50b0 a43e 0908 f03d d83a 2d3e
000000d0: d40e 1dbe 6257 6e3e 91d4 82bd 8e9b 84bd
000000e0: c58b 59bd 4e6e 563e b477 03bd ea16 68bd
000000f0: 8b52 1a3e 1af5 953e 4980 f73c 57c3 213e
00000100: 6432 0abe 4b7b 96be 8ec1 1abe 6eba 7dbe
00000110: 4ccb 073d d5d2 973b ad45 813c 1467 963e
0.28955093 0.19363047 -0.09590665 0.24691814 0.067740045 0.032657053 -0.08355087 0.14965765
0.31414232 -0.06944843 -0.08026794 -0.14150417 0.22185013 0.3171674 -0.27844742 -0.32024667
0.24126142 0.24213244 -0.18317236 -0.31909844 -0.22141857 -0.025681207 -0.09865014 0.16072357
0.104929626 0.21913573 0.19520962 0.1886065 -0.0121392 0.24915105 -0.17874052 -0.17855011
-0.1383099 0.09993751 -0.21180856 0.0161967 0.30679315 0.057702728 -0.12488607 0.12925313
-0.036887687 -0.1522566 -0.08298622 -0.17621917 -0.32090318 -0.1894224 -0.2882503 -0.066653416
0.28466904 0.32165766 0.117202826 0.16916978 -0.15337688 0.23275521 -0.063882 -0.06474982
-0.05311181 0.20940515 -0.03209658 -0.056662478 0.1507055 0.2928856 0.030212538 0.15797172
-0.13495785 -0.2939094 -0.15112898 -0.24778149 0.033152863 0.0046332874 0.015780294 0.29375517

module.slow_path.layer1.1.block.1.block.0.bias f4 [8]
00000000: 62b3 8dbd b639 623e 9686 f6bc 1351 743e
00000010: 301c 2abe df7e 873e 5a93 a2be 17fe 42bd
-0.0691898 0.22092327 -0.030093472 0.23859052 -0.16612315 0.26463982 -0.31753045 -0.0476056

module.slow_path.layer1.1.block.1.block.2.weight f4 [8, 8, 1, 1, 1]
00000000: c18a ba3d 911f 973e a96b 623e eb9a 873e
00000010: 93ef debc f518 aebe c1d0 0c3e 7f01 81be
00000020: a64e 9b3e b019 a53e 9c83 123e 8eb9 ad3d
00000030: 948b d13d 39f7 9b3e 8389 533e 262d 863e
00000040: 8278 b6be 1467 e6bd 28eb 8f3e 215f d83d
00000050: d06d 97bd cbcd 983d 37f4 833d 6250 3cbd
00000060: 5605 b5be f795 853d 4ea0 963e f6f5 d53d
00000070: 9f16 d7bd 44c4 cf3d 113e 12be 3d1c ccbd
00000080: b2ad 39be 6e4b 1abe e3ab 96be 0702 95be
00000090: f638 a83e 8420 e6bd e16e a8be 229d b1be
000000a0: 2f28 29bc 971a a0be 6ae4 2bbe 59c9 0f3e
000000b0: 0590 57be bfb3 b0be ad6c 913e 8e24 70be
000000c0: 7a30 a6bd 4d5b 2fbe eb47 28be 16e8 f93d
000000d0: 9f5f 083e a540 9bbd d75f 8cbd f36f 8d3c
000000e0: 5e09 93be 1de9 c1bc fef2 3cbe cd13 463e
000000f0: 490d 293e c74e b23d 52c5 a23e 9c14 bebc
0.091084965 0.2951627 0.22111382 0.2648538 -0.027213847 -0.34003416 0.13751508 -0.25196454
0.30333441 0.3224616 0.14308017 0.084826574 0.102317005 0.30462053 0.20657925 0.2620632
-0.35638815 -0.11250129 0.28109097 0.105650194 -0.07393992 0.07461127 0.06443065 -0.045975097
-0.35355633 0.06522744 0.29419178 0.10447304 -0.105023615 0.101448566 -0.14281489 -0.099663235
-0.18132666 -0.15067837 -0.29428014 -0.2910311 0.32855958 -0.112366706 -0.32897094 -0.34690195
-0.010324522 -0.31270286 -0.16786352 0.14041652 -0.21051033 -0.34512135 0.28403226 -0.23451445
-0.08114715 -0.17124672 -0.16433685 0.1220247 0.13317727 -0.07580689 -0.068542175 0.017265296
-0.28718084 -0.023670727 -0.18452069 0.19343491 0.16508974 0.08706432 0.31791168 -0.023203187

module.slow_path.layer1.1.block.1.block.3.weight f4 [8]
00000000: a65c 813f 69fc 803f 655e 7f3f 57c2 7b3f
00000010: 7353 7f3f c843 7b3f 6c41 853f ec19 7b3f
1.0106399 1.007703 0.9975341 0.98343414 0.9973671 0.981503 1.041059 0.9808643

module.slow_path.layer1.1.block.1.block.3.bias f4 [8]
00000000: d46d 033a aafa 32b9 9020 50b9 590b 4839
00000010: bb7b dcba ce5b 783a 7929 df39 ec3a 0238
0.0005013619 -0.00017068782 -0.00019848556 0.00019077714 -0.0016821543 0.0009474129 0.00042564774 3.104929e-05

module.slow_path.layer1.1.block.1.block.3.running_mean f4 [8]
00000000: 3268 833d e601 cd3e 398e 9bbd 5bad 1fbd
00000010: c8df 91be e5a1 6bbe 05a9 9bbd 4bb7 4bbc
0.06416358 0.4004051 -0.07595486 -0.038983684 -0.28491044 -0.23010977 -0.07600597 -0.012433837

module.slow_path.layer1.1.block.1.block.3.running_var f4 [8]
00000000: 26be 0e3d 3686 6e3d b338 713d d0b6 893d
00000010: 2d5d 3e3d ed06 093d 19f4 f33b 8412 493d
0.03484931 0.058233462 0.058891963 0.06724322 0.046475578 0.03345387 0.00744487 0.049089924

module.slow_path.layer1.1.block.2.block.0.weight f4 [32, 8, 1, 1, 1]
00000000: ba68 b1be bdae ac3d 299d 5c3e 3306 48be
00000010: 415b 3f3e ae16 87bd 906f a63e beb0 3d3e
00000020: 6daf fe3d 98ea 863e 1ee4 56be 7b4a 4b3c
00000030: 04f3 52be 77b4 b93c f593 593e e5e8 323d
00000040: 3ac7 f13d 71fc a8bd ef70 e8bd fbbe 9eba
00000050: 5fb3 963e d92b 7abe d6fe b13e d157 9abb
00000060: cc4a ddbc b4de 21bc d7ac 1cbe bf7e 993e
00000070: a77a a33e 06ef 483e 57ba 8b3e 77ac 13be
00000080: de1f 033e 191f 33be f79e 1a3d 4be4 273d
00000090: fdb1 763d 1c24 9c3e 4e0d 903d d402 73bc
000000a0: c1c3 00bb 884d 1fbe 9379 9b3e 9f14 0f3d
000000b0: bb30 9b3e c121 6d3e fef4 4b3e 73e7 003e
000000c0: 1e89 93be 3838 283e 900c 7a3d 9fa0 aa3e
000000d0: c67f 623e 145f a2be 0fce cebd 5151 933d
000000e0: c2df 42be 217d a13e e77c 97be 7978 51be
000000f0: cfdd 8d3d f09a b3bd 666e 91be 4047 8e3e
00000100: aba4 ba3d d4ff ab3d 1e2e 8cbd 2d0b 7b3e
00000110: 0d2e 263d 45f2 b9be 90ac 4c3e f1e8 9f3e
00000120: ca9a 583e dac5 76bd 3cd0 a1be d4f4 46be
00000130: 2fba 82be bc25 713e dc9e 773e 93ad 7dbe
00000140: 9da7 84be 09d5 253c 95ad 9bbe ac8c 193e
00000150: 67bb b83c 269d a03c 1b03 babe e6ef 04bd
00000160: 35d6 a1be 4fc0 c4bd 9623 4b3e 17a0 b73d
00000170: 44d8 33be 9853 c23d 95f7 6a3e 067e b9bd
00000180: e575 93be 9ccc 9a3e 774a 723e c3f9 723d
00000190: 0808 9d3e 1404 0a3e 187d 9a3e b7e2 0a3d
000001a0: 1e1e 63be 046a 963e 941e 8e3e 2e3b f93d
000001b0: b90b 16be ac32 853e 5d02 633e f1e4 443a
000001c0: c426 513d ce65 bb3d dc63 c63d a656 7c3d
000001d0: 7f0c a5be 3996 a2be 5d23 92bd 7892 b3be
000001e0: 556b 393d b4fc 9f3e 202e aa3e 85c6 52be
000001f0: 2bb3 953e 704f 22bd 35d8 0c3d 5936 0abe
00000200: b7b4 c9bd 1f52 9dbe cf10 b43e a5eb 98be
00000210: d645 3abe 5d52 7b3e a5a1 af3e 3304 72be
00000220: 9269 a4be c654 8d3d 9814 28be f618 f53d
00000230: 5f23 503d b6f9 2d3e c3c8 86be ce38 73bd
00000240: 9192 303e ab04 323c 3a8f 973e 1291 91be
00000250: 5bf2 a5be 160f 603d c9d0 9e3e f9e7 153e
00000260: d94b a23e 9a97 9cbe fbaa 8f3e 85b1 893e
00000270: 90b1 b7be 4908 383c 0e7d 38bd 0b19 763e
00000280: 022b 73be 1e45 743c b18b 87bd 21fc db3c
00000290: d961 1ebe 55b1 97be c02f 1f3e 63ab 0fbd
000002a0: 7168 75be 64e3 75be ea30 8f3e b3ae 763d
000002b0: 131c 9e3d fe53 2fbe 48e8 8b3e bc44 7bbe
000002c0: 3927 87be a3e0 a13e f7b4 aebc 0e7d 27be
000002d0: 6378 e5bd 2349 f13d 1314 203e 89dd 6dbe
000002e0: 1843 bdbc 79bb 113e 4a85 16be 8b5e 6ebe
000002f0: 2cfc 6b3e 786f bdbd 223f 423c 361d 183e
00000300: 2fcb 9e3d ab54 74be fa05 e23c 3dce 823e
00000310: 72ad 5fbe 54ad 4e3e 8450 f03d 7758 32be
00000320: aea2 103e 3bdb acbe d7e4 55bd 2d8a 80bd
00000330: 8b2a a0be c5e4 a73e 506c 0bbe ee72 af3e
00000340: 32b8 b73e cd21 923e 9dee 723d 1764 aa3e
00000350: fd9d 2bbd 0f09 a23e 6a94 9cbe 295c 9e3e
00000360: 0092 483c 11e3 cebc 54b0 f33c 886d a8be
00000370: f475 4b3e c368 0f3e 7e26 953e 6617 a4be
00000380: 7015 aa3e 55ec ab3d 1c20 88bc def8 113e
00000390: 7edb 5b3d dd85 a03e 0a9f d7bc cb1b 2a3e
000003a0: 6539 373e 1534 37bd 695b 03bd c1b0 8ebe
000003b0: 34aa 9d3e b14d 0f3d 9341 d2bb a4c6 79bd
000003c0: 600f 1f3e 5600 78be e551 153d 2dc5 39be
000003d0: bc78 96bc 9ecf a0be 1df3 833e 8744 85be
000003e0: 5292 fb3d 5c54 b33e 97e9 a7be 4de6 983e
000003f0: b8a5 043d 1d1c cc3d 226c b53e 549a 403d
-0.34650213 0.08431766 0.21544327 -0.19533615 0.18687154 -0.06596123 0.3250699 0.18524453
0.124358036 0.26350856 -0.20985457 0.012407894 -0.20600516 0.02266906 0.21247847 0.043679137
0.118055776 -0.082512744 -0.113496654 -0.001211136 0.29433724 -0.24430789 0.34764737 -0.0047101756
-0.027013205 -0.009879757 -0.15300308 0.29979512 0.31929514 0.1962243 0.27290604 -0.14421259
0.12805125 -0.17492332 0.037749257 0.0409892 0.060228337 0.304963 0.07033788 -0.014832217
-0.0019647928 -0.1555692 0.3036619 0.034931775 0.30310616 0.23157407 0.19917676 0.12588291
-0.2881555 0.16427696 0.061047137 0.3332567 0.22119054 -0.31713164 -0.10097896 0.07193244
-0.1903067 0.31540778 -0.2958748 -0.20456113 0.06927072 -0.08769786 -0.2840454 0.27788734
0.09113439 0.08398405 -0.06844734 0.24515982 0.04057126 -0.3631765 0.19987702 0.31232408
0.21152797 -0.06024728 -0.31604183 -0.19429332 -0.25532672 0.23549551 0.24181694 -0.24773245
-0.2590913 0.010121592 -0.3040587 0.14995068 0.022550298 0.019606184 -0.36330494 -0.032455347
-0.3160874 -0.096069925 0.19837794 0.089660816 -0.17562968 0.094886005 0.22946008 -0.0905724
-0.28800884 0.3023423 0.23661219 0.059320223 0.3067019 0.13478118 0.30173564 0.03390762
-0.22179458 0.29377759 0.27757704 0.12169491 -0.1465291 0.26015222 0.2216887 0.00075109216
0.05106236 0.09150277 0.096870154 0.061606072 -0.32236096 -0.31755236 -0.07135651 -0.35072684
0.045268375 0.31247485 0.33238316 -0.20583542 0.29238257 -0.03962654 0.03438588 -0.13497294
-0.09848922 -0.30726716 0.35169074 -0.29867283 -0.18190703 0.24543138 0.34303012 -0.23634414
-0.32111794 0.06900935 -0.16414106 0.119676515 0.050814983 0.16989788 -0.26325044 -0.059380345
0.1724341 0.010865371 0.2960146 -0.28430992 -0.32411465 0.054701887 0.31018665 0.14639272
0.31698492 -0.30584413 0.28060135 0.2689325 -0.35877657 0.011232444 -0.045041136 0.2403299
-0.23746875 0.014909057 -0.06618441 0.026853623 -0.15467013 -0.2962748 0.15545559 -0.035075556
-0.23965622 -0.24012524 0.27967006 0.0602252 0.077201985 -0.17121884 0.27325654 -0.24537939
-0.26397112 0.31616697 -0.021326525 -0.16356298 -0.112046026 0.11781528 0.15632658 -0.2322904
-0.023103282 0.14231671 -0.14699283 -0.23278253 0.23045415 -0.092497766 0.011855872 0.14854893
0.07753598 -0.23860423 0.02759074 0.25547972 -0.21843508 0.20183307 0.11734107 -0.17416559
0.14124557 -0.3376101 -0.05222019 -0.06276355 -0.31282458 0.32791725 -0.13615537 0.34267372
0.35882717 0.28541413 0.05930959 0.33279487 -0.041898716 0.31647536 -0.3058198 0.30929688
0.01224184 -0.025254758 0.029747166 -0.32896066 0.19869214 0.14004807 0.2913093 -0.32049102
0.3321948 0.08394686 -0.016616873 0.14255092 0.05367612 0.3135213 -0.026320953 0.16612165
0.17892988 -0.044727404 -0.032069597 -0.27869228 0.30793917 0.0349862 -0.0064165085 -0.060980454
0.15533209 -0.24218878 0.036455054 -0.18141623 -0.018368118 -0.314084 0.25771418 -0.26028845
0.12283768 0.350253 -0.32795402 0.29863206 0.032384604 0.099663 0.3543406 0.04702218
