epoch.pth (torch_old, 971507 bytes, 614 tensors)

module.slow_path.conv1.0.weight f4 [8, 3, 1, 7, 7]
000000 a7 b5 93 3d 48 1a 98 bd 20 aa 58 3c 37 30 0e bc
       0.07212382 -0.07426888 0.013224155 -0.0086784875
000010 d0 97 27 bc b6 b6 20 3c 42 fa 5c bd 60 4d 59 bd
       -0.010229066 0.009809187 -0.053949602 -0.053052306
000020 fe 75 90 3c 25 0d 75 3d d4 28 83 3c 6b 4a 62 bd
       0.017634388 0.05982699 0.01601068 -0.05524675
000030 d7 4b 97 3a 73 c4 0d bd db e1 c7 3b 87 09 db bb
       0.0011542988 -0.034611177 0.006099922 -0.0066844854
000040 ab a4 1d 3d 8c 5e 15 3d b5 64 6b bd 0b d6 04 bc
       0.038487118 0.03646712 -0.05746909 -0.008107672
000050 d7 da 26 bd 05 af 52 3d bc fe 0d bd 2a 50 87 3d
       -0.040736046 0.051436443 -0.03466676 0.06607087
000060 e6 6c 85 bd 6a 5a b1 3d 8e ec c5 bb 07 7d 2e 3d
       -0.06514911 0.08659823 -0.0060401624 0.042599704
000070 be f8 bb bc c4 0d 31 bd b1 49 14 3d 03 ad 3b bc
       -0.022945758 -0.04322602 0.03620309 -0.011454823
000080 da c2 d4 3c 6a 29 b0 3d c1 27 cc 3d 6d d4 91 3d
       0.025971819 0.08601649 0.0996852 0.07120595
000090 fc 8c 4f 3d 48 ad 32 bc 7e 8c 02 3d 4d a3 f8 3c
       0.050671563 -0.010905571 0.031872265 0.030351305
0000a0 f6 10 cd 3d 34 7a 57 3d 4f 4c 75 bd 82 e8 7b 3d
       0.10013001 0.052606776 -0.059887227 0.061501034
0000b0 4f 80 af bc 73 11 aa 3d de 69 21 bc 4a 4e 6c 3d
       -0.021423487 0.083041094 -0.009851901 0.05769185
0000c0 bc 8d 5b bc 7f 08 fa 3c 88 17 54 3d f9 24 0c bb
       -0.013400491 0.03052163 0.051780254 -0.0021384342
0000d0 8f bd db bc 97 66 26 3c 11 98 82 bd 25 4d 8a bd
       -0.026823787 0.010156295 -0.063766606 -0.067529954
0000e0 e6 6f 89 bd c9 cf 13 3c f3 66 69 bc b7 62 79 bd
       -0.06710796 0.009021708 -0.014245736 -0.060885157
0000f0 dd ea 57 3b 2a ba 85 bd fb 2d 6a bd b0 92 87 bd
       0.0032946386 -0.065296486 -0.057172757 -0.06619775
000100 27 fe b9 bc 6c 01 80 bd f1 03 98 3d 2c 95 1a bd
       -0.022704197 -0.06250271 0.07422627 -0.037739918
000110 28 41 0d 3d e1 7f 7f bd b0 b7 30 bd 07 9a 60 bc
       0.034485966 -0.062377814 -0.043143928 -0.013708598
000120 17 d4 57 bb 28 69 0e 3d 14 c5 8e 3d 6f 9f 06 3d
       -0.0032932812 0.034768254 0.069711834 0.03286689
000130 1a 22 db bc 29 e5 28 bd a0 c8 30 bc 61 fa b1 3c
       -0.02674966 -0.04123417 -0.01079002 0.021725835
000140 41 a2 7d 3d 71 9b a0 3d e8 f0 d8 3c 00 e9 24 bd
       0.061922316 0.07842148 0.02648206 -0.04026127
000150 7f cf 0a bd 1e 47 36 3d a7 b5 67 bd fd 4a 52 3d
       -0.03388929 0.044501416 -0.05656972 0.051341046
000160 05 de b5 3d 2a b6 39 bd 36 ad b1 bb fb de 80 bc
       0.088802375 -0.04533974 -0.0054222597 -0.015731325
000170 59 72 ab 3d f6 df e3 bb 0d cb 30 bd 81 cc 8c 3c
       0.083714195 -0.0069541885 -0.043162394 0.017187359
000180 d8 95 23 3c e6 6d bf 3d 70 8e 2f bc 4b 2c 81 bd
       0.009984456 0.09347133 -0.010715112 -0.06307276
000190 76 00 6c 3d 97 af af bd fe 3b 03 bd ec 51 5b 3d
       0.057617627 -0.08578413 -0.032039635 0.053544924
0001a0 5e 94 41 bb c8 3b 2c 3b d9 ed 81 3d 52 51 dc 39
       -0.0029537897 0.002628075 0.06344194 0.00042022258
0001b0 27 43 e6 bb 6f 54 34 3c 45 c7 f2 3c ae 06 5a 3c
       -0.007027048 0.011006459 0.029636035 0.013307257
0001c0 53 c2 28 3d 74 54 09 3d 35 ca 05 3d d0 7c 07 3d
       0.041200947 0.033527806 0.032663543 0.033078015
0001d0 f2 93 d9 ba bc 3a 21 3c 27 3f 56 bd be 00 96 bb
       -0.0016599877 0.0098406635 -0.05230632 -0.004577725
0001e0 33 44 89 bd ac c5 08 3d 64 fa 9f bd 39 1e 67 3d
       -0.06702461 0.03339164 -0.0781143 0.056425307
0001f0 b9 e5 61 bd 00 a8 a4 bc 86 53 78 bd 98 90 91 bd
       -0.05515072 -0.02009964 -0.06062653 -0.07107657
000200 82 ce 2f bb 6b b3 6d bd 0b 96 41 bc 00 a4 82 3d
       -0.002682597 -0.058032434 -0.011815558 0.06378937
000210 08 92 09 3d 55 ee 67 3d ef 95 13 3d 42 ff 50 3d
       0.033586532 0.056623776 0.03603166 0.051024683
000220 ae ca 88 bd 2b 5e 6f bd 27 06 55 bd 49 13 83 bd
       -0.06679283 -0.058439415 -0.05200782 -0.06400163
000230 b2 c8 0d 3c e9 31 59 bd 42 80 b8 bc 39 49 8a 3d
       0.0086538065 -0.053026114 -0.022522096 0.06752247
000240 3a 58 9b 3c 76 12 33 bd 19 c2 0e bd 9c 63 ad 3d
       0.018962968 -0.043718778 -0.034853075 0.084662646
000250 7e 84 93 bd 9b 40 fa 3c 34 f2 ad 3d 33 4d aa 3d
       -0.07203005 0.030548384 0.08493462 0.08315506
000260 20 67 df 3c 1c 15 8d bc a9 3c 5d bc 05 ca bb bc
       0.027270854 -0.01722198 -0.013503232 -0.022923479
000270 66 a6 6f bc df 17 ff 3c 71 4e 21 3c 51 c2 ad bb
       -0.014627075 0.031139312 0.009845362 -0.0053027053
000280 13 95 a8 3d c4 e9 c1 3d 6d fe 88 3c 1e bb 96 3d
       0.08231559 0.094684154 0.016722882 0.073599085
000290 60 f2 16 bd 8e ac bd 3c 25 79 fc 3c 38 ad 8f bd
       -0.03685224 0.02315357 0.030819485 -0.07015461
0002a0 86 21 16 3d 36 65 90 bc 43 31 87 3d 51 54 66 bc
       0.036653064 -0.017626386 0.06601193 -0.014058189
0002b0 55 49 b6 bd d4 a1 ad 3c d6 75 cb bb ae 52 8b bb
       -0.08900706 0.02119533 -0.0062091155 -0.0042517995
0002c0 d3 70 91 3c fc 6a 3d 3d 27 49 8f bd 54 c7 56 bd
       0.017753994 0.046244606 -0.069963746 -0.052436188
0002d0 a7 ab 21 bc a9 2d 93 3d 1a 66 38 bd 17 cc 09 3d
       -0.009867585 0.07186443 -0.045019247 0.0336419
0002e0 4f bb 85 bd 9e 95 87 3c ef c8 af 3a 47 c7 5c bc
       -0.06529867 0.016550835 0.0013411323 -0.013475246
0002f0 fd ef de bc da f6 b9 3c 57 00 06 bd 72 c4 15 bd
       -0.027214045 0.022700716 -0.032715168 -0.036564298
000300 da 41 92 bd a8 ea a4 bd f3 92 b9 bd c5 c2 88 3b
       -0.071414664 -0.0805257 -0.090612315 0.004173609
000310 cc 67 a6 bd 23 28 3c 3d 5b ab cf bc 60 20 21 3d
       -0.081252664 0.045936715 -0.025350263 0.039337516
000320 9a 0b 5e 3d 54 fb 97 bd df 4b ac bd 6c 43 7f bd
       0.054210283 -0.07420984 -0.08412909 -0.062320158
000330 d5 3b 70 3d 97 f7 6a 3d fb 88 15 3c e0 82 a0 bd
       0.05865081 0.057365026 0.009126897 -0.078374624
000340 b5 db cd 3c 9a f9 52 bc f2 c1 36 bd cd c1 96 3d
       0.025129179 -0.012876892 -0.044618554 0.07361183
000350 03 5a 0f bd 55 64 b9 bd 94 a5 2d 3d bc 66 9f bd
       -0.03499795 -0.0905234 0.042394236 -0.07783267
000360 0d 1c 00 3d 4d b7 ea bc 34 a0 87 bd 33 21 7a 3d
       0.03127675 -0.028651858 -0.06622353 0.061066817
000370 b9 52 9e bc ec c7 3d 3d eb 0b 48 3d 6b 30 b0 3b
       -0.019326555 0.04633324 0.04883949 0.0053768656
000380 1c 03 49 3b 09 16 72 3c 9f 2a 65 bd 1b 30 de bb
       0.003067202 0.014775761 -0.05594885 -0.006780637
000390 ce d8 7e bd 0a 34 5d bd 67 76 d2 3c 91 b2 e9 3c
       -0.06221848 -0.054004706 0.025691224 0.02852753
0003a0 99 de 61 bd 44 4f 5d bd f3 cf 86 3c 67 92 13 bd
       -0.055143926 -0.05403067 0.01645658 -0.036028292
0003b0 89 2b 3b ba d4 62 53 3d c6 e2 dd 3c b1 cc 9d 3c
       -0.0007139971 0.05160792 0.027085673 0.019262644
0003c0 04 1b c5 bd 42 02 8e bd 52 07 3c 3d e5 db cf bd
       -0.096242934 -0.069340244 0.04590542 -0.101493634
0003d0 47 e4 7a bd 93 e1 10 bd 71 78 f8 3c 07 95 6c 3d
       -0.06125286 -0.035371374 0.030330868 0.05775931
0003e0 f9 b7 63 bd 19 99 4e 3c f2 19 6b 3c 7d a1 16 bd
       -0.055595372 0.0126097435 0.014349448 -0.0367751
0003f0 20 41 a8 bc 48 87 04 bc c3 dc 94 3c b3 43 55 bd
       -0.020538867 -0.008088894 0.018171674 -0.052066516

module.slow_path.conv1.1.weight f4 [8]
000000 6f fe 7e 3f af 19 80 3f a2 92 79 3f aa 76 7e 3f
       0.99606985 1.0007838 0.9748937 0.99399817
000010 e0 09 83 3f de 1e 82 3f 7e 86 7f 3f 34 ca 80 3f
       1.0237389 1.016567 0.99814594 1.0061707

module.slow_path.conv1.1.bias f4 [8]
000000 99 b0 86 3c 31 cf 82 b9 49 41 d4 3b 8f 72 1a bc
       0.01644163 -0.00024949902 0.006477509 -0.009426727
000010 86 19 ff bb 1c e9 74 3c 46 f3 e3 bb 29 64 86 3c
       -0.007785025 0.014948156 -0.0069564907 0.016405182

module.slow_path.conv1.1.running_mean f4 [8]
000000 ee 98 f4 3d 59 e3 13 bf 63 11 31 bf b9 b9 52 bf
       0.119432315 -0.5776878 -0.69167155 -0.8231464
000010 97 b5 d2 3e ad 21 07 bf f5 9b 6b 3f 30 78 78 3e
       0.41154167 -0.5278576 0.92034847 0.24264598

module.slow_path.conv1.1.running_var f4 [8]
000000 46 e5 3b 3c f3 9c bb 3d d1 10 fd 3d 65 df 33 3e
       0.011468237 0.09160795 0.12356723 0.17565687
000010 d7 7d 8b 3d 7a 89 b1 3d 36 e4 63 3e ec 67 b7 3c
       0.068111114 0.086688 0.22255024 0.022388421

module.slow_path.layer1.0.block.0.block.0.weight f4 [8, 8, 1, 1, 1]
000000 0a 8c 26 3d f3 d3 c9 bd e4 3a 37 be 1f f4 60 be
       0.040660895 -0.09854879 -0.17893559 -0.21968125
000010 2b 92 61 bd 5f 2c fd 3d b5 a5 a2 bd 0a 59 81 be
       -0.055071037 0.12361979 -0.07941762 -0.25263244
000020 16 84 c3 bd 76 02 38 be 9c b3 1c 3e 97 0f 00 be
       -0.09546678 -0.17969689 0.1530289 -0.12505947
000030 61 12 a5 3b 9b f3 fe bd f1 ef 90 3e f6 1c 58 be
       0.0050375913 -0.12448808 0.2830806 -0.21104798
000040 da 0c 37 3b 86 c7 66 3e 1f bd 04 3d 20 0d 0f 3e
       0.0027931244 0.2253705 0.032406922 0.1396985
000050 d5 39 a7 be 4c c5 86 3e 9b c8 20 3e d9 17 83 3d
       -0.3266131 0.263224 0.15701525 0.06401033
000060 69 83 6d bd c6 22 84 3e 14 18 90 bd 71 62 a3 3e
       -0.05798665 0.2580778 -0.070358425 0.31911042
000070 e9 60 d2 bd 05 af 63 3e d0 0e 18 3e 87 8a a7 3e
       -0.102723904 0.22234733 0.148494 0.32722875
000080 2c 7b 0c 3d 4e 2a e9 bd ef 29 a6 bd d5 5b 22 be
       0.034297153 -0.11385022 -0.08113467 -0.15855344
000090 fa 4d 59 be 77 00 8a be 62 18 f4 bd 95 50 60 3e
       -0.21221152 -0.2695348 -0.11918713 0.2190574
0000a0 95 12 47 3e d8 38 13 be a4 46 dd 39 d7 ef 92 be
       0.19440682 -0.14377153 0.00042205036 -0.28698608
0000b0 6f b0 85 be 78 0b 47 bd ad 63 1c be 1e 45 a4 be
       -0.2611117 -0.04859492 -0.15272398 -0.32083982
0000c0 51 39 c1 3d a3 76 76 bd d4 e8 69 bc b8 4b 78 3e
       0.0943476 -0.060171735 -0.014276702 0.24247634
0000d0 c8 74 35 bd 3f 29 94 bd cf e7 00 bb 9b 60 9e 3c
       -0.044300824 -0.072344296 -0.0019669419 0.019333174
0000e0 d8 dd aa bc 53 16 20 be 5d 34 13 be e7 90 f2 bd
       -0.020857736 -0.15633516 -0.14375444 -0.11844044
0000f0 00 7e 4d be d1 ae 95 3d 50 a3 90 3c c1 89 92 3e
       -0.20067596 0.07308734 0.017655998 0.28620723

module.slow_path.layer1.0.block.0.block.1.weight f4 [8]
000000 75 62 7d 3f 45 c8 7f 3f aa b6 7c 3f 78 35 7d 3f
       0.9897836 0.9991496 0.98716223 0.9890971
000010 6f 8f 7c 3f 98 b4 81 3f 13 6c 82 3f 36 d2 80 3f
       0.9865636 1.0133238 1.0189232 1.0064151

module.slow_path.layer1.0.block.0.block.1.bias f4 [8]
000000 b9 62 4e bc cc 7b 45 3c fc 6a 2d 3b 45 40 2c 3d
       -0.0125967795 0.012053441 0.0026461473 0.04205348
000010 d5 51 a6 bc 67 12 c3 3c f4 44 cb bc 9e b8 6a 3c
       -0.020302692 0.023812486 -0.024813153 0.014326243

module.slow_path.layer1.0.block.0.block.1.running_mean f4 [8]
000000 8d af eb be f4 6d 73 3b 9f 22 b8 3e 6e 00 0d 3f
       -0.46032372 0.0037144395 0.35963914 0.5507878
000010 5f ba 51 bd 3c f0 ec be d9 fe ee 3d 46 75 8e 3d
       -0.051203128 -0.46277034 0.11669702 0.06955962

module.slow_path.layer1.0.block.0.block.1.running_var f4 [8]
000000 e8 e3 97 3d e0 56 2e 3e 49 10 ef 3d a2 72 fa 3d
       0.074165165 0.17025328 0.11673028 0.12228896
000010 51 d3 db 3e ba 5e 96 3d bc 7a fb 3b 74 b1 c9 3e
       0.4293466 0.073422864 0.007674543 0.39393198

module.slow_path.layer1.0.block.1.block.0.weight f4 [8, 1, 1, 3, 3]
000000 dd 6d 7f be 7e 53 b9 3e 8c b7 53 3e b4 83 80 be
       -0.24944253 0.36196512 0.20675486 -0.25100482
000010 bd a2 96 3d 44 26 40 3e 05 69 ad bc 82 3a 17 3e
       0.073552586 0.18764597 -0.021168241 0.14768413
000020 0a 13 99 be 61 97 40 be 4b 40 8e 3d af 2e 94 3e
       -0.29897338 -0.18807746 0.06945857 0.28941867
000030 71 4b a9 3e 1d d5 27 be b8 24 4b 3e 13 56 63 3e
       0.3306537 -0.1638989 0.19838226 0.22200803
000040 06 13 95 bd 4a 5c c1 3d cd 89 9e 3d 04 06 31 3d
       -0.07279019 0.09441431 0.07741127 0.043218628
000050 75 f5 9b be 1d a4 77 3e 9e b3 d5 bd 47 c8 9a be
       -0.30460706 0.24183698 -0.1043465 -0.30230924
000060 0c 7a ad bd c4 c9 92 3e 61 24 a6 3e d9 36 64 3e
       -0.08470544 0.2866956 0.3244963 0.22286548
000070 f9 0a b6 3a 54 ad 4a 3e 5a 9d 0e 3e 19 c7 13 be
       0.0013888768 0.19792682 0.13927212 -0.14431418
000080 ec a7 46 bd 31 e1 90 3e a0 7e 0e 3d ef 0a ba 3d
       -0.048499987 0.28296807 0.034788728 0.09084117
000090 53 f9 96 3d 15 ce 44 3e a2 65 15 be 9c ee af bd
       0.073717736 0.19219239 -0.14589551 -0.08590433
0000a0 9b 7a 99 3e cd cf 15 3d 42 e7 93 be 7a 3a 0d be
       0.29976353 0.036575127 -0.28887373 -0.13791838
0000b0 27 9c 80 3b b8 3b 96 be 83 16 ab bd c6 7b bf 3d
       0.003924865 -0.29342437 -0.08353903 0.0934978
0000c0 5f 93 e1 bc d5 c0 8a ba c0 c2 a0 bd ab b6 67 be
       -0.027536092 -0.0010586033 -0.078496456 -0.22628276
0000d0 99 3a 9a be 0c 70 12 3e 0b f7 4f be b8 a0 4a 3e
       -0.3012283 0.14300555 -0.20309083 0.19787872
0000e0 d7 06 9f 3e 09 16 a7 3e 9c 0b 52 be 47 3f 4a be
       0.31059906 0.32634 -0.20512241 -0.19750701
0000f0 db 86 27 3e f3 f8 30 be 7a 2a d9 3c b3 cd 1a be
       0.16360037 -0.17282467 0.026509512 -0.1511753
000100 e2 87 3c 3e 65 3c 2a 3e e4 fc 6f bb aa e2 91 3e
       0.1841121 0.16624601 -0.003661924 0.28493243
000110 c5 bb 8b be 92 41 ac 3e ee fc 0c 3e 88 30 5a be
       -0.27291694 0.33643776 0.1376836 -0.21307576

module.slow_path.layer1.0.block.1.block.0.bias f4 [8]
000000 ff 92 68 be 82 66 92 3d 93 06 28 be 93 43 4a 3e
       -0.22712325 0.07148458 -0.16408758 0.1975234
000010 d7 f6 9b 3e 16 db b8 3d 8a 8b df 3d 63 a8 91 be
       0.3046176 0.09026162 0.10915287 -0.2844878

module.slow_path.layer1.0.block.1.block.2.weight f4 [8, 8, 1, 1, 1]
000000 4c 78 a4 be 7b b9 7f bd 46 d3 a5 be ec 3e 82 be
       -0.3212303 -0.062432747 -0.3238775 -0.2543863
000010 5d 5a 50 3e e4 6e 1a bd 26 56 7b 3e e5 3f 00 3e
       0.20346971 -0.03770341 0.24544582 0.12524374
000020 0b aa 8e bd 2e 81 b4 be e1 a9 fe 3d 50 1b 10 3e
       -0.06966027 -0.35254806 0.124347456 0.14072919
000030 2a e2 3f 3e 61 11 05 3d a1 d5 a9 3e c6 97 0b 3e
       0.18738618 0.032487277 0.33170798 0.13632116
000040 b7 be 51 be dc 56 7f be 41 33 81 3e 37 3c 63 be
       -0.20482908 -0.24935478 0.25234416 -0.22190939
000050 ef 9d 56 be d1 a5 54 3e e1 80 87 3e df de 91 be
       -0.20958684 0.20766379 0.26465514 -0.2849035
000060 58 13 d0 3d 03 26 aa bc eb 17 49 3d 33 76 4e be
       0.101599395 -0.020770079 0.049095076 -0.20162277
000070 6e df 99 3e 9f a8 72 3d 86 17 a4 be c6 61 45 3e
       0.30053276 0.05924284 -0.32049197 0.19275579
000080 7e 9f 42 3d 92 66 94 be 81 77 6d 3e b6 8f 9e 3e
       0.047515385 -0.28984505 0.23190118 0.30969018
000090 d3 df 4c 3c 26 96 6b bd c0 2d b0 be ef 89 83 3e
       0.012504536 -0.05751624 -0.34409904 0.25691172
0000a0 8a 13 9c be d4 5c 04 be 4f 25 bd 3d b5 d8 7a 3d
       -0.30483657 -0.12926036 0.09235632 0.061241824
0000b0 a3 c0 6a 3e 27 f4 39 bc 41 7e a3 3e 3c 84 69 be
       0.22925048 -0.011349714 0.31932262 -0.2280435
0000c0 1b 47 63 be df 29 97 3e 18 c3 17 bc 83 1e a1 be
       -0.22195093 0.29524133 -0.009262823 -0.3146859
0000d0 76 45 b7 be d6 43 b2 3e 01 1b 8d 3e 95 57 89 3e
       -0.35795182 0.3481738 0.27559665 0.26824632
0000e0 74 17 3d 3e 59 31 0b 3e 83 2f 98 be 68 5d 47 be
       0.18465978 0.13593043 -0.2972375 -0.19469225
0000f0 41 a5 a0 be e0 ba 89 bd 19 b8 bd be ea bf ad bc
       -0.3137608 -0.06725097 -0.37054518 -0.021209676

module.slow_path.layer1.0.block.1.block.3.weight f4 [8]
000000 b1 99 7e 3f 7f 38 81 3f b7 c8 81 3f 9c 00 79 3f
       0.99453264 1.0095366 1.0139378 0.97266555
000010 1e f0 80 3f cc 2a 7e 3f 68 8e 7a 3f 24 e4 82 3f
       1.0073278 0.9928405 0.97873545 1.0225873

module.slow_path.layer1.0.block.1.block.3.bias f4 [8]
000000 b7 31 8f 38 d3 51 cc 36 ed 67 5f 39 84 af ab b7
       6.8280315e-05 6.0891994e-06 0.00021305653 -2.046652e-05
000010 67 0d 90 b8 f2 d7 ab b8 2d 09 d0 b8 10 39 65 38
       -6.8689515e-05 -8.194138e-05 -9.919922e-05 5.4651e-05

module.slow_path.layer1.0.block.1.block.3.running_mean f4 [8]
000000 39 93 17 bd c2 69 b5 3d dd 9f 0d be 04 43 a0 ba
       -0.037005637 0.08858062 -0.13830514 -0.0012227003
000010 c8 7c 91 bb 66 82 9f 3d 8f a5 f5 3c 26 9c 66 be
       -0.004439924 0.077885434 0.029986171 -0.22520503

module.slow_path.layer1.0.block.1.block.3.running_var f4 [8]
000000 64 63 a3 3c ad 4b 20 3d 48 62 28 3d 31 f9 74 3c
       0.019944854 0.03913467 0.041109353 0.01495199
000010 a2 98 02 3d f1 84 bd 3c 70 96 b0 3d 4b 4c 07 3d
       0.031883843 0.02313468 0.08622444 0.033031743

module.slow_path.layer1.0.block.2.block.0.weight f4 [32, 8, 1, 1, 1]
000000 49 74 91 be 44 71 58 3c fa 70 05 3c 3a 1b 81 3e
       -0.2840903 0.013210598 0.0081446115 0.25216085
000010 93 2e 72 be fa f6 54 be 0b 7c 87 be 1a 25 6f 3e
       -0.23650579 -0.20797339 -0.26461825 0.23353997
000020 b9 b4 31 be 82 f1 b6 be d2 aa 7c 3d 5d 89 10 3e
       -0.17354096 -0.3573113 0.061686344 0.141149
000030 94 e9 25 be 31 59 a5 3e 6d be a7 3e 75 fe 0d 3e
       -0.16202384 0.3229461 0.3276247 0.13866599
000040 e3 3f 51 3e 4f b2 7e 3d 2c be 02 3c 07 22 5c 3e
       0.20434527 0.062181767 0.007979911 0.21497355
000050 4d 94 a2 be 51 11 24 3c 18 b4 81 3e 0c 32 ba ba
       -0.3175377 0.010013894 0.25332713 -0.0014205589
000060 7f 80 65 be 11 7e 8a bc 83 03 8f be 0d 81 19 be
       -0.22412299 -0.016905816 -0.27932367 -0.14990635
000070 75 39 2b be 3f 88 43 be 9d 65 d3 bd 18 84 94 be
       -0.16721137 -0.19094943 -0.103221156 -0.2900703
000080 81 f6 e2 bd 4d bb 89 be b4 78 65 3e fd 05 07 bd
       -0.11082173 -0.26900712 0.22409326 -0.032964695
000090 ff 31 82 3e 63 ca f0 3c bc 5e 9e be 91 1e 1a 3e
       0.2542877 0.02939338 -0.30931652 0.15050723
0000a0 d4 95 0d bc 16 ef 78 3e e5 e8 97 be 9e 7a ac be
       -0.008641679 0.24309954 -0.29669872 -0.336873
0000b0 6b c3 91 3e 1c 79 12 bc 47 47 f1 3c a5 0b 5b be
       0.28469405 -0.008940008 0.029452933 -0.21391161
0000c0 8b 28 06 3e ae 9d b0 3e 8f ab fa bd 9c a3 0f bc
       0.13101403 0.344953 -0.122397535 -0.008767035
0000d0 55 a7 e5 bc c1 7e 8c 3e e4 30 a9 3e 64 b6 cb bd
       -0.028033892 0.27440456 0.33045113 -0.099468976
0000e0 98 bc 37 be 02 67 bb be b2 82 61 be ef 0f 81 bd
       -0.17943037 -0.36602026 -0.22022513 -0.06301867
0000f0 82 81 70 be 27 1c 01 be b2 8f 07 3e cb 7e 4f 3e
       -0.23486903 -0.12608396 0.13238409 0.20263211
000100 51 2f c1 bc 01 54 85 bd c9 7a 81 3b 02 50 77 bd
       -0.023582133 -0.06510163 0.0039514047 -0.060379036
000110 f0 3e c9 3d a0 f2 9b 3e 6d 6d ad 3e b9 e9 5b be
       0.098264575 0.30458546 0.33872548 -0.21475877
000120 98 e4 79 be ac 16 9d be b1 af 46 bd a1 41 6b be
       -0.24403608 -0.3068136 -0.048507396 -0.22974254
000130 98 c4 3e be 67 94 fb 3c 10 19 d0 bc 39 c2 b1 be
       -0.18629682 0.030710412 -0.025402576 -0.34718493
000140 a5 2d 84 be 4a 6d 3b 3e 60 1c 93 3e d8 37 c9 bd
       -0.25816074 0.18303409 0.28732586 -0.098251045
000150 6a e3 b6 bd d0 dd a0 be f6 bb 8f bc 3c b5 8c bc
       -0.089300945 -0.3141923 -0.017545681 -0.017176263
000160 3a ff e4 bd d8 36 5d 3c 4e 15 22 be ea 07 1b be
       -0.11181493 0.013501845 -0.1582844 -0.15139738
000170 a5 64 23 3e 1a ea b7 3e 45 a5 e7 bd bc 95 7a bd
       0.15956362 0.35920793 -0.113108195 -0.061177954
000180 57 cb 67 3e c8 9d 25 3e 99 80 2b bc 11 8f bd bd
       0.22636162 0.1617347 -0.010467672 -0.092558034
000190 28 b7 92 3e 68 1b fa 3d 18 98 b5 be b2 f4 10 3d
       0.28655362 0.122122586 -0.354676 0.03538961
0001a0 5c 4a 99 3e 1e 5c 62 3d 74 1f 8a 3e bb 5b a9 bd
       0.29939544 0.05526363 0.26977122 -0.08269449
0001b0 86 26 04 3d 72 da 62 be 06 4a 50 be 96 bd 85 be
       0.0322633 -0.22153643 -0.20340738 -0.26121205
0001c0 5f 51 a8 3d b0 25 57 be 1c 64 2f 3e 89 91 82 3e
       0.08218645 -0.2101047 0.17128032 0.2550166
0001d0 8d 1f 2a bd 6d 74 b2 bc d1 5f f9 3d ac d6 55 3d
       -0.041533995 -0.021784032 0.12176479 0.05220668
0001e0 df 63 6b be 51 9d 3f bc 34 7b 88 be dd 4d 89 be
       -0.22987317 -0.011695222 -0.26656497 -0.26817217
0001f0 b9 f3 e8 3d 1c 0e f8 bd 12 79 2d 3e 08 8d 2b be
       0.113746114 -0.12112066 0.16940716 -0.16753018
000200 5f 47 ba be 34 ac 15 bd d3 9e 3e be d0 db cb ba
       -0.36382577 -0.03654118 -0.18615274 -0.001555318
000210 33 ae 39 3e 83 12 f7 bd f0 0e 9b 3e 9e 39 d8 bc
       0.18132858 -0.12064078 0.30284834 -0.026394662
000220 3e a6 38 be 7a d5 86 be 40 ec 38 be 04 65 72 3d
       -0.18032166 -0.26334745 -0.18058872 0.059178367
000230 70 91 87 bd f6 e4 2b be 62 f0 19 3e 8b 82 82 bd
       -0.06619537 -0.1678656 0.15033105 -0.06372555
000240 61 8d e8 3d ff b3 86 3e 9a 25 3c be 71 45 1c be
       0.11355091 0.263092 -0.18373719 -0.15260865
000250 63 28 b1 3c 82 62 7b be 82 ca bf 3d f7 24 78 bd
       0.021625703 -0.24549296 0.09364797 -0.060582127
000260 e7 17 8d 3e d1 b9 fd bc 3f 21 81 be c9 cc 3a be
       0.275573 -0.030972393 -0.25220677 -0.18242182
000270 0b 46 b8 be f0 a6 89 3e 31 76 3b 3c 17 5a 8e 3e
       -0.3599094 0.26885176 0.011441753 0.27803108
000280 e0 c5 91 3e 59 cd 05 3e e2 01 42 bd cf f2 b0 3c
       0.2847128 0.13066615 -0.047365077 0.021600155
000290 24 73 84 3e d8 fc 91 3e d4 a4 f0 3a bd 3e 08 b9
       0.25869095 0.28513217 0.001835967 -0.00012993343
0002a0 45 1a 15 3e c1 70 8d 3e 58 d7 17 be 28 82 dd 3d
       0.14560802 0.27625087 -0.14828241 0.10815841
0002b0 e5 d5 81 be ac 0b 71 3a 30 be 8f be e0 19 09 be
       -0.253585 0.00091951597 -0.2807479 -0.13388777
0002c0 b1 31 bf bd 5c 8f 37 3d 2c 91 95 3e ae 3a 6a bb
       -0.0933565 0.044814453 0.2921232 -0.0035740542
0002d0 cc c1 96 be 7f fd 8a be 4f 37 68 3e bf 56 91 bd
       -0.2944473 -0.27146527 0.22677349 -0.07096624
0002e0 01 05 81 be b2 96 af 3e a5 a2 78 3e b0 a0 86 3e
       -0.2519913 0.3429466 0.24280794 0.2629447
0002f0 01 87 94 3e ea 33 41 bd 2c 7f 44 3e 88 26 a1 be
       0.2900925 -0.04716865 0.19189137 -0.3147471
000300 3a ac 10 be f9 c9 0c 3d 24 fa 36 3e 1e 77 31 3e
       -0.14128199 0.034372304 0.17868859 0.17330596
000310 f7 8e ae 3e c4 e3 8c 3e 19 c7 18 3d a7 8d 57 bc
       0.3409345 0.2751752 0.03729925 -0.013156331
000320 33 2d 40 3e 63 51 9d 3e ab 47 a0 3e 1f cd 8b be
       0.18767242 0.30726156 0.31304678 -0.27304932
000330 f1 ae 9a be 27 e7 42 bd f1 ec a8 3e c8 ec 93 bd
       -0.30211595 -0.047583725 0.32993272 -0.07222897
000340 12 3c 5a bd 42 6b ae be 3c fa 8f 3e c2 8f fd 3d
       -0.053279944 -0.34066206 0.281206 0.12380935
000350 22 61 ab be 77 75 38 be 06 55 f7 3b e6 59 3d 3e
       -0.33472544 -0.1801356 0.0075479774 0.18491325
000360 1d 49 15 3e c0 d2 e0 bd 91 13 72 3e 1e 21 a3 3d
       0.14578672 -0.10977697 0.23640276 0.07965301
000370 73 37 26 bd de a0 31 3e 3f cf 29 be 3d 7e 95 3e
       -0.040580224 0.17346522 -0.16582964 0.29197875
000380 f1 f6 84 3d d0 d7 35 3c b0 ba 2f 3e a2 2b 52 be
       0.06492413 0.011098817 0.1716106 -0.20524457
000390 99 54 21 3d c8 7c 2e be 76 af 4f be 0a 92 9b 3e
       0.03938732 -0.17039788 -0.20281777 0.30384856
0003a0 ad 35 76 be ad 6e 69 3e 1c c7 6b 3e 80 bb 63 3e
       -0.24043913 0.22796126 0.23025173 0.22239494
0003b0 5e 2d 25 be 61 f8 65 be 97 7d 62 be 46 06 cb bd
       -0.16130587 -0.2245803 -0.22118221 -0.09913306
0003c0 76 8e 98 3e b9 bb fb 3d 5c 74 ad be 94 6b ad be
       0.2979619 0.12291665 -0.33877838 -0.33871138
0003d0 77 dc 61 3e 82 1e 4f 3d 26 35 6a be 0e 87 61 be
       0.22056757 0.050566204 -0.22871837 -0.22024176
0003e0 9c f4 35 3e 0c 25 60 be c2 12 fb 3d f0 ff ab 3c
       0.17769092 -0.21889132 0.12259437 0.020996064
0003f0 4a c6 f6 bd 52 26 bc be da 1b e0 bd 97 c9 9e 3e
       -0.120495394 -0.36747986 -0.10942812 0.31013176

module.slow_path.layer1.0.block.2.block.1.weight f4 [32]
000000 d9 e2 7e 3f 53 33 7d 3f 51 22 82 3f 4b 62 81 3f
       0.9956489 0.9890644 1.0166723 1.0108122
000010 05 dc 81 3f 84 d7 82 3f fc 53 81 3f 6e 7f 82 3f
       1.014527 1.022202 1.0103755 1.0195138
000020 ff e0 7e 3f 38 cb 81 3f 2a a0 7d 3f ad 46 7a 3f
       0.99562067 1.0140142 0.99072516 0.9776409
000030 c4 7d 82 3f 96 1b 82 3f 3b e7 83 3f bf cb 80 3f
       1.0194631 1.0164669 1.0304941 1.0062178
000040 e0 a1 7e 3f 05 21 7f 3f 7d 20 82 3f 34 31 80 3f
       0.9946575 0.9965976 1.0166165 1.0015016
000050 d3 69 7c 3f 9a 96 83 3f 78 ae 83 3f 58 63 79 3f
       0.98598975 1.0280335 1.0287619 0.9741721
000060 5b 21 84 3f af 74 86 3f 90 8b 81 3f 96 3a 7e 3f
       1.0322679 1.0504359 1.0120716 0.99308145
000070 b9 cb 7a 3f e8 81 81 3f 01 42 84 3f 4c 65 7d 3f
       0.97967106 1.0117769 1.0332643 0.9898269

module.slow_path.layer1.0.block.2.block.1.bias f4 [32]
000000 de 72 52 bb 75 7d c4 bc c0 7f 6f 3b 1c ba ce 3c
       -0.0032111923 -0.023985604 0.003654465 0.025235228
000010 98 46 0c bc 5c 5b b5 3c b9 c1 c4 3b 8a d8 eb 3c
       -0.008561753 0.02213829 0.006004539 0.028789777
000020 e2 e2 7d 3b fa 9a 05 3c c7 1a 90 bb 2b 4e 86 3b
       0.003873997 0.008154625 -0.0043977234 0.004098674
000030 eb 11 e3 3b b5 aa d5 3a 8e 60 0e 3d e7 56 7b 3c
       0.006929626 0.0016301485 0.03476005 0.015340543
000040 14 19 e0 3c 71 a1 c5 3c d5 f6 c8 3c fa 74 07 3c
       0.027355708 0.024124833 0.024531761 0.0082676355
000050 f4 53 2a b7 83 b5 1b bb 7a 3a d2 3c f9 d9 e5 bb
       -1.01523365e-05 -0.0023759312 0.02566265 -0.0070145098
000060 bc b2 7e 3c a1 4c aa 3c 7b 69 28 3c 56 16 86 bb
       0.015545543 0.020788493 0.010279055 -0.004092018
000070 e9 ed 2a bc 0d 26 16 3c 06 56 34 3d d4 2b dd bb
       -0.010432699 0.009164345 0.04402735 -0.0067496095

module.slow_path.layer1.0.block.2.block.1.running_mean f4 [32]
000000 9d e5 4f 38 63 c3 38 b8 13 8b f8 36 45 f1 52 b8
       4.956649e-05 -4.4050987e-05 7.4071663e-06 -5.02926e-05
000010 f9 2f 74 38 35 46 ba b8 a0 59 9a b8 cb ce 15 b8
       5.821881e-05 -8.882248e-05 -7.359986e-05 -3.571696e-05
000020 e9 6b a1 b8 92 6c fe b7 5a 85 a6 38 77 35 94 b8
       -7.697178e-05 -3.0329717e-05 7.9403355e-05 -7.0671485e-05
000030 2d 70 c5 37 92 6c d5 38 06 f5 01 38 e8 9d be b8
       2.3536466e-05 0.00010176854 3.0984193e-05 -9.089318e-05
000040 02 0c cf b8 bc 37 61 b8 9f f1 ac b7 59 68 75 b7
       -9.872766e-05 -5.3696087e-05 -2.0616511e-05 -1.4627433e-05
000050 50 a1 04 b8 4a ea 83 37 ce 9c 97 38 69 77 b0 b7
       -3.1621486e-05 1.5725516e-05 7.229448e-05 -2.103644e-05
000060 c9 38 d4 b7 80 28 9d 38 b4 0d cf 38 0d 9c a5 38
       -2.5298812e-05 7.493887e-05 9.8730816e-05 7.89688e-05
000070 c7 80 c3 38 78 56 9e 38 11 57 5d b8 c8 3e d7 38
       9.322311e-05 7.550133e-05 -5.2771593e-05 0.00010263693

module.slow_path.layer1.0.block.2.block.1.running_var f4 [32]
000000 1c d7 c1 3e b0 55 a3 3e f7 d6 c8 3e c3 bd 84 3e
       0.37859428 0.31901312 0.39226505 0.25926027
000010 f7 91 a5 3e 9b d9 13 3f 16 c4 aa 3e 1f 8a 7b 3f
       0.32337925 0.57753915 0.33352727 0.9825763
000020 cd 30 60 3e 88 27 6a 3e 73 5b 00 3e 53 5e a4 3e
       0.21893616 0.22866642 0.12534885 0.32103214
000030 91 a7 17 3f 38 8e 80 3e 33 6f 77 3e 9e cf d6 3e
       0.5924006 0.25108504 0.24163513 0.41955274
000040 ea ca ff 3e 3a 5c 06 3f fe 19 c0 3d 10 b2 f7 3e
       0.499595 0.52484477 0.093799576 0.48378038
000050 45 b1 96 3e 52 1f 1f 3e 41 a1 36 3e 41 3c 25 3f
       0.2943212 0.15539292 0.17834951 0.64545065
000060 8f 16 bd 3e c4 ff 0c 3f 96 fa 21 3f 4e 48 9c 3e
       0.36931273 0.5507777 0.6327299 0.30523914
000070 cf f6 0d 3e 57 02 0f 3e 2c 90 f4 3e fc d5 2b 3f
       0.13863681 0.13965736 0.47766244 0.6712339

module.slow_path.layer1.0.downsample.block.0.weight f4 [32, 8, 1, 1, 1]
000000 a4 99 4d be 18 91 56 be 54 39 6d be dd c3 89 3e
       -0.2007814 -0.20953786 -0.231664 0.26907244
000010 6c 0f a6 3d 0c 5e 18 be 48 41 81 be cc b6 27 3e
       0.0810841 -0.14879626 -0.25245118 0.16378325
000020 29 40 f8 3d 26 51 4f bd a5 35 83 be 9c 31 ff bd
       0.121216126 -0.0506145 -0.25626865 -0.12460634
000030 c3 1a a6 be e8 b3 ab 3e 49 e2 63 3e f0 10 9c be
       -0.32442293 0.33535695 0.2225429 -0.30481672
000040 be 5e 38 be 3b 51 16 3e 6c 8d 83 be 88 5f ad 3e
       -0.18004891 0.14679424 -0.25693834 0.33861947
000050 3f 10 1c 3e 9d 30 57 be d0 ae 4c 3e e4 e0 05 bd
       0.15240572 -0.21014638 0.1998856 -0.032685176
000060 ea a5 35 be 91 03 99 3d 98 56 89 be 45 3d af 3e
       -0.17739072 0.07471383 -0.26823878 0.34226432
000070 c7 31 d8 bd fe 19 7a 3e 8a 7c 22 be 53 14 91 be
       -0.10556369 0.24423978 -0.1586782 -0.2833582
000080 a4 4a 1e be b4 b6 bc bd 61 22 8d be ce 3b 20 be
       -0.1545816 -0.09214535 -0.27565292 -0.15647814
000090 4b 67 77 3e 8b ca 0d be 5c 5e 8b bd de 76 6e 3e
       0.24160497 -0.13846795 -0.06805107 0.23287532
0000a0 c3 8c a7 be 00 a7 97 bd 84 88 9e be 6d 8d c4 3d
       -0.3272458 -0.074048996 -0.30963528 0.09597287
0000b0 96 39 8a be 8f 67 95 3e 6a 58 66 be 00 5c ea 3d
       -0.2699706 0.2918057 -0.22494665 0.11443329
0000c0 3a ba 2d 3e 56 e0 c6 bc 27 5c d2 3d 6b 68 9a 3e
       0.16965571 -0.024276894 0.10271483 0.3015779
0000d0 07 e3 9e bd b8 a4 06 3e 67 cf 8c 3e 36 64 f4 3d
       -0.07758146 0.13148773 0.27501985 0.11933176
0000e0 d6 25 b2 3e 6d 31 c5 bb b8 72 79 3e cd ef a1 3d
       0.34794492 -0.006017855 0.24360168 0.079070665
0000f0 d5 4d 31 be 86 df 26 3e 58 26 5f 3d ec e9 d1 3d
       -0.17314847 0.16296205 0.054479927 0.10249695
000100 8b 21 8b 3e ca 34 1b 3e 4a 2a 97 be ef 19 96 be
       0.2717403 0.15156856 -0.29524451 -0.2931666
000110 26 d0 bc bc b4 7f 4d be 00 13 a6 3d 14 dc 90 3e
       -0.023048472 -0.20068246 0.08109093 0.28292906
000120 21 3f ce 3d 23 19 c3 bd 25 fb 5d be 83 c3 99 3e
       0.10070635 -0.09526279 -0.21677835 0.30031976
000130 81 ed 0b be af d1 a0 3d 1d 34 76 3e 49 cb f2 3d
       -0.1366482 0.07852494 0.24043317 0.1185518
000140 58 37 31 3c 42 fd f0 3d 10 cd 2d 3e 0e 5c 10 3e
       0.010816418 0.11767055 0.16972756 0.14097616
000150 3d b2 2d 3e 40 ee a5 bd b9 f8 61 be be fa 81 bc
       0.16962524 -0.08102083 -0.22067536 -0.015866634
000160 58 dc 8d bb 9c 20 65 3e d3 dd 23 3e 99 e4 af bd
       -0.0043292455 0.2237572 0.16002588 -0.085885234
000170 77 a9 02 be 91 be a2 be db f8 08 3e c3 85 83 3e
       -0.12759958 -0.31786016 0.13376181 0.2568799
000180 72 10 b4 3e 09 1c 11 be a4 5c 5a 3e 9f ad 42 3d
       0.35168797 -0.14170851 0.21324402 0.04752886
000190 e6 4a 7b 3e 2f 5e 74 bd cd 41 15 3c ce 8a 0a bd
       0.2454029 -0.059660133 0.009109926 -0.03382378
0001a0 73 30 2f be e8 64 5f 3c fa 13 68 3e 49 77 3f 3e
       -0.17108326 0.013634898 0.2266387 0.18697847
0001b0 66 2c 53 be 8d a3 23 3e 01 a2 3e 3e 9e fc 8d 3e
       -0.20622405 0.15980358 0.18616487 0.27731794
0001c0 b7 b3 92 3e b3 f5 94 3e 83 18 34 3e 29 74 3f bc
       0.28652737 0.29093704 0.17587475 -0.01168541
0001d0 6a a3 fe bb e0 fe 10 be 85 ef 68 be ea d5 b3 be
       -0.0077709453 -0.14159727 -0.2274762 -0.3512414
0001e0 8a 19 83 3e 59 f4 44 3d f1 ab 9c be 95 df ae 3e
       0.25605422 0.04808459 -0.3059993 0.34154955
0001f0 fd d6 6b be 54 ae 92 be 6e 93 d3 bd cd c6 6a 3e
       -0.2303123 -0.28648627 -0.10330854 0.22927399
000200 d9 7d 15 be 0e 53 97 be 66 ef 99 3e 0e 9b 24 3d
       -0.14598788 -0.29555553 0.3006546 0.040186934
000210 51 cf 4d be ac a7 d9 bd b3 6b ca 3c 8b 26 a0 be
       -0.20098616 -0.10627684 0.024709558 -0.31279406
000220 75 62 34 3e 06 ea 25 be 3a 65 99 3e d2 7b 9e be
       0.17615683 -0.16202554 0.29960042 -0.30953842
000230 6f 1b 1f 3d 33 eb 8a bd ce e2 51 be ca c7 5a 3e
       0.038844522 -0.06783142 -0.20496675 0.21365276
000240 c6 ae 55 be 70 30 b3 be be 2d 7b 3e e4 ce 9b be
       -0.20867452 -0.34997892 0.24529168 -0.30431283
000250 85 91 1f 3e b6 bd a7 be 31 ec 32 be 99 50 1f 3e
       0.15582855 -0.32761925 -0.17472912 0.1555809
000260 aa a2 8f be 3b 39 1f 3e a3 b3 c4 3c dd 82 94 3e
       -0.2805379 0.15549175 0.024011439 0.2900609
000270 21 42 9d 3e 35 dc a3 bc 57 da 16 be df 92 80 be
       0.30714515 -0.020002464 -0.14731728 -0.25112054
000280 f0 ad 8b 3e cf 9c a7 3e a1 3f 38 be 8b b5 84 be
       0.2728114 0.32736823 -0.17993023 -0.25919756
000290 b1 d1 85 3d 3e a0 90 3e 97 ad a8 3e 78 d2 83 3d
       0.06534136 0.28247255 0.3294494 0.06436628
0002a0 80 33 91 3e 13 de 46 3e ee 74 c0 3d ac 35 97 be
       0.28359604 0.19420652 0.093973026 -0.29533136
0002b0 29 f2 80 bd a7 75 27 bc ac 50 95 3c e1 80 8e 3d
       -0.062961884 -0.010220922 0.018226944 0.069581755
0002c0 0e 83 1f bd 94 90 b9 be 7e cb 8b 3e 30 25 1e 3e
       -0.038943343 -0.36243117 0.2730369 0.15443873
0002d0 94 30 36 3e dd ba f7 3c ba cb 1b be 8b 88 91 3e
       0.17791969 0.03024047 -0.15214434 0.28424487
0002e0 cc cd a3 3c 49 24 89 3e 34 ae 92 3e ee 76 9f 3d
       0.019995593 0.26785496 0.2864853 0.07786356
0002f0 50 3b 4f 3e 71 6e fe bd 1c 75 0b 3e e0 33 90 3d
       0.2023747 -0.12423409 0.13618892 0.07041144
000300 a9 cf 43 3c 41 0c 24 be b1 8f 12 3e 16 9f b2 be
       0.0119513655 -0.160203 0.14312626 -0.34886998
000310 40 5c 39 3e 38 94 4c be 7f ae 60 be 90 f5 13 3e
       0.18101597 -0.19978416 -0.21941565 0.14449143
000320 77 0e 02 be 10 1c 48 3e e0 92 e3 3d 0d 76 ff 3c
       -0.1270083 0.19541955 0.111119986 0.03118422
000330 64 5b df 3d d1 a5 00 be a7 c8 32 be b3 3a 10 be
       0.10906103 -0.12563254 -0.17459355 -0.14084892
000340 d1 f7 80 3e ac ff 3c 3e 33 63 9d 3e f7 3c f5 bd
       0.2518907 0.18456906 0.30739745 -0.11974519
000350 ce 65 29 be 4d 96 b8 be 67 94 e7 bd 10 ec 29 3c
       -0.16542742 -0.3605217 -0.113076024 0.010371223
000360 ee 13 b4 3e da d5 bc 3c e8 95 88 3e 2e 87 7b 3c
       0.35171455 0.023051191 0.2667687 0.015352054
000370 fe 86 b4 3e ae 60 4b 3d 8d b0 59 be 65 c0 44 3e
       0.3525924 0.049652748 -0.21258755 0.19214018
000380 68 9c 6a 3e 7b b7 02 3e 6b c6 93 be 4a 1a 0e be
       0.22911227 0.12765305 -0.28862318 -0.13877216
000390 34 5f 8d 3d d4 e2 5b 3e fd 29 fb bc 97 56 86 be
       0.06902924 0.21473247 -0.03065967 -0.26237938
0003a0 95 c3 a6 3d fd 66 48 be ac 1c 7e be 37 7f 79 3e
       0.08142773 -0.19570537 -0.24815625 0.24364935
0003b0 88 47 22 be dc 64 a2 3c bc 58 9f 3e 8f 76 c5 3a
       -0.158476 0.019823484 0.31122386 0.001506524
0003c0 c6 75 30 be 45 23 96 3e b2 ee 20 3d f7 5a 65 bd
       -0.17232427 0.29323784 0.039290138 -0.055994954
0003d0 58 80 a2 be ba ff 15 3e d8 6e 49 3e e4 16 3d be
       -0.31738544 0.14648333 0.1967119 -0.18465763
0003e0 4a 1d 7b 3c 3d 37 0e 3e 11 61 87 be 7c 70 40 bd
       0.015326807 0.13888259 -0.26441243 -0.046982273
0003f0 15 d4 b8 3d fe d5 5d be eb 85 11 3d 3e 74 44 3e
       0.090248264 -0.21663663 0.035528105 0.19184968

module.slow_path.layer1.0.downsample.block.1.weight f4 [32]
000000 7d 18 82 3f 42 91 7a 3f f4 e9 7e 3f d5 ef 7b 3f
       1.0163723 0.97877896 0.99575734 0.9841283
000010 42 bc 7f 3f 8e 93 81 3f d2 07 84 3f 3b 0c 7e 3f
       0.99896634 1.0123155 1.0314887 0.9923741
000020 60 bd 80 3f 11 52 7f 3f 5a 38 81 3f b0 fc 7b 3f
       1.0057793 0.997346 1.0095322 0.98432446
000030 8f f4 77 3f bf 39 81 3f f3 52 7e 3f cf 67 83 3f
       0.9685754 1.0095748 0.9934532 1.0266055
000040 10 6b 7c 3f 75 d3 7b 3f 28 60 81 3f 72 a2 80 3f
       0.98600864 0.9836953 1.010747 1.0049574
000050 6a aa 80 3f 0e e6 7b 3f d1 7e 7d 3f 4e 46 7a 3f
       1.0052006 0.9839791 0.9902163 0.97763526
000060 28 fa 7a 3f 8d b7 80 3f b7 ce 7f 3f 1d 15 7d 3f
       0.9803796 1.0056015 0.99924797 0.9886034
000070 c6 f3 84 3f c2 1e 81 3f 17 8e 80 3f 05 bb 83 3f
       1.0386894 1.0087512 1.0043362 1.0291449

module.slow_path.layer1.0.downsample.block.1.bias f4 [32]
000000 29 d2 83 3b 5f cb e1 bb 31 ba 8a 3b 95 bd 9f bc
       0.004022856 -0.006890699 0.0042336215 -0.01949958
000010 73 ee 8d bb bc 2a a8 3c 1d 13 3c 3d 21 e5 71 ba
       -0.004331404 0.02052819 0.045916665 -0.0009227563
000020 52 8f 82 3c 77 f9 8f bc f6 32 3a 3b c9 c8 a0 3c
       0.015937481 -0.017575009 0.0028411723 0.019626992
000030 38 ed d0 bc 9f 34 28 3c 53 9f 21 3c bc 12 2b 3b
       -0.02550374 0.010266452 0.009864646 0.0026103696
000040 ed 8c d7 bb 35 52 9a bb ea 7b ed 39 6f 04 07 3c
       -0.006578079 -0.004709507 0.00045296486 0.008240803
000050 bb d0 88 3c f1 66 5c bb c4 3d ec ba c5 d9 25 bc
       0.016701093 -0.0033630694 -0.0018023779 -0.010122721
000060 99 14 da bc fe 35 0b bc 26 10 81 3c 4d 50 0c 3a
       -0.02662115 -0.008496759 0.01575477 0.0005352542
000070 7b 52 86 3c e3 ca 55 3b 42 a5 88 bb a9 cc 87 3c
       0.016396752 0.003262215 -0.004170091 0.016577082

module.slow_path.layer1.0.downsample.block.1.running_mean f4 [32]
000000 06 c2 5f be c8 9f 47 be b1 69 fd 3d e5 80 b4 be
       -0.21851358 -0.19494545 0.12373675 -0.3525459
000010 0e 2f 3c be e0 ae 99 be 52 7e 0a 3f 05 d1 ca 3e
       -0.18377325 -0.30016232 0.54099 0.39612594
000020 23 53 ff 3d 6a f7 9b 3e ff 14 58 bc 20 f9 dc 3e
       0.12467029 0.304622 -0.0131886 0.43158817
000030 e8 55 10 3e 40 54 0a 3f 3b c7 43 be de 25 35 3e
       0.1409527 0.54034805 -0.19118969 0.17690226
000040 36 87 2a be 80 f4 98 3c 2a 9c 57 be 46 60 69 be
       -0.16653141 0.018671274 -0.21055666 -0.22790632
000050 38 51 94 3e 4d 67 0f 3e ec d6 25 3e df 1e d8 3e
       0.28968215 0.1400425 0.16195267 0.42211053
000060 31 b2 51 be ef 4a 21 be 16 fc 2b 3e ae 93 4c 3e
       -0.20478131 -0.15751241 0.16795382 0.1997821
000070 39 f3 ab be c0 66 45 3e 6c 8b bd 3d c3 64 5e 3d
       -0.33584002 0.19277477 0.09255108 0.054295313

module.slow_path.layer1.0.downsample.block.1.running_var f4 [32]
000000 ee 20 bb 3c 9d fe 07 3d a1 df 9d 3d 42 bd 33 3f
       0.02284285 0.033201803 0.077086695 0.7021066
000010 42 ca 4c 3e ec 38 08 3e bd 9f fe 3d f2 11 05 3e
       0.1999903 0.13302964 0.124328114 0.12995127
000020 13 ff 13 3f 3f 40 37 3e 50 6a 86 3e 70 c8 c4 3e
       0.5781109 0.17895602 0.26252985 0.38434172
000030 56 69 da 3d 3e d7 89 3e f8 00 24 3f 18 0c 38 3e
       0.106646225 0.2692203 0.6406398 0.17973363
000040 3a 40 e9 3d 58 63 01 3e af b4 b7 3e 41 41 5c 3f
       0.11389203 0.12635553 0.35880038 0.8603707
000050 a6 a8 0d 3e 8e 4e 89 3d d4 44 54 3d 60 df 4a 3d
       0.13833866 0.06704436 0.051823452 0.049529433
000060 a6 55 e8 3d 92 dd 8e 3e b5 c9 62 3d 23 fc 8f 3e
       0.11344461 0.2790342 0.055368144 0.28122053
000070 4f dd a2 3e e9 cf 8a 3e f1 ca d6 3d 31 c7 26 3e
       0.3180947 0.27111748 0.10487927 0.16286923

module.slow_path.layer1.1.block.0.block.0.weight f4 [8, 32, 1, 1, 1]
000000 13 3f cf bd cf d4 23 3e fe 5e e2 3d 8d b2 a2 3d
       -0.10119452 0.15999149 0.110532746 0.07944212
000010 3f e7 c0 3d 7d 02 8d 3d 9e 36 a9 3d 32 cc 71 3c
       0.09419107 0.0688524 0.082623705 0.014758157
000020 38 6a 18 be 87 da 34 bc 4e 4c 9d 3d 97 76 ab bd
       -0.14884269 -0.011038429 0.076805696 -0.083722286
000030 b5 1e 62 3d 3f 50 0d be d7 80 e4 3c a8 44 3f 3e
       0.055205066 -0.13800143 0.027893467 0.18678534
000040 51 65 11 be 27 99 5d bd 07 70 76 3d be 4e 70 3c
       -0.14198805 -0.054101136 0.06016543 0.014667211
000050 78 da bf bd 24 4c d0 3d 04 55 24 3e 80 73 cc bd
       -0.093678415 0.10170773 0.16048056 -0.099829674
000060 f4 20 04 bd a0 1f c8 bd 75 a6 ea 3b 84 d6 af bd
       -0.03225799 -0.09771657 0.0071609565 -0.085858375
000070 22 28 db 3d 8b 11 27 3e 58 6f bb bc 99 33 f6 bd
       0.10701014 0.16315286 -0.022880241 -0.1202156
000080 9f 0c 36 3d 00 2d 74 bd e1 da 7b 3d 5f d1 f8 bd
       0.04444563 -0.059613228 0.061488036 -0.12149309
000090 52 7c 14 be 3b a8 7f 3d 6d ad 21 3d e9 9a 33 3d
       -0.1450055 0.062416296 0.039472032 0.043848906
0000a0 2d 71 35 be 0f 37 07 3e 85 66 c5 bb ef e0 79 bd
       -0.17718954 0.13204597 -0.006024184 -0.06100553
0000b0 dc 1f f8 3d b2 84 05 3e 14 cc 1d 3c d7 89 b1 3d
       0.12115452 0.130389 0.009631176 0.08668869
0000c0 b1 3a bb bd e7 9e af bd 09 cf 0f ba fa 4f 1f be
       -0.09142054 -0.0857523 -0.0005485868 -0.15557852
0000d0 aa a8 1e 3e 56 5d f8 3d 98 cf ec 3c 4a 11 c6 3d
       0.15494028 0.121271774 0.028907582 0.096712664
0000e0 5e fe 51 3d c1 10 46 bd be da 94 bd d9 96 87 3d
       0.051267974 -0.04835582 -0.07268284 0.06620569
0000f0 76 3a ef 3d 60 ab ea bd 94 35 e6 b9 1f 20 b0 3c
       0.116810724 -0.114584684 -0.00043908937 0.021499692
000100 b2 36 d4 bc f7 37 29 bb ef 5b f6 bb 66 91 0a 3e
       -0.025904987 -0.002582071 -0.0075182836 0.13532028
000110 46 14 15 be 29 76 05 3e 4b 2a be 3d 77 e0 a1 bd
       -0.14558515 0.13033356 0.092854105 -0.079041414
000120 33 7a c4 bd c7 c5 16 3e 6f 34 6a bd 79 14 a5 bd
       -0.0959362 0.14723884 -0.05717891 -0.080605455
000130 7e e1 8b 3c 97 a0 23 3e 58 a3 86 bd 31 30 d2 bd
       0.017075296 0.15979229 -0.06574124 -0.10263098
000140 18 59 88 bd 0b 9c 7a bd 81 a8 fd bc 6e 94 e8 3c
       -0.06657618 -0.06118397 -0.030964138 0.02839109
000150 4e b9 84 bd 06 8d 24 3d 52 06 cd bd d3 1d 5f 3c
       -0.064806566 0.040173553 -0.10010971 0.0136179505
000160 bc 1a 32 3e 7d 56 a8 bc c7 44 08 3e ea 56 cb bd
       0.17393011 -0.020549053 0.13307486 -0.09928687
000170 52 f9 20 3d 2b dd 10 3e 5a 7f 14 3e 07 b2 05 3e
       0.03930027 0.14146869 0.14501706 0.13056193
000180 21 10 78 3c f2 0b 69 3d 57 e6 27 3e c0 8b 4c 3d
       0.015140564 0.056896158 0.16396461 0.049937963
000190 3c bb 0b bd a9 f1 90 3d c3 08 d3 3d da 90 23 3d
       -0.034114107 0.07077343 0.103044055 0.039933063
0001a0 b8 a2 05 be b3 fc d2 3d dc cf dc 3d 6b e3 0d 3e
       -0.13050354 0.10302105 0.107818335 0.13856284
0001b0 30 1c b8 3d 7c 86 ab 3a 54 18 1d bd d6 08 dd 3d
       0.08989751 0.0013086344 -0.03835328 0.10792701
0001c0 f2 e5 d9 3d 3d 53 10 be 3b 7a f6 3c 2f 26 5b 3d
       0.10639562 -0.14094253 0.03008758 0.05350321
0001d0 81 06 3e 3e a8 6c 4e 3e 7d fb af 3d 9f 6c a8 3c
       0.18557169 0.20158637 0.085928895 0.020559607
0001e0 a5 37 e7 3d 54 d5 dc 3d 35 14 a9 3d 70 dd 1c 3d
       0.1128991 0.107828766 0.08255807 0.038297117
0001f0 57 95 a6 3c 93 a3 c1 3d 39 4b 15 3e de 94 2a 3e
       0.020334883 0.094550274 0.14579476 0.16658351
000200 95 99 74 3d f7 a5 79 3d 13 5f bb 3c 27 31 ba bd
       0.05971678 0.060949292 0.022872483 -0.09091406
000210 cd 85 67 3d b2 08 e0 3d d4 51 0b 3e 76 38 a8 bd
       0.056524087 0.109391585 0.13605434 -0.08213894
000220 f1 f6 48 bc 5c 52 4f bd 44 69 f3 3d a4 41 c9 3d
       -0.012265907 -0.050615653 0.11885312 0.09826973
000230 90 97 1e bd de 91 f6 bd 58 1f ff bd 79 0c 98 bd
       -0.03871876 -0.12039541 -0.1245715 -0.07424254
000240 02 42 9f bd 13 0f b6 3c 87 83 4b bc d3 62 33 be
       -0.07776262 0.022223985 -0.012421495 -0.17518167
000250 34 d4 14 be 7d 29 6e 3d 69 f1 8d bd 27 2e 36 3b
       -0.14534074 0.058145035 -0.06930811 0.0027798505
000260 e7 bf bf 3d 2f 2e 1a 3e d4 dd 6b bd cf 46 4b bc
       0.09362774 0.1505668 -0.0575846 -0.012407019
000270 84 cf 8a bd f0 d9 52 bd 4e 1c 3e 3e f2 8a 21 be
       -0.06777862 -0.051477373 0.18565485 -0.1577566
000280 17 23 ac bd 1b 7c f2 3c 65 5c f0 3d 20 b6 81 3d
       -0.0840513 0.029600194 0.11736373 0.06333566
000290 ea db 41 bd 67 64 08 bc 87 c4 23 be 77 2a 80 3b
       -0.047328867 -0.008324719 -0.15992938 0.003911312
0002a0 bb a3 2e bc 23 24 cb 3d 6f 0e f7 3c a3 69 3a 3d
       -0.010659154 0.09919002 0.03015825 0.0455109
0002b0 24 a1 43 be 8d af 0a be 75 04 22 3e 90 fb 29 bc
       -0.19104439 -0.1354353 0.15822013 -0.010374919
0002c0 d5 b5 28 be 97 a7 f1 3d 67 ac c5 bd 53 64 c2 3d
       -0.16475613 0.11799543 -0.09652024 0.094917916
0002d0 bb e4 43 3d 07 da 99 bb 62 fc e0 3d 80 28 ac 3d
       0.047825556 -0.0046951803 0.10985638 0.08406162
0002e0 fe 4e d8 bd cc fa 2b be 36 b2 6c 3d 0c 43 93 bd
       -0.105619416 -0.1679489 0.057787143 -0.071905226
0002f0 5c f1 1f 3e b7 24 ac bd 3c 05 9f bd b2 a0 ea bd
       0.15619415 -0.0840544 -0.0776467 -0.114564314
000300 5b 9c 99 3c ea fe 02 be 69 21 cb bd 38 92 33 3d
       0.018751314 -0.12792554 -0.09918482 0.043840617
000310 75 f5 5d 3d c4 2e 5b bb 4e 44 81 3d 2e 2d d3 3d
       0.054189164 -0.0033444623 0.06311856 0.10311352
000320 31 b5 2d 3e 1e 4b 81 bd 09 24 93 bd eb c6 f0 3d
       0.1696365 -0.063131556 -0.071846075 0.117566906
000330 d2 a5 80 bc ce c4 1b bb 42 cf 60 bd a6 8b e3 bd
       -0.01570407 -0.0023768428 -0.054885156 -0.1111062
000340 51 ac 4f bd 78 e6 13 3d f6 fa 1f 3e 5b 5f cb bd
       -0.050701443 0.036108464 0.15623078 -0.09930297
000350 9d e2 39 bb 65 08 c6 3d 8f 6e a8 3d f3 10 f4 3d
       -0.0028363832 0.0966957 0.082242124 0.11917295
000360 13 3f 9f 3d e9 10 12 be 5c b4 f1 3d c1 0e 0e 3e
       0.07775702 -0.14264263 0.11801979 0.13872816
000370 4b 3b 14 be 30 cb ba bd 9d 91 05 3e c4 19 62 3d
       -0.14475743 -0.09120786 0.13043828 0.055200353
000380 48 32 c5 bd 8a 3b 96 bd 1a 42 ba 3d 3c 9e 30 be
       -0.09628731 -0.07335575 0.09094639 -0.17247862
000390 d1 64 30 3e 58 5c 1c 3d 8e f2 77 3c 6c be b6 bd
       0.17225958 0.038174003 0.015133513 -0.08923039
0003a0 67 e0 f8 bd 5a f2 25 bd d5 94 35 be 1f ba a1 bd
       -0.12152176 -0.040514328 -0.17732556 -0.07896828
0003b0 0a 71 14 bd e2 e7 ad bd 8a 75 c2 bd ab 11 92 3c
       -0.036240615 -0.08491494 -0.09495075 0.01783069
0003c0 3e 93 0b be b6 2c 1f 3c 78 5d f2 3d 53 a3 a7 3d
       -0.13630387 0.00971525 0.11834234 0.081854485
0003d0 7e 7d 83 3d 4d c1 a1 3d 63 83 fc bd 0a da 87 bb
       0.0642042 0.07898197 -0.123297475 -0.0041458653
0003e0 a6 2e d9 bd 63 b3 9f bc e3 b0 18 be b5 18 00 be
       -0.106046006 -0.019494718 -0.14911227 -0.12509425
0003f0 f8 59 31 3e 54 52 05 3e 6f af 2c 3e c7 a0 4f 3e
       0.17319477 0.13019687 0.16863798 0.20276175

module.slow_path.layer1.1.block.0.block.1.weight f4 [8]
000000 72 4c 7f 3f a1 73 82 3f 66 7a 81 3f 78 cd 82 3f
       0.9972602 1.0191537 1.0115478 1.0218954
000010 ca 99 7e 3f 95 8d 7c 3f 7e 6b 7f 3f 52 1d 80 3f
       0.99453413 0.9865354 0.99773395 1.0008948

module.slow_path.layer1.1.block.0.block.1.bias f4 [8]
000000 21 04 a6 3a c3 0a e3 3b 93 b3 d6 3b 4e b9 ce 3c
       0.0012666025 0.006928773 0.0065521686 0.025234845
000010 42 1d c9 bc 51 ac e5 bc 9d a5 d5 3c cc e1 78 3b
       -0.024550084 -0.028036268 0.026079947 0.0037976382

module.slow_path.layer1.1.block.0.block.1.running_mean f4 [8]
000000 fb b3 75 3e 84 41 44 3e 1e f0 a7 3e 98 71 d3 3f
       0.23994438 0.19165617 0.32800382 1.6519041
000010 cd 29 3e be 92 68 70 be 4d dd d5 3e a1 cb 7b be
       -0.18570633 -0.2347739 0.41770402 -0.24589397

module.slow_path.layer1.1.block.0.block.1.running_var f4 [8]
000000 4f 52 1a 3e b1 d8 59 3e 64 ee f4 3d 68 16 73 3f
       0.1507046 0.21274067 0.11959532 0.94956064
000010 5f d4 b8 3e f2 b0 30 3e 62 50 c9 3e a9 63 3e 3e
       0.36099526 0.17255 0.3931914 0.18592705

module.slow_path.layer1.1.block.1.block.0.weight f4 [8, 1, 1, 3, 3]
000000 8c 45 32 bc 28 28 22 3c a4 82 11 3e 1a 19 60 be
       -0.010880839 0.009897269 0.14209992 -0.21884575
000010 3d e0 a4 be 37 fb c4 3d 58 9b 63 be 91 d7 99 3e
       -0.3220233 0.09618228 -0.22227228 0.30047277
000020 5c be 2a bd b4 c6 69 be b4 06 9e 3e 33 1c 50 bd
       -0.041685447 -0.22829705 0.3086449 -0.050808143
000030 93 c3 ad bc de 6c 45 3e 11 39 77 be 60 0e 06 3e
       -0.021211421 0.19279811 -0.24142863 0.13091421
000040 fe 91 48 be 94 ee d8 ba c2 37 c5 3c 0e 1c 95 3e
       -0.19586942 -0.0016550594 0.024074439 0.29122967
000050 d2 ce 01 3d 00 4e 8c 3e 7c 9a eb bd ad eb 49 3e
       0.03169138 0.2740326 -0.11504075 0.1971881
000060 92 49 29 be cc 34 93 3e 66 bf 00 be 41 ee 0d be
       -0.16531971 0.28751218 -0.12573013 -0.13860418
000070 62 56 66 be 96 7f a7 3e ae 7a ae 3e 02 2c 11 be
       -0.2249389 0.32714528 0.34077972 -0.14176944
000080 bf c2 8e be 99 64 b5 3d 72 f0 ad 3e 58 3a be bd
       -0.27882954 0.08857078 0.33972508 -0.09288472
000090 25 52 da 3b db bb ac be b3 c0 81 be b4 d2 94 be
       0.0066626244 -0.33737072 -0.2534233 -0.29067004
0000a0 45 2d 21 3e 9d 79 14 3e 57 90 ea bd 51 da c7 3d
       0.15739925 0.14499517 -0.11453312 0.097584374
0000b0 5a af 69 3d ca 90 ac be 8f 15 35 3e 59 bc 24 3d
       0.057051994 -0.33704215 0.17684005 0.040218685
0000c0 39 cd 8c 3e 9e 46 5e 3e 1d c8 6e 3e fd 7e d5 bd
       0.27500322 0.21706626 0.23318525 -0.10424612
0000d0 49 0a 33 3e 15 a0 14 3e 56 ec 9d be e1 0b f0 bd
       0.17484392 0.14514191 -0.30844373 -0.11721016
0000e0 fd f4 ff bd 76 c7 85 be f4 97 85 be cb b6 47 3d
       -0.124979 -0.2612874 -0.26092494 0.04875831
0000f0 7b 73 a6 bb a1 cd 8f 3d 42 29 20 be 70 e0 98 be
       -0.0050796843 0.070216425 -0.15640739 -0.29858732
000100 37 4d 75 bd 0f 28 85 3e 30 2d 5e bd f4 3a cf bd
       -0.05988809 0.26007125 -0.054242313 -0.10118666
000110 35 33 5b 3e c9 55 a7 be c0 8a 55 3e 33 b5 83 3e
       0.21406253 -0.32682636 0.2085371 0.25724182

module.slow_path.layer1.1.block.1.block.0.bias f4 [8]
000000 d2 1c 8e be 1a 67 4b 3e f8 4c 3f be c9 20 25 be
       -0.27756363 0.19863549 -0.18681705 -0.16125788
000010 f9 ed 3d 3e e0 6d 70 3d fb df 89 3e 6b 52 91 bd
       0.1854781 0.058698535 0.26928696 -0.07095798

module.slow_path.layer1.1.block.1.block.2.weight f4 [8, 8, 1, 1, 1]
000000 71 29 cf 3d 1a d4 c9 bd 89 ba 6a 3e fa 3d b1 3e
       0.10115326 -0.09854908 0.2292272 0.34617597
000010 89 f0 e3 3d 8c 72 b4 be 3c 60 99 3e 36 e3 4a 3e
       0.11129863 -0.35243642 0.29956234 0.19813237
000020 5f 46 4e be 19 4c f4 3c e0 fa 94 3e 22 8d 7b be
       -0.20144032 0.029821442 0.29097652 -0.24565557
000030 57 24 5c 3e 76 87 9f ba 05 c3 4e be da fa 18 3e
       0.21498238 -0.0012171108 -0.20191582 0.14939442
000040 e2 1b 49 3e 6a 52 ab 3e fd c6 5e 3c 36 7f a4 be
       0.19639543 0.33461314 0.013597247 -0.32128304
000050 a4 12 29 3e 0d 35 95 3e 14 1b 99 be 18 68 30 3e
       0.16511017 0.29142037 -0.2990347 0.17227209
000060 81 4d 91 3e 14 3c 93 3e f5 48 ad 3e 53 43 b0 bd
       0.28379443 0.28756773 0.33844724 -0.08606591
000070 3e ac d9 bd eb ca 4f 3d d6 0a 96 be 68 06 32 bd
       -0.10628556 0.050730627 -0.29305142 -0.04346314
000080 9e 40 2d be a1 da 7a 3e bd 05 af 3e 27 63 be be
       -0.16919181 0.24497463 0.34184065 -0.37185022
000090 f5 1a 32 3e 8f 45 87 3e 69 cc 1e bb ba 2f 8f 3e
       0.17393096 0.26420256 -0.0024230725 0.279661
0000a0 03 87 05 3d 82 64 a0 3d df 04 a2 3e 61 2d 6d 3b
       0.03259946 0.0783167 0.3164434 0.0036190378
0000b0 cc 81 ea bd d9 aa 2f 3c 01 06 4c be 3e 17 87 3e
       -0.11450538 0.010721886 -0.19924165 0.2638492
0000c0 8e 20 26 3e 5c d2 82 be c1 ae 2d be 25 fc a7 bd
       0.16223356 -0.25551116 -0.16961195 -0.0820239
0000d0 f6 a2 9e 3e fc f7 49 bd 8f 62 b6 3e 7f f5 91 bd
       0.30983704 -0.049308762 0.3562207 -0.07126903
0000e0 5c 92 a9 3e 65 a6 83 3e e2 f1 8c 3e 7a 45 a6 3e
       0.33119476 0.25712886 0.27528292 0.3247488
0000f0 2c cc 67 3d 1a 69 3a be 10 b6 01 bd 4b 59 bd bc
       0.056591198 -0.18204156 -0.03166777 -0.023113867

module.slow_path.layer1.1.block.1.block.3.weight f4 [8]
000000 4a e3 83 3f 06 19 7d 3f ce 27 7f 3f 86 35 82 3f
       1.0303738 0.9886631 0.9967011 1.0172584
000010 66 bc 7b 3f cf 2f 85 3f ea 4a 79 3f ec c3 72 3f
       0.9833435 1.0405215 0.97379935 0.94830203

module.slow_path.layer1.1.block.1.block.3.bias f4 [8]
000000 05 fb 3e 38 96 1b 12 b8 2d 9b f7 38 e9 c2 11 b9
       4.553331e-05 -3.4834804e-05 0.000118067815 -0.00013900887
000010 f8 0f 63 b8 de 13 9a b8 1d 1a cb b7 a7 d9 6c b8
       -5.413589e-05 -7.346993e-05 -2.4211646e-05 -5.646949e-05

module.slow_path.layer1.1.block.1.block.3.running_mean f4 [8]
000000 f9 3d 20 3e e6 36 42 3c 2a 49 5f 3d 71 a9 5d bd
       0.1564864 0.011853909 0.054513134 -0.05411667
000010 57 c0 72 3e 31 fc 19 bd f0 ce 32 3e 0c 54 aa 3d
       0.23706184 -0.037594024 0.17461753 0.08316812

module.slow_path.layer1.1.block.1.block.3.running_var f4 [8]
000000 53 28 1e 3d 8c b2 21 3d 62 29 46 3d 05 8c 4e 3d
       0.038612675 0.039476916 0.04837931 0.0504265
000010 6e 4a 1e 3d 3a 4b 16 3d fa c4 40 3d c4 29 0e 3d
       0.0386452 0.036692835 0.04706285 0.0347078
